train_models/LUSC/param2_10_param3_20_epoch_20.pth (torch, 470027 bytes, 9 tensors)

weight f4 [341, 341]
00000000: 17b7 d138 0c55 e63c b749 61bb d9e3 96bb
00000010: 8193 273c ed24 77ba 8f5f 293c 48c6 9b3c
00000020: 0c30 bdbc 8427 06ba 825b cfbb eb00 b43c
00000030: d8bb 9d3c 31dc e33c d1b9 e13c aa08 e43c
00000040: 8599 ae3c e41e 553c aa54 c63c a81a 04bc
00000050: 790a b63c fb0b 84bc b20b e33c 02c4 b43c
00000060: d881 c73c cd99 cc3c 14fb 10bc 16ee 65bc
00000070: 1867 0bbc 9a52 533a 72a9 163c cd2a dfbb
00000080: 3cb5 6d3c 1c7e 20b9 c433 873c e6a9 eb3b
00000090: 1409 cbbb 4284 9d3c d9a7 23bc 12bf f8ba
000000a0: 5aba f13b ca3d 8a3c 98f2 97bb 6eed 42bc
000000b0: 0f3f 1cbc 0b08 c83c 5a40 a1bc 52ab c8bb
000000c0: 485d 693c 0b88 e6bb 40d5 4d3c 2167 b73b
000000d0: 318a a5bb 5c06 653b 204f 80b9 ae46 c33c
000000e0: a445 ee3b 08d8 d43b f56e 563c 88d5 4dbc
000000f0: e814 cc3c 0e31 9bbc 15c6 a0bc 8b29 db38
00000100: 988e fb3b b9c3 b93c 068e 84ba b11c 0f3c
00000110: 855f 8abc b7bb 38bc 6a81 e0ba 2c9d b73a
00000120: 82f2 023b 88e6 9b3c 0e43 5c3c f40a c3bb
00000130: 87a2 46ba 4214 723c 053a 80bc e024 98bb
00000140: 2fc7 b73b 9ceb 2ebc 433f 8c3c d73d 313c
00000150: 49a3 463c 239d bd3c c0fa 053c c292 0ebc
00000160: c2a4 0c3b c1e6 8c3b 1184 94bc dfbc 9bbb
00000170: e867 87bc b51c 5abc c665 c1bc 693e b8bc
00000180: 0a92 963b b6ee 26bb 52c5 bfbc da7e 97bc
00000190: 88f1 25bc f9b6 a1bb dc33 1a3c 95d7 e2bb
000001a0: d07e e63a a651 12bb cb47 3dbb 3373 5f3c
000001b0: 2b46 1b3c 6f16 1bbb a14e 803c cf82 563c
000001c0: 5f75 3abc f9b0 a8bb 7bf9 8abc b617 74bc
000001d0: 78c6 163b d073 e8bb 553f dc3b 3e2c 2cbc
000001e0: 469c 683c d888 ba3b a25d 9c3c d00a 1cbc
000001f0: a3a4 96bc 79ee 253c db56 b5bb 2ca2 18bc
00000200: d654 04bb cc1d 083c 5d46 263c 171f 0c3c
00000210: 73ca a03c 484b ed3b fff6 ff3b 5063 493b
00000220: a817 823c 1c51 2f3c 1afe 683b 951b c4bb
00000230: 3025 093c e6e4 eeba bc9d 693c c960 0aba
00000240: f4f5 40bc 166d b8ba beb3 2aba 5199 6bbc
00000250: aec0 0cbb 6d99 153c e91c 05bb f411 423c
00000260: dc3a be3b 0db1 f8bb 7af3 463c 4ef8 bdba
00000270: 97d3 463b 191d 523b 1c88 973b c7c3 5fbc
00000280: cf0a 083c 6d0c 193b 0aaa 643c 28c5 0c3c
00000290: 4d14 80bc 2756 08bc b6c3 aebb 091a 65bb
000002a0: 4fb4 373b 837b 6f3c a845 873c f093 00bb
000002b0: dc62 c03b 444f 2ebb e84b 803a 30c6 8b3b
000002c0: 87f1 02bc 4757 8f3b 1c47 56bc 37b8 6abc
000002d0: 7d02 86bc ded1 4fbc d8f9 75bc 64b9 ed3b
000002e0: 2dee 10bc 4fcc 55bb 48c4 95bb 0172 d6bb
000002f0: 375a dd3b c6bf 1e3c b8e1 bc3b 0ac8 7e3b
00000300: 1805 913b fa0b 093c de9e 1f3c 665b deba
00000310: 8a73 2a3b 08da 263b f7f1 653b 2edf 183c
00000320: 15fd 83b9 43dc 603b b675 8fbb 05e7 093c
00000330: c23a 863c a14c 803c 5c73 393c 2a5b 36bb
00000340: 4dce 49bc 8fa5 28bb ba31 273c 20bf 4c3c
00000350: 5626 ba3c 26b1 2e3b 8fc8 113a 0cc0 a53c
00000360: c714 fc3b 3c40 273b 64a5 5f3c 92dd 033c
00000370: 6c5f d13b 67f5 2e3c 9adc 973b 5456 9ebb
00000380: 73e0 aabc 2981 20bb e710 d93b 8f13 dfbb
00000390: 0003 a539 e98c 033c fe50 4e3c 9b26 0cbc
000003a0: a3ad 01ba 5acb 8239 1e23 febb d860 a6b9
000003b0: fbd1 a0bb 9e77 9fbb 6c97 05bc 0304 bcbb
000003c0: 69b3 feba d2e1 6b3a c6a3 8c3c 6a46 253b
000003d0: 7c8b 803c e7f4 f93b 8f69 573c c8d0 1e3b
000003e0: 1bbf 45bc 014a 3e3c 58c3 7e3c 9707 743c
000003f0: d0c6 1d39 696d 3f3c 95be ad3c dfeb 283b
1e-04 0.028116725 -0.0034376213 -0.0046047983 0.010228039 -0.00094278046 0.010337724 0.019015446
-0.0230942 -0.00051175826 -0.0063280473 0.021973094 0.01925461 0.027814956 0.027554424 0.027836163
0.021313438 0.013007853 0.024210293 -0.008062996 0.02222179 -0.016118994 0.027715538 0.02206612
0.024353907 0.024975682 -0.008848924 -0.014033815 -0.008508466 0.000806132 0.009195672 -0.006810522
0.014508542 -0.00015305768 0.016504176 0.0071918843 -0.0061961506 0.019228105 -0.0099887485 -0.0018977842
0.007376951 0.016875166 -0.0046370737 -0.011897428 -0.009536519 0.024417898 -0.019684006 -0.0061239386
0.014243431 -0.0070352606 0.01256305 0.0055970107 -0.005051874 0.0034946417 -0.00024473015 0.023837414
0.0072714854 0.0064954795 0.013087978 -0.012563117 0.024912313 -0.01894429 -0.019625703 0.00010450472
0.0076769106 0.022676336 -0.0010113127 0.008734868 -0.01689125 -0.011275223 -0.0017128412 0.0014008633
0.0019980972 0.019030824 0.013443721 -0.0059522334 -0.0007577319 0.014775338 -0.015652666 -0.0046430677
0.0056084613 -0.010676291 0.01712001 0.010817966 0.012123891 0.023146218 0.008177459 -0.008701982
0.0021460508 0.004299969 -0.01812938 -0.00475274 -0.016529039 -0.013312508 -0.0236081 -0.022490697
0.004595046 -0.0025471873 -0.02340952 -0.018493105 -0.010128386 -0.004935142 0.009411778 -0.006922672
0.00175854 -0.0022326498 -0.0028881903 0.0136383055 0.009477179 -0.0023664495 0.015662493 0.013092711
-0.0113805225 -0.00514805 -0.016964665 -0.014898231 0.002300648 -0.007093884 0.006721417 -0.010508595
0.014197415 0.0056925826 0.019087616 -0.009524062 -0.018389052 0.010127657 -0.0055340356 -0.009316009
-0.0020192168 0.008307885 0.010148612 0.008552334 0.019627785 0.0072416402 0.0078114267 0.003072936
0.01588042 0.01070049 0.0035551847 -0.0059847333 0.008370683 -0.0018226176 0.014258798 -0.00052787043
-0.01177739 -0.0014070596 -0.0006511769 -0.014379815 -0.002147715 0.009130818 -0.0020311421 0.011845101
0.0058053564 -0.0075894655 0.01214301 -0.0014493556 0.003033852 0.00320608 0.00462438 -0.013657517
0.008303358 0.0023353354 0.013956556 0.008591928 -0.01563468 -0.008321322 -0.005333389 -0.0034958145
0.0028031056 0.01461685 0.016512707 -0.0019619428 0.00587116 -0.002659754 0.0009788247 0.004265569
-0.007992155 0.004374418 -0.013078477 -0.014326147 -0.016358608 -0.012684314 -0.015013181 0.0072547663
-0.008845848 -0.0032622998 -0.0045705177 -0.006544352 0.006755139 0.009689277 0.0057642125 0.0038876557
0.004425656 0.008364672 0.009742467 -0.0016964495 0.0026008808 0.0025459547 0.003508685 0.009330554
-0.00025174828 0.0034310974 -0.004378046 0.008416896 0.01638544 0.01566154 0.011319008 -0.0027825334
-0.012317252 -0.0025733446 0.010204727 0.01249674 0.022723358 0.0026655882 0.00055611966 0.020233177
0.0076929065 0.0025520464 0.013650272 0.008048432 0.006389549 0.010678626 0.004634452 -0.0048320685
-0.020858979 -0.0024491048 0.0066243294 -0.0068077515 0.00031473488 0.008029201 0.012592552 -0.008554126
-0.00049468334 0.0002494704 -0.007755651 -0.00031734142 -0.004907844 -0.0048665544 -0.008153778 -0.005737783
-0.001943213 0.00089981884 0.017167937 0.0025218972 0.015691511 0.0076280716 0.013147726 0.002423333
-0.012069489 0.011614324 0.015549503 0.014894388 0.0001504675 0.0116838 0.02120904 0.0025775356

encoder1.0.weight f4 [15, 1, 5, 1]
00000000: f6b3 38bd 9aac 60be 6c03 adbe 4c0a 203e
00000010: 019d df3c 8a32 29bd f159 1d3e 9ec1 913e
00000020: b7a0 babc 86f5 92be c8d7 9fbe f26f b53e
00000030: 4f60 94be 98d1 5e3d 075b 23be 9c1a 82be
00000040: 7216 b4be 085e 7abe c793 f03c d798 2c3b
00000050: 30b2 2d3d f8af b03d 8d2c ffbc c507 c1bd
00000060: d999 8b3e 5693 893e b42d 863e 1b7a d03e
00000070: dde1 4b3e a4d5 393e e623 693e 9a65 503e
00000080: 687f c9be c8dd 2e3e fcf8 543e 4fc6 0d3e
00000090: 3b5f 79bd 6eb9 e7bd 1163 78be b4ab a0be
000000a0: 8f35 5e3e 70ad 363e dab0 943e 4844 663e
000000b0: 5ccf 9ebe 8fd1 aa3e 3c50 653d 5edf be3e
000000c0: 040f a83e 99c0 753d 44a9 993e 29ef 8ebe
000000d0: 9064 563d bec2 253e c945 373e 52ab c5be
000000e0: faec 83be 6211 223e 11c8 0b3e 0ce8 1fbd
000000f0: 961b 413e 7128 b23d 58d5 bc3e 70a5 403e
00000100: 5310 ffbd 0278 28bd 2fc9 833e 54f0 8a3e
00000110: fced 61be 1555 7fbe 64b4 a2be 6868 a63a
00000120: 5e8b 2b3e 8586 ea3d 1b0e 183d
-0.0450935 -0.21940842 -0.33791673 0.15628928 0.027296545 -0.041307963 0.15366341 0.2846803
-0.022781713 -0.28702945 -0.31219316 0.3543697 -0.28979728 0.054399103 -0.15952693 -0.25410926
-0.35173374 -0.24449933 0.02936734 0.0026336217 0.04240626 0.086273134 -0.031149173 -0.0942531
0.27265814 0.2687022 0.26206744 0.4071816 0.19910379 0.18147904 0.227676 0.20351258
-0.39355016 0.1707679 0.20798105 0.1384518 -0.060881834 -0.11314665 -0.24256541 -0.31381
0.21700118 0.17839599 0.29041177 0.22486985 -0.31017578 0.33363006 0.05598472 0.3727979
0.32823956 0.05999813 0.30011952 -0.2791684 0.052341998 0.1618757 0.17897715 -0.3860727
-0.25766736 0.15826944 0.13650538 -0.039039657 0.1885818 0.0869912 0.36881518 0.1881311
-0.124542855 -0.041130073 0.25739428 0.2713648 -0.2206344 -0.249348 -0.31778252 0.001269591
0.16752383 0.11451439 0.037122827

encoder1.0.bias f4 [15]
00000000: 4d84 e93e 699c 153e 7b2e 253e a1ad e6bd
00000010: 1618 5d3e 5139 143e df74 793e 94ba 8bbe
00000020: 7f8d e7bd 92fb 00bf 19aa 953e ac40 8d3e
00000030: e23f acbe d234 d2bc 3d9a a9be
0.4560875 0.14610447 0.16131012 -0.11263586 0.2159122 0.1447499 0.24360989 -0.27290785
-0.11306285 -0.50383866 0.29231337 0.27588403 -0.3364249 -0.025659952 -0.33125487

decoder1.0.weight f4 [15, 1, 5, 1]
00000000: c27e 753e 1fd6 e9be f08f 1d3d c632 90be
00000010: 2636 5abc 9e7e acbe 7fd2 f83d df1d 6e3e
00000020: 38e9 493e 5579 c23d df0a 593d bf44 1e3e
00000030: 4526 3ebe 4cee 983e f50a c93d 682f aabe
00000040: 19c0 a13b d150 80bd d0f0 68bd d875 5dbd
00000050: 77fc 9abd 1796 053e 0da8 b53d 4469 893e
00000060: 0b09 e83e d265 bbbc 74eb a2be cbc4 d13e
00000070: a893 f5bd c384 033f eb0f 03be dae3 f23e
00000080: 59a2 50be dc98 88be 7bc8 b5bd 98b6 f53e
00000090: 52f8 c13e 433b abbe 2dfc 553e b30f 06be
000000a0: e72f 05be 2895 03be d0fd e13e 5169 b5be
000000b0: 9edf fdbe 836e c8bd 3410 8ebc 60ff b4be
000000c0: 6d50 7bbe 31f0 db3e 8329 f13e c156 2abe
000000d0: d025 3cbe 0e9a f43b 9d8e d7bd 896c 8ebe
000000e0: cfd4 f83d e2cb 6b3e 3ccc e1be da31 41be
000000f0: fac7 df3e da22 4fbe a706 78be cd01 b6be
00000100: 4213 82be a656 b6be 4879 af3e e633 c13e
00000110: 1659 88be 959e 9fbe 8832 c63e c3b2 4bbe
00000120: 5375 0cbe 4f81 4e3d b930 e33e
0.23974136 -0.45671174 0.038467348 -0.28163737 -0.013318574 -0.3369035 0.12149524 0.23253582
0.19717872 0.094957985 0.052988883 0.15455912 -0.18569286 0.29869306 0.09816543 -0.33239293
0.00493623 -0.062654145 -0.05687028 -0.054067463 -0.07567685 0.13045536 0.08869944 0.26838124
0.453194 -0.0228757 -0.3182026 0.40970454 -0.11991054 0.51374453 -0.12799041 0.47439462
-0.2037443 -0.26679122 -0.08876129 0.4799087 0.37884766 -0.3344365 0.20896979 -0.13091926
-0.13006555 -0.12849867 0.44138956 -0.35431913 -0.4958467 -0.097867034 -0.01734171 -0.35351086
-0.24542399 0.4295669 0.47101983 -0.16634656 -0.183738 0.007464654 -0.10525248 -0.2781718
0.12149965 0.23026994 -0.4410113 -0.18866673 0.43707258 -0.20228139 -0.24221288 -0.3554825
-0.25405318 -0.35612983 0.34272218 0.37734908 -0.26630467 -0.31175676 0.38710427 -0.19892411
-0.1371663 0.050416287 0.4437311

encoder2.0.weight f4 [15, 1, 5, 1]
00000000: 812a 1e3d ed44 2cbe 2fd5 9fbd 0c9d 3fbe
00000010: 87a8 483e c4f9 1abe 7218 4a3e 3f94 debc
00000020: 4288 3b3e 41bf e43e 063a 8d3e e0f3 0a3e
00000030: 6402 0a3e 4cae a4be e3a1 77be 5319 bebe
00000040: 5e21 2fbd 2372 43bd 165e 42be 1315 4dbd
00000050: d425 183d 1765 4d3e f6e1 11bd f4e3 65be
00000060: d4b3 e43e 2008 71bd 5fe9 c63d 2dd9 b73e
00000070: 210f b23e 3189 6ebe d4a6 9cbe 7104 173e
00000080: 9853 68be 67ee 7c3c 9a66 c33d 0534 b93e
00000090: 7002 9dbe 5c48 8a3e c118 ef3d d173 4a3e
000000a0: c618 4b3c 10e1 47be 3515 f4bd 5743 b93e
000000b0: b196 44be a52c 5cbe 4450 16be 508e 6e3d
000000c0: 8bc4 d4bc 6574 9a3e 4bd4 acbd b304 84be
000000d0: 82d3 52bb 7369 293e e6d6 7dbe 8567 d3bd
000000e0: bade 8bbe 0eaa bb3e 9caf 853e 0538 53be
000000f0: 456f 053e 8cc8 cf3c 9186 ca3e 53b5 6f3e
00000100: bcbd 08be 4064 0ebd e233 f23d cb3a 98bc
00000110: 04fc aabe 10d8 d23d c128 d3bd 8410 953e
00000120: 7a3d 44bd 3e40 d23e 0d36 bbbe
0.038614754 -0.16823168 -0.078043334 -0.18712252 0.19595538 -0.1513434 0.19735888 -0.027170299
0.18313697 0.44677165 0.2758333 0.13569593 0.13477474 -0.32164228 -0.24182849 -0.37128696
-0.04275643 -0.04771627 -0.18981203 -0.050068926 0.03714545 0.20058094 -0.035615884 -0.22450238
0.44668448 -0.05884564 0.09712481 0.3590788 0.34777167 -0.23294522 -0.3059603 0.14747788
-0.22688138 0.015437699 0.09541054 0.361725 -0.30665922 0.2700833 0.11674643 0.19770743
0.012396043 -0.19519448 -0.119181074 0.3618419 -0.19198109 -0.21501406 -0.14679056 0.05824119
-0.025972625 0.30166927 -0.08438929 -0.25784835 -0.0032169526 0.16544132 -0.24789008 -0.10322479
-0.27318364 0.3665318 0.26110542 -0.20626839 0.13030727 0.025364183 0.3955579 0.23409013
-0.13353628 -0.034763575 0.11826302 -0.018582722 -0.33395398 0.10295117 -0.103105076 0.29114163
-0.04791019 0.41064638 -0.36564675

encoder2.0.bias f4 [15]
00000000: 64d6 983e 4ab2 d8bd ce12 e93d f762 98be
00000010: 8587 30bd 56c5 14bd 60a5 8c3e 8fb7 a1bc
00000020: 520e eabe df8f 0a3e d4e7 acbe a081 7abd
00000030: 1910 b5be 03bc 54be 51ef 273d
0.29851067 -0.10580881 0.1138054 -0.29763004 -0.04309799 -0.036321007 0.2746992 -0.019740848
-0.4571405 0.13531445 -0.3377062 -0.061158776 -0.35363844 -0.20774846 0.040999714

decoder2.0.weight f4 [15, 1, 5, 1]
00000000: a333 e8bc 831f 7d3d 59b7 6dbe 2ab2 04be
00000010: 0c97 ab3e 15b8 af3e 6d5a 44be 042f de3d
00000020: 78b9 f43d d693 e03e ce30 293e aaca 263e
00000030: 80df 803e 50b1 be3e 35d5 ab3e 68a5 dcbe
00000040: 6913 003e de7f c8be 4253 863e a2ed 22be
00000050: 7c13 7ebe c579 bb3e fa96 ae3e c997 9abd
00000060: 60e6 c23e 8913 bbbe 1244 f63e f3e3 b63e
00000070: c0cc 843e 8f8d ccbd 7379 c3be b4d5 073d
00000080: 4584 92bd 040e bb3e 1afc c6be 718c cbbd
00000090: c8c4 0fbd 56a7 ae3e 6d50 353e e26e e4bd
000000a0: b8c2 fa3e f07e b63e a21f 4e3e cb85 29be
000000b0: 63bb cebd defe 87bd f3be d73c 15ed ab3e
000000c0: d675 40be 7abb 813e aaa0 6a3b 4173 aabe
000000d0: 7fc3 053e 8ac3 c03e 0960 903e f5b4 12bd
000000e0: 2e59 e5be 0632 363e 4bb6 893e be26 9c3e
000000f0: 8ade 71bd 5bf0 08be 53cf e33e 24bb efbd
00000100: 7cf3 5e3e 3452 1bbe ff42 aebe 5967 abbe
00000110: d16a 7c3d 571d 1abe 0781 2b3d 31be d33e
00000120: 2cf7 cfbe 8767 213e 0d4b a6bd
-0.028344935 0.06179763 -0.23214473 -0.12958589 0.33513677 0.3432013 -0.1917512 0.10848811
0.11949438 0.4386279 0.16522524 0.16288248 0.25170517 0.37244654 0.33561102 -0.43094945
0.12507404 -0.39160055 0.26235396 -0.15910962 -0.2481212 0.3661634 0.3409956 -0.07548482
0.38066387 -0.36538342 0.4809881 0.35720786 0.25937462 -0.09987938 -0.38178596 0.033162788
-0.07154135 0.3653413 -0.38864213 -0.099388964 -0.035099775 0.34112042 0.17706461 -0.11153962
0.48976684 0.3564372 0.20129254 -0.16554944 -0.10094335 -0.06640409 0.026336169 0.33579317
-0.18794951 0.25338346 0.003580133 -0.33291057 0.13062857 0.37649184 0.2819827 -0.035817105
-0.447946 0.1779252 0.2689689 0.30498308 -0.05905012 -0.13372938 0.44494113 -0.11705616
0.2177257 -0.15168077 -0.3403549 -0.33477286 0.061625306 -0.15050255 0.041871097 0.41356042
-0.40618265 0.15762149 -0.081197836

encoder3.0.weight f4 [15, 1, 5, 1]
00000000: 6a6f 5e3e e2b9 4ebe a05d 92be 4fa0 15be
00000010: 0ea8 953c 56ee 9fbe 44a3 89be 16b4 9bbe
00000020: 2a2e 3d3d 4ddb 373d 6c73 553e 5bf6 27be
00000030: 931e 043d 02d9 a03e e854 94be d019 513d
00000040: 44d4 b0be 6958 a93e c826 a43e 65ad 0bbe
00000050: 0e18 b03e b807 28be 6f3f 75be e832 8d3e
00000060: 996c f3bd c3f0 0b3e 09b7 e93d f27e 7c3e
00000070: 6fe6 81be eb44 9abe 5f8f 723e 05f5 893e
00000080: 92c3 a93e 6925 4c3e 980b b2be 45e3 863c
00000090: 85cc d4bd 9058 653d c9c2 b7be bb33 023e
000000a0: dd96 023e af4d 30be f042 3a3e 62c2 babe
000000b0: 493f 35be c05f c73c 79bf 76bb 43ef 0a3e
000000c0: 3c78 383e ddf0 cb3e 7dba a83e 9f29 cabd
000000d0: 23b7 a6be 2f80 703e 5a15 d23d d3a1 9cbe
000000e0: daef 5e3e 64f8 bd3d c37f e1be 82d9 abbd
000000f0: 264c 1dbe b544 aa3d 6125 84be a939 f03c
00000100: 14ab 73be 2fa8 89be 39e3 22be f225 033d
00000110: d0e5 82be b279 f73d e9a0 b13e 0b1d 95be
00000120: ec4f aa3c 871d 7bbe 9231 a1be
0.21722189 -0.20188096 -0.28587055 -0.14611934 0.018268611 -0.31236523 -0.26882374 -0.30410832
0.046186604 0.044886876 0.20844811 -0.16402571 0.03225572 0.31415564 -0.28971028 0.051050007
-0.34536946 0.33075264 0.32060838 -0.13640364 0.34393352 -0.16409194 -0.23949979 0.275779
-0.11885948 0.13666062 0.11411864 0.24657801 -0.2537112 -0.30130705 0.23687504 0.26944748
0.3315702 0.19936146 -0.3477447 0.016465792 -0.103905715 0.055992663 -0.35890797 0.12715046
0.12752862 -0.17217134 0.18189597 -0.36476427 -0.17699923 0.02433765 -0.0037650748 0.13567834
0.18014616 0.39832202 0.3295478 -0.0987122 -0.32561597 0.23486398 0.10257979 -0.30592212
0.21771184 0.092758924 -0.44042787 -0.08391096 -0.1536108 0.08313886 -0.25809768 0.02932437
-0.2379573 -0.26886126 -0.15906991 0.03201861 -0.25565958 0.120837584 0.34693077 -0.2912372
0.020790063 -0.24522983 -0.31483132

decoder3.0.weight f4 [15, 1, 5, 1]
00000000: b3d0 e43e 4726 e2be 27fa 32be f658 7ebe
00000010: 87c4 dd3d 9ea5 d7be 05bf 9c3e a766 933e
00000020: 46a9 2dbd b0d3 5c3e bf33 4bbe 3eda 07bd
00000030: c09f 0d3e 276b d03e 1ae5 62be bca0 82be
00000040: 4ee0 95be 2a3f 473e e415 ca3e b6ec 253e
00000050: f4fc 423c fcbd 373e 8b69 0b3e ef77 bc3d
00000060: c7a4 ab3e 0852 543c cf74 c63e 016b 833d
00000070: 262e 9abe ea2b cfbe 94d5 d83e 49c0 9c3c
00000080: e749 d5be 8f4f 3e3e 79b5 9b3e 3c3d 173e
00000090: c7d7 8f3e 0325 64be 6bdd c3be 5cc2 41be
000000a0: b422 fb3e 5736 ecbd 2865 99be e891 b1be
000000b0: e8f5 1a3e 9f6e 7abe c85a 18bc 1488 b43d
000000c0: c5e2 e43e 91f5 a03e 84a0 7bbe 6ddb 9d3c
000000d0: 54f6 ddbe 0bca 55be 874b 403e 932f ffbe
000000e0: b531 663e e824 88be aacc 50be 624d d7be
000000f0: d3d4 a4be 5c48 34be eb64 a33e 8ad1 373d
00000100: 51a0 da3d 2f94 793c 9621 77be e45b 42be
00000110: 07b4 683e 0074 a73e fc4d a13e 3a4a 3a3d
00000120: 1d43 f3be 283b 10be 8ca5 bbbe
0.44690475 -0.44169828 -0.17478238 -0.24838623 0.108285 -0.42118543 0.30614486 0.28789255
-0.04239776 0.21565127 -0.19843958 -0.033167116 0.13830471 0.4070675 -0.22157708 -0.25513256
-0.29272693 0.19457689 0.39469826 0.1620358 0.011901129 0.17943567 0.1361448 0.09202563
0.33524153 0.012959011 0.38760993 0.06416894 -0.30113333 -0.4046319 0.42350447 0.019134657
-0.41657946 0.18585037 0.3041189 0.14769453 0.28094313 -0.22279744 -0.38254866 -0.18921798
0.49049914 -0.11533802 -0.2995999 -0.3468163 0.15132868 -0.24456261 -0.009298988 0.08815017
0.4470426 0.31437352 -0.2457295 0.01926967 -0.43351996 -0.20877855 0.18778811 -0.49840984
0.22479899 -0.26590657 -0.20390573 -0.42051226 -0.32193622 -0.17605728 0.31912932 0.044877566
0.10675109 0.015233084 -0.24133906 -0.18980366 0.22724925 0.32705688 0.3150481 0.045480944
-0.4751214 -0.14085066 -0.3664974
