train_models/KIRC/param2_10_param3_20_epoch_20.pth (torch, 140299 bytes, 9 tensors)

weight f4 [184, 184]
00000000: 17b7 d138 c471 12bb 81ea f4bb 6e57 373b
00000010: 7c70 c43c 250a 8d3b ee33 143c 8fee a93c
00000020: a813 573c dfd2 123c d398 873c 124b b63c
00000030: 8e03 093c f53c 383b 706a 983c 82a6 eeba
00000040: e88b fbba 1d8c 853c 8f52 b9ba 5676 0abb
00000050: 79eb 543c d254 8d3c 2213 e03b 198d 3c3c
00000060: 7dcb 2f3b 14c9 9e3a d06a df37 bc0c 473c
00000070: 65d8 6a3c 6208 a4bb 320e 103c 5f62 44bc
00000080: 4b02 35bc 7415 d13b 5759 99ba e55e e33b
00000090: 7523 86ba 3463 003b 4357 d23b 1e9e 113c
000000a0: ccf5 043a ccf4 993c f76c f23a 7d75 943c
000000b0: 46f0 f639 ddb3 6bbc f462 89bb 1026 2cbc
000000c0: 8527 42bc 9c4a 1c3c bf83 93ba 0806 1cbb
000000d0: fe81 113b b707 9a3c 034d 823c eb5a 693c
000000e0: 575b a23c fd77 273c 32b1 343c 7d40 9bba
000000f0: 2876 943c 18e4 8e3a fb41 303c 29cf 18bc
00000100: 5244 9d3c 98f7 47bc b003 55bb 6096 293c
00000110: 8278 8e3c 3300 98bb 5a2e ccbb ec72 373c
00000120: 47a5 243b 16bf 703b 2aa6 9f3c 88c5 bfbb
00000130: 2967 f53a 5e0d 403c e30a 03bc 9ce5 2abc
00000140: 7516 b53a d863 613c e3ae 2bbc e036 77bb
00000150: c6a7 113c 1c9a 2e3c 4497 543c 95f2 b13c
00000160: d1e1 3c3c 1545 2f3c 08cd 163c 6272 9fbb
00000170: cf8a 313b 9091 163b ad3f 9a3b 1460 6e3b
00000180: 5349 3fbc 34d8 ad3a 1604 27bb 52e5 31bc
00000190: 5094 1fbc 3a8c 193c 2b02 803c f0f3 923c
000001a0: 17e7 a4ba 91e0 eb3b efd4 1cbb f9ab de3a
000001b0: cf17 d0ba 21b2 583c e126 603b 4c7b 3bbc
000001c0: eb98 81bc 4fc6 823b 99fc b13b d8f2 be3b
000001d0: 5537 263c 0456 bfbb 640a 90ba 97f1 293c
000001e0: d4a8 ea3b e7c9 413c c582 43bb d73f be3a
000001f0: d728 36bb c75f 313c ee20 b03b 4120 3abc
00000200: efad c83b a58b 3bbc e694 09bc e44f 623b
00000210: 26b7 c1ba ce89 103a 3ee2 91ba 808e 80b8
00000220: 9ff2 54ba 12f9 b7ba c9b5 eaba 8fa8 373c
00000230: 994e 123c 3612 613a e19d a5bb 1109 99ba
00000240: d40b 5e3c 0a32 65bc 0f54 f83b ec49 46bc
00000250: fdab 5bba a970 32bb 4aba 36bc 588a 40bc
00000260: 4947 d73a 3480 4abb 6633 793b ba7d daba
00000270: e63f e63b 5e5f e03b 7d79 ae3c 52d9 22bb
00000280: 677c b2bb 2bda 833c de7b ac3b 21a0 833c
00000290: 1ecc 713c a2bd de3a 32d6 a8bb 608d c13b
000002a0: 9a78 503c 9ba6 4f3c 9d12 9e3b 34db 58bb
000002b0: 93c2 853c bc03 1e3c 2265 e73b cd94 923c
000002c0: c13c cd3b 1bc1 193c 43a7 1c3c 07c2 ab3c
000002d0: c617 5f3c 97f9 b83b f179 343c e0bf 0dbc
000002e0: 97eb 5bbb 17b7 d138 5230 373c 9691 3a3a
000002f0: fb3c 2abc 202e 973c 1291 7d3c 0b0f e4bb
00000300: faf4 ad3c 516b 9a3c 1d7e 943b 11e2 c13b
00000310: 0905 c93c d75a 973b bfae 0dbc bdc9 8139
00000320: 0dfd 8a3a 2e82 abba f557 503c ac93 90bb
00000330: 84af fab9 1942 71ba 7346 1dbb fadd 8f3b
00000340: d7bf 8e3c 6fac 8b3c 49bd 863c 5402 d4ba
00000350: 03f9 06bc 4823 be3c c156 5e3b d9cc 2d3c
00000360: bac2 603c 5ec6 303c 066e 493c 12fd 05bc
00000370: 94ad 613c 5f4c 91bb fb4a 7abb 714e 7abb
00000380: 8f75 7cbb 69d0 d0bb f4dc f7bb 7b66 453b
00000390: ba2d 7bbb c0f8 4b3c d96d cabb 0408 aa3c
000003a0: 60e7 923c 096d 92bb 30de 09bb 9e9d a43c
000003b0: c75a 703c c453 2abc 6020 c6ba c5ad 56bc
000003c0: e224 1cbc 6b14 e3bb 7e4e 10bc 9cb6 07bc
000003d0: 5419 c8bb 6f9b 2d3c c2e2 30bc 1be5 1a3b
000003e0: 192c fdbb b4af c93c 35c8 323c 1888 b1bb
000003f0: 1544 9fbb 2fc1 5b3c 599e 4c3c 6d25 2bbc
1e-04 -0.0022345642 -0.007474244 0.0027975696 0.023979418 0.004304188 0.009045584 0.020743636
0.013127245 0.008961408 0.016552364 0.022252593 0.008362664 0.0028112505 0.01860544 -0.0018207582
-0.0019191476 0.016302163 -0.0014138984 -0.0021127663 0.012995594 0.01725236 0.0068382183 0.01150825
0.002682417 0.0012114369 2.663341e-05 0.012149032 0.014333819 -0.005005882 0.008792447 -0.011986344
-0.01104791 0.0063807312 -0.0011699599 0.0069388025 -0.0010233956 0.001959038 0.006419094 0.008887796
0.0005072027 0.018793486 0.0018495609 0.018122429 0.00047099794 -0.0143861445 -0.0041927043 -0.010507122
-0.0118502425 0.009539273 -0.0011254473 -0.0023807306 0.0022202726 0.018802507 0.015905863 0.014242868
0.019818945 0.0102214785 0.011028575 -0.001184478 0.018122748 0.0010901717 0.0107579185 -0.009326735
0.019197617 -0.012205027 -0.0032503419 0.010350794 0.017391447 -0.0046386956 -0.0062311115 0.011196833
0.0025122927 0.003673499 0.019488413 -0.005852405 0.0018722761 0.011721937 -0.007998201 -0.01043072
0.0013815897 0.013756715 -0.010478708 -0.0037721917 0.008890098 0.01065686 0.012975518 0.021722117
0.011528448 0.010697623 0.009204157 -0.0048659304 0.0027090793 0.0022974946 0.004707298 0.0036373185
-0.011675197 0.0013263286 -0.0025484613 -0.010857897 -0.00973995 0.0093718115 0.015626034 0.017938584
-0.0012581077 0.0071984013 -0.002393063 0.0016988508 -0.0015876236 0.013226063 0.003420286 -0.0114429705
-0.015819987 0.0039909254 0.0054317233 0.005827289 0.010145028 -0.0058391113 -0.0010989425 0.010372541
0.007161239 0.011827922 -0.0029832583 0.0014514875 -0.0027795339 0.010826058 0.0053750193 -0.011360229
0.00612425 -0.011446868 -0.008397317 0.0034532482 -0.0014779314 0.00055136986 -0.0011130047 -6.130058e-05
-0.00081233116 -0.0014036021 -0.0017906959 0.011209621 0.008929872 0.00085857825 -0.005054221 -0.0011675676
0.013552625 -0.013988981 0.00757838 -0.012102585 -0.0008379815 -0.0027227795 -0.011152813 -0.011751734
0.0016424443 -0.003089917 0.003802502 -0.001666955 0.0070266603 0.006847306 0.021298165 -0.0024848771
-0.005446959 0.016095242 0.0052637896 0.016067566 0.014758138 0.0016993771 -0.005152487 0.005906746
0.012724066 0.012673999 0.004823996 -0.003308964 0.016328132 0.009644445 0.0070616165 0.01789322
0.006263346 0.009384419 0.009561363 0.020966543 0.013616508 0.005644988 0.011015401 -0.008651704
-0.003355717 1e-04 0.011180954 0.0007117031 -0.010390515 0.018454611 0.015476482 -0.006959801
0.021234978 0.01885 0.0045316354 0.005916842 0.024538534 0.0046189833 -0.00864762 0.00024755104
0.001060398 -0.0013085061 0.012716283 -0.004412135 -0.00047814485 -0.000920327 -0.002399829 0.0043904753
0.01742546 0.017049996 0.01644768 -0.001617501 -0.00823808 0.023210183 0.003392622 0.0106079215
0.013718301 0.010789482 0.012294298 -0.008178012 0.013774294 -0.004434153 -0.0038191664 -0.0038193727
-0.0038522219 -0.0063725007 -0.0075641815 0.0030120898 -0.0038326816 0.012449443 -0.0061776456 0.020755775
0.017932594 -0.0044685644 -0.0021036975 0.020094689 0.0146700805 -0.010395948 -0.001511585 -0.013102953
-0.009530278 -0.0069299242 -0.0088077765 -0.008283284 -0.006106535 0.01059614 -0.010796251 0.0023635093
-0.007726204 0.024619915 0.010911991 -0.005417835 -0.004860411 0.013412758 0.012488925 -0.010445935

encoder1.0.weight f4 [15, 1, 5, 1]
00000000: 4302 edbd 8779 a2bd a0e0 cd3b b812 24bd
00000010: adb2 8abd 2123 d3bc 1b05 d13d f6d4 41be
00000020: 7c5b a6be 44c8 ddbe f0a2 a9be e571 b33e
00000030: c305 b33e fe61 bebe c79e 92bd a715 d8be
00000040: 6a8a f83c 7e7a e7bd d738 a7be f2e0 edbd
00000050: b3b7 463d c5a1 abbe 52de 953e 2475 a0be
00000060: f445 62bd 4749 75be fb72 b93e 9471 cf3e
00000070: ba2e 483e 35ee 973e de62 10be 51a5 3bbe
00000080: d0c5 ac3e a512 8c3e 1652 f83d 2a90 d2bd
00000090: 0327 bb3d dc71 483d cde4 eebe dedd b0bd
000000a0: 04d8 53bd 74b6 603d a6b9 20be 464a 16bd
000000b0: 8b12 bdbe 6416 3f3e ef6e e3be 715f b53c
000000c0: af13 43be 7a0b 5ebd a084 eebe 92de ba3e
000000d0: 9c7b a6be 8a74 b83d 423a 633e 7c6e 153e
000000e0: 4582 bfbe b679 55be b4fa 353d 16fc 21be
000000f0: bc0a 873d f80e a5be e37b e53a f063 563e
00000100: 2298 debd 5e8b af3e dc62 833e c2bd 753d
00000110: 3e47 bb3e 2687 a7ba 37e6 1c3e 4310 a13e
00000120: e3d9 a53e 5946 af3e e228 09be
-0.11572697 -0.07933336 0.006282881 -0.040056914 -0.06772361 -0.025773587 0.10206052 -0.18928894
-0.32491672 -0.43316853 -0.33132124 0.35047832 0.34965333 -0.37184137 -0.071591906 -0.4220402
0.030339438 -0.113026604 -0.32660553 -0.116151705 0.048515033 -0.33521858 0.2927118 -0.3133937
-0.055242494 -0.23953734 0.36220536 0.4051634 0.19549075 0.29673925 -0.14100215 -0.18324782
0.3374467 0.27357975 0.12125032 -0.10281403 0.091383 0.04893671 -0.46658936 -0.08636068
-0.05171968 0.0548615 -0.1569582 -0.036691926 -0.3692821 0.18660885 -0.44420573 0.022140237
-0.19050477 -0.054210164 -0.4658556 0.36497933 -0.3251618 0.09006603 0.22190192 0.14592928
-0.37404075 -0.2084721 0.044428542 -0.1581882 0.06593844 -0.32237983 0.0017508235 0.2093656
-0.10868861 0.34286016 0.2566136 0.05999542 0.3657779 -0.0012781366 0.15322195 0.3145772
0.32392797 0.34233359 -0.13394502

encoder1.0.bias f4 [15]
00000000: 55da f6bd 5c9f b0be e997 92be 2606 bebe
00000010: 7fd3 a83e cdaa 503e a5ff 05bd 07ce f53d
00000020: 976c 273e 545b e4bd 0582 efbd 7802 e73c
00000030: f0e4 3f3e 8bcc b03e 512c 2cbe
-0.12053362 -0.34496582 -0.28631523 -0.37114066 0.3297386 0.20377655 -0.032714505 0.12002187
0.16350017 -0.11150232 -0.11694721 0.02819942 0.18739676 0.34531054 -0.1681378

decoder1.0.weight f4 [15, 1, 5, 1]
00000000: 29b3 e1be fd89 233d 895a 9ebc 841b 993e
00000010: a49f 8e3e 6fd3 fb3d 6c63 8dbd cc53 f8be
00000020: 0189 673e 215a a5bd bb81 503e 7eed fc3e
00000030: 3afe a83e 916d 44be c4d3 383e bc8b 75bd
00000040: b3ad 9ebe d3c5 86bd a5c4 703e e086 f2be
00000050: 99e2 debd 0e6c adbe 05cc a93e 8f63 9fbe
00000060: de5d aa3c c631 debe 3976 e83e 7542 c23e
00000070: 6122 af3e a576 4f3e 21a8 8a3e 6553 913e
00000080: d1da 453e 9728 21be cc8b 653e 69d3 e63d
00000090: d939 b5be bc9e dc3b c476 6cbe 04a3 6c3d
000000a0: 006b c8be c605 73bd 1e71 303e 4557 95bd
000000b0: 5645 3fbe d074 a7be bbbf 89be e629 b5be
000000c0: 71a4 30be 5fc0 8b3d cc95 5fbe 5eed 3b3e
000000d0: 5b4c 56be 6c21 143e 7589 0d3e 4201 d23e
000000e0: bd7f b23e e686 c9bd 9b79 9b3d 45d3 3e3e
000000f0: 5d55 263e ede8 eabd 11cc e7bd ad96 013e
00000100: 9ae8 d6be a4d8 f43e f84e 87be 386e bebd
00000110: f94c b33c e419 1a3e b687 963e b6f1 c13e
00000120: 5e36 9c3e 5a48 0d3e 6f32 f83d
-0.44082 0.039926518 -0.01933028 0.29903805 0.2785617 0.12296187 -0.06903729 -0.48501432
0.22610857 -0.08073831 0.20361988 0.49399942 0.3300646 -0.19182421 0.18049532 -0.059947714
-0.30991897 -0.06580701 0.23512514 -0.47368526 -0.10883064 -0.33871502 0.33163467 -0.31130645
0.020796712 -0.4339735 0.45402697 0.37941328 0.34205917 0.20260103 0.27081397 0.28383937
0.19321753 -0.1573814 0.2241661 0.11270792 -0.35395697 0.00673279 -0.2309218 0.05777265
-0.39144135 -0.059331678 0.17230651 -0.07292036 -0.18678793 -0.32706308 -0.2690409 -0.35383528
-0.1725023 0.06823801 -0.21834487 0.18352267 -0.20927565 0.14465874 0.13821967 0.41016585
0.34863082 -0.09840183 0.07591554 0.1863528 0.16243501 -0.11470208 -0.113182195 0.12655134
-0.41974336 0.47821534 -0.26427436 -0.09298366 0.02188729 0.15048939 0.29400414 0.37879723
0.3051023 0.13797131 0.121189944

encoder2.0.weight f4 [15, 1, 5, 1]
00000000: 1ab5 babe cc49 203e 83f0 1e3e d3cb 97be
00000010: e920 233d 4212 b83e 04d7 493c 13e4 bebe
00000020: 246f c03e abfa 853e b846 a1bc 6cec 6c3e
00000030: aa51 b5be eebe 9cbe b0e3 633d d9d0 ff3d
00000040: 956f a83e ac82 9bbd 3893 c23c e223 363e
00000050: 2a0e 843e e3ea 813d d6ea 163e e8c0 983e
00000060: 67da c7be 89bd 27bd 05d9 613c 0347 bfbd
00000070: b324 b33d a645 cb3e 29ee 9b3e b0b5 9a3e
00000080: b1ad f5bd 6fcf 313e 7a53 94be ebf0 e8be
00000090: b9ac c7bd f7bb ae3e 3edf a6bd 9eb6 543e
000000a0: 7c7b 4dbe 6840 763e 4e60 57be 91ae abbe
000000b0: e07f 583e 6926 883d d65d d43e 1215 66be
000000c0: f2a1 b1be b253 54bd 3b9b b7be 4da0 843d
000000d0: 3335 1ebe 9ea4 863e 9a0f 8a3c cfef babe
000000e0: 498a fa3d 364b 92be 111a 76be 675c 0c3d
000000f0: 1048 9ebe ecd4 bb3e 78c9 e43e dd68 38be
00000100: 03b0 b9be a6de cdbe 7cab a13e feae 603e
00000110: 2313 86be 9f10 56be 5d5b 20bd 91af 6fbc
00000120: 4c2f e2be a3f3 d7be 3f27 b2bc
-0.36466295 0.15653151 0.15521435 -0.29647693 0.039826307 0.3595143 0.01231933 -0.37283382
0.37584794 0.26167807 -0.019687042 0.23137063 -0.35413867 -0.30614418 0.05563706 0.124910064
0.3289763 -0.07593283 0.02375184 0.17787126 0.25792056 0.06343629 0.1473802 0.29834676
-0.39033815 -0.04095224 0.013784652 -0.09339716 0.08747234 0.39701575 0.3045514 0.30216742
-0.1199602 0.17364286 -0.28969938 -0.45496306 -0.09749741 0.3412778 -0.08148049 0.20772788
-0.20066637 0.24048007 -0.21032831 -0.3353162 0.2114253 0.06647951 0.4147784 -0.22468975
-0.34693867 -0.05183763 -0.3586062 0.064758874 -0.15449981 0.26297468 0.016853143 -0.36511084
0.12233407 -0.28573006 -0.24033381 0.03426781 -0.30914354 0.36685884 0.44684958 -0.18008752
-0.362671 -0.4020893 0.31576145 0.21941754 -0.26186475 -0.20904778 -0.03914963 -0.014629261
-0.4417671 -0.42178068 -0.02174723

encoder2.0.bias f4 [15]
00000000: 4bf8 ad3e df4c 883e 74f7 853d e804 17be
00000010: 881e d23e 9fd6 14be 7d3e 253e 2af7 753e
00000020: 7aa6 3dbe 8e05 1a3c 5f90 1fbc b151 afbe
00000030: c915 6fbe 8a9d 9a3d e343 573d
0.33978495 0.26621148 0.065413386 -0.14747965 0.41038918 -0.14534996 0.16137119 0.24020067
-0.18520537 0.009400738 -0.009739011 -0.34242013 -0.23348154 0.075495794 0.052554976

decoder2.0.weight f4 [15, 1, 5, 1]
00000000: 14d8 f73d eaed d93d 6511 623e 9a45 5d3e
00000010: 6d5a 693e 8fd4 f33d 7922 a93d 0cae 8a3e
00000020: 0399 6dbe 995d 7f3e 9e86 aebe b586 963c
00000030: 4231 c2be 0866 33be 6082 c53e 4cc3 013f
00000040: 3577 58bd 0ff5 86be 90f8 bc3e d7bb c43e
00000050: fd8d a03e b449 e43d 2b89 193e a9e6 d93e
00000060: 1e0d b0be 9ca1 adbe 0877 423e 4e7a fa3c
00000070: 4abf b43e 731d cf3e 693b bc3d 1559 843e
00000080: 8d66 a73e 3cc2 c5bc 31b5 b33e 5f7f 06bd
00000090: 8165 9f3e b94a b53e 1344 c5be 3b52 a9be
000000a0: dcd2 d03d bf82 83be 48c3 dcbe 90b8 e03c
000000b0: 5761 2abe dddd 80be e7bf 8a3e 1a26 9c3e
000000c0: 7565 1bbe c0e0 89bd 925a 99bc 0301 d3be
000000d0: 03e4 d6be 2c43 563e cf85 643e 5f4b 4a3e
000000e0: 25c2 903e d59d efbe d34c 7c3e f69e 9c3e
000000f0: 5691 68be 3299 9bbe e912 bb3e 9438 713e
00000100: dc08 e33d 54a5 ebbe 3555 d6be 3823 92be
00000110: c205 42be de41 bebe ae37 e4bd fee0 f5be
00000120: cdf3 5fbe dbab 0abe ec74 a1be
0.121017605 0.10641082 0.22076948 0.21608582 0.22788401 0.11905777 0.08258528 0.27085912
-0.232029 0.24938048 -0.3408708 0.01837478 -0.37928206 -0.1751939 0.3857603 0.50688624
-0.05284806 -0.2635884 0.36908388 0.3842456 0.31358328 0.1114687 0.14993732 0.42558792
-0.34385008 -0.3391236 0.1899072 0.030575898 0.35302192 0.40452155 0.09191019 0.25849214
0.32695428 -0.02414047 0.35099176 -0.032836314 0.3113213 0.3540857 -0.385285 -0.3307055
0.10196468 -0.2568569 -0.43117738 0.027431756 -0.16638695 -0.25169268 0.27099535 0.3049782
-0.15175422 -0.06732321 -0.018719945 -0.4121171 -0.41970834 0.20924062 0.22316669 0.19755314
0.2827312 -0.46800104 0.24638681 0.30590028 -0.22711691 -0.30390316 0.36537865 0.23556739
0.11085674 -0.46024573 -0.41861883 -0.28542495 -0.18947509 -0.37159628 -0.111434326 -0.48023218
-0.21870346 -0.1354212 -0.31534517

encoder3.0.weight f4 [15, 1, 5, 1]
00000000: 03c6 37be d8be d5be e020 6abe ef53 9b3c
00000010: 5e4c b13e 5045 af3e 4d01 5e3e 6dfb 293e
00000020: b15c cabe 4bba ec3e 1255 6e3e 0715 283e
00000030: 5f5e 873e 223d 0dbe 6a69 a93e 1deb adbe
00000040: 9191 3cbe 2a5b b8be 30a2 b63e 4d6c 473c
00000050: d771 08bd a13c 17bd 2b47 093e 988e 4a3e
00000060: 2c41 a3bd 998e 6bbd bfa6 30be 30a8 0ebe
00000070: b956 f03c 94bd b3be d924 083d 0ca5 f33c
00000080: 7f15 fdbd 69ab d03d 7c0f 72be 16e0 df3e
00000090: 1813 69be 858f 95be f83d 0d3c 4076 f23e
000000a0: 1b64 a2be 0be2 adbb 71eb a33e 043e 9c3e
000000b0: d451 5d3e e4b1 8dbc 120b a8be 7611 e93e
000000c0: 6809 61be a159 c43d c70f d2bc bea7 90be
000000d0: 847d a93c a028 0b3e 3be2 fd3d 1c67 16be
000000e0: 665d 71be 71dc b93e 82e6 a8bd f634 e03e
000000f0: f8eb b93e 9e4b 4cbe b382 7c3e b855 353e
00000100: 3a1e f4bb 0c61 8cbe d900 d7bd da15 babd
00000110: 0222 ef3e fd08 e73e 7f95 8b3e e09e cab9
00000120: e228 e13e 647f e23e 8f5a 6cbe
-0.17946629 -0.41747165 -0.22864103 0.018960921 0.34628576 0.3423257 0.21680184 0.16599818
-0.39523843 0.4623588 0.23274639 0.16414271 0.26439187 -0.13792852 0.33088237 -0.3396844
-0.18414904 -0.36007053 0.35670614 0.012171817 -0.03331169 -0.036923055 0.13406055 0.19780958
-0.07971415 -0.05750904 -0.17251109 -0.13931346 0.029338228 -0.35105574 0.033238266 0.029741786
-0.12357616 0.10188944 -0.2363872 0.43725652 -0.2276119 -0.2921106 0.0086207315 0.47355843
-0.31717 -0.0053064874 0.32015565 0.30516064 0.21613246 -0.017296739 -0.32820946 0.45521134
-0.21976244 0.09587408 -0.025642289 -0.28252977 0.020689733 0.13589716 0.12396666 -0.1468777
-0.23570785 0.36300996 -0.08247091 0.43790406 0.36312842 -0.1995072 0.24659233 0.1770848
-0.0074498923 -0.2741779 -0.104982086 -0.09086199 0.46705633 0.45124045 0.27262494 -0.00038646813
0.43976504 0.44237816 -0.2308142

decoder3.0.weight f4 [15, 1, 5, 1]
00000000: b270 babe cab5 f2bd 98f8 c0be 6fef bc3d
00000010: 7bd7 5abe 7951 c6bd 1fbe 483e 3781 b0be
00000020: 4703 a2be e490 0a3e 20e0 f5bd 276d 55be
00000030: 57c3 80bd 8cf1 8f3e a8e4 ac3d 7b79 6abd
00000040: 29bb dd3d c486 bdbd c3d3 7dbe e0e8 80be
00000050: 9c34 cc3e 0934 edbe e577 933e c121 82be
00000060: 7be1 ad3d d5dc 62be 52a8 91be 1e52 163c
00000070: c339 b2be bfef 943e fe28 77be 2fe5 1e3e
00000080: 6bb7 c03e a755 33be 40f9 54be 6e9b f93e
00000090: c59e 8f3e 0563 a43e d91b 143e 90e2 963e
000000a0: fb9e b33e 6982 be3e ed1b 9a3e 95f4 f13e
000000b0: 825c c73e 6ce2 94bd c2ab 4a3e 37be d13e
000000c0: 2e9a cf3c 096d 823e 04d7 7e3e 7e9c 65be
000000d0: 769d 803e e901 0a3e ef00 c13e c3e9 a2be
000000e0: ec39 7c3e 0606 7ebe 9a74 dfbe 22d1 903e
000000f0: 9954 d63e 09fe 953d 01df bc3e 1d5f 81be
00000100: c4a9 d2be 49e0 aebe d5ed 46be e426 863e
00000110: 1369 d33e 3ce3 073e afcd 863e e5a1 21be
00000120: baaa 203e 7b09 be3e a420 b3be
-0.36414105 -0.1185108 -0.37689662 0.09225356 -0.21371262 -0.096835084 0.19603775 -0.34473583
-0.31643125 0.13531834 -0.12005639 -0.2084242 -0.06287258 0.28113973 0.0844205 -0.05724476
0.108267136 -0.0925422 -0.24787812 -0.2517767 0.39883888 -0.46328762 0.2880241 -0.25416377
0.084902726 -0.22154553 -0.2844873 0.009174852 -0.34809694 0.29089162 -0.24136731 0.15517114
0.37639937 -0.17513143 -0.20798206 0.48751396 0.2805082 0.32106796 0.14463748 0.29469728
0.3508223 0.3720887 0.3009943 0.47256914 0.38937765 -0.07269749 0.19792083 0.40965435
0.025342073 0.25473812 0.2488671 -0.22422978 0.25120133 0.13477291 0.37696025 -0.3181897
0.2463147 -0.24806985 -0.43643647 0.28284556 0.41861418 0.07323844 0.36888888 -0.25267878
-0.41145146 -0.3415549 -0.19426663 0.26201546 0.41291103 0.13270277 0.263288 -0.15784414
0.15690127 0.37116608 -0.3498584
