train_models/GBM/param2_10_param3_20_epoch_90.pth (torch, 305227 bytes, 9 tensors)

weight f4 [274, 274]
0	0x38d1b717	1e-04
1	0x3d840d99	0.06447906
2	0x3d447e3a	0.04797194
3	0x3d5ef2cc	0.054430768
4	0x3ce8e3d1	0.028428944
5	0x3d30623b	0.04306243
6	0xbb9d257b	-0.004795728
7	0x3d298c86	0.04139378
8	0x3cbc63c7	0.022996796
9	0x3d3f958a	0.04677347
10	0x3d06e9e1	0.032937888
11	0x3d53b94b	0.05169038
12	0x3d60f09e	0.05491697
13	0x3d393469	0.045215998
14	0x3d18c720	0.037299275
15	0x3cf441c8	0.029816523
16	0x3d83737b	0.064185105
17	0x3d3e084b	0.046394628
18	0x3d43d8e0	0.04781425
19	0x3d5dec52	0.05418045
20	0x3d4dbd14	0.050229147
21	0xbc54f6d0	-0.012998298
22	0x3c968f78	0.018378958
23	0xbccfebde	-0.025381025
24	0xbcd5b26d	-0.026086057
25	0xbc2a4e38	-0.010394625
26	0xbbfa9669	-0.007647325
27	0xbcc82f5e	-0.024436649
28	0x3cbe128a	0.0232022
29	0xbbf0960b	-0.0073421053
30	0xbbb42f9f	-0.005498841
31	0xbcbf78e3	-0.023373073
32	0xbcd0b73b	-0.025477996
33	0xbc11ba83	-0.0088945655
34	0x3a7c1a32	0.00096169405
35	0xba818c8e	-0.0009883808
36	0x3c29050c	0.010316145
37	0x3d34ba3d	0.044122923
38	0xbcc74f31	-0.024329754
39	0x3cf8dfd0	0.03038016
40	0xbcda74b7	-0.026666982
41	0xbbb78c99	-0.0056014773
42	0x3c4d9979	0.012548798
43	0xbc8e93d4	-0.017404474
44	0xbcd959a7	-0.026532007
45	0xbbac5a94	-0.005259821
46	0xbb2c4683	-0.0026287145
47	0x3d5cc37a	0.05389736
48	0x3b8b5401	0.0042519574
49	0x3d0c4b13	0.034251284
50	0x3cde97a9	0.027171927
51	0x3d3f6c70	0.046734273
52	0x3cc7e678	0.024401888
53	0xbc9ed7aa	-0.019389946
54	0xbb9713bf	-0.004610508
55	0x3c2fcf18	0.010730527
56	0x3d05ef35	0.03269883
57	0x3c4f9267	0.012669182
58	0x3d2ea19a	0.042634584
59	0x3b722f38	0.0036954414
60	0x3cbd0b7c	0.023076765
61	0x3bda4c5c	0.006661935
62	0xbc0d24ac	-0.0086147
63	0xbc9ab737	-0.018886192
64	0xbc36508f	-0.011127605
65	0xbc1b7283	-0.009487751
66	0x3bb42a24	0.0054981876
67	0xbc70a145	-0.014686887
68	0x3c971cd3	0.018446362
69	0x3bf588f2	0.007493132
70	0x3c91955c	0.017771415
71	0x3c1652ea	0.009175042
72	0x3c2f4cc6	0.010699457
73	0x3c782331	0.015145109
74	0xbbafbf6e	-0.0053633964
75	0xbb133536	-0.0022462136
76	0x3cbc5cee	0.022993531
77	0x3ac15d5b	0.0014752554
78	0x3b8cffa1	0.0043029343
79	0x3d1f760d	0.03893094
80	0xbc8f9572	-0.017527316
81	0xbc85fc7e	-0.01635575
82	0x3c53a286	0.012917167
83	0xbc228ecd	-0.009921742
84	0xbc11bcb0	-0.008895084
85	0x3bd8882e	0.0066080308
86	0xbba3d835	-0.005000139
87	0xbccebe9a	-0.02523737
88	0xbb989dbd	-0.0046574757
89	0x3bb07458	0.005384963
90	0xbc7d9d83	-0.015479448
91	0x3c89dad8	0.016827986
92	0xba9e82f4	-0.001209347
93	0x3c25758d	0.010098827
94	0x3c8bbcb2	0.01705775
95	0x3c81a2b5	0.015824655
96	0x3d0c5a70	0.034265935
97	0xbcaa166e	-0.020762648
98	0x3c26a9a1	0.010172279
99	0x3c63c622	0.013902219
100	0x3b2cfeae	0.0026396918
101	0xbbc3cd2a	-0.005975385
102	0x39ba0cd3	0.0003548624
103	0x3d23ebeb	0.04001991
104	0xbc4b5c99	-0.012412214
105	0x3cad3f4c	0.021148346
106	0xbc6b0b2c	-0.014345925
107	0x3c8dd07b	0.017311325
108	0xbc5c949e	-0.0134631675
109	0x3cddd8c9	0.02708091
110	0x3ba521c4	0.0050394256
111	0xbd213b02	-0.039362915
112	0xbd058a9c	-0.03260289
113	0xbc83adc2	-0.016074065
114	0xbc8a93b2	-0.01691613
115	0x3cdb3802	0.026760105
116	0xbcdde107	-0.02708484
117	0xbbff788e	-0.0077963537
118	0xbcd2d03f	-0.025734065
119	0xbc798f22	-0.015231879
120	0x3d0e4450	0.034733117
121	0x3cfb0067	0.03063984
122	0xbc5c2d95	-0.013438602
123	0xbc7c6e8a	-0.015407214
124	0x39ff6c1c	0.00048717938
125	0x3c0cc711	0.008592383
126	0xbcde0ec2	-0.027106646
127	0xbbc6969d	-0.006060435
128	0xbc7b1f29	-0.015327253
129	0x39341f72	0.00017177852
130	0xbc984e8e	-0.018592145
131	0xbbb86cdb	-0.005628211
132	0xbc824b73	-0.015905118
133	0x3a94c982	0.0011351558
134	0xbb7959e4	-0.0038047964
135	0x39d18257	0.00039960697
136	0xbc5a421a	-0.013321424
137	0xbaf15ac4	-0.0018413891
138	0xb99b65a2	-0.00029639626
139	0x3a5f9133	0.0008528411
140	0x3b229af1	0.002481159
141	0x3ca88892	0.020572934
142	0xbbef36a0	-0.007300213
143	0xbbce8d3f	-0.006303459
144	0xbccf7426	-0.025323939
145	0x3c2b94c7	0.010472483
146	0x3bc8fcfd	0.006133674
147	0xbbeba400	-0.007191181
148	0x3c97c7b4	0.018527843
149	0x3b45fad6	0.0030209324
150	0x3d2d95ba	0.04237912
151	0xbd04d8f0	-0.03243345
152	0x3c60c383	0.013718489
153	0x3c9c840a	0.01910593
154	0x3b77629c	0.0037747985
155	0x3b823214	0.003973255
156	0x3cda17c9	0.02662267
157	0xbc7e4ba0	-0.01552096
158	0xbcb7c661	-0.022433462
159	0xbc837bec	-0.016050301
160	0xbcb80b82	-0.022466425
161	0x3c075c89	0.008261808
162	0x3c0ae70d	0.008477938
163	0xbbf7e89e	-0.007565572
164	0x3c1be27f	0.00951445
165	0xbb83736e	-0.004011563
166	0x3ba21f4d	0.004947579
167	0x3cc81820	0.024425566
168	0xbca866e7	-0.02055688
169	0x3be54e7f	0.006997883
170	0x3c83cf64	0.016090102
171	0x3bf06f31	0.007337474
172	0x3ca7764f	0.020442156
173	0xbb4900e4	-0.0030670697
174	0x3c749218	0.01492741
175	0x3c379da8	0.011207022
176	0xbc26e0fa	-0.0101854745
177	0x3b07fd0f	0.00207502
178	0x3b309bb5	0.0026948277
179	0xb90f3d3e	-0.00013660357
180	0x3c0fbbe3	0.008772823
181	0xbc9ec166	-0.019379329
182	0xbb3a3633	-0.0028413653
183	0x3bfa227e	0.0076335063
184	0x3bef7781	0.007307947
185	0xbb88746d	-0.0041642697
186	0x3c78126a	0.015141109
187	0xbcf25466	-0.02958126
188	0xbc6159f8	-0.01375436
189	0x3d1e49af	0.03864449
190	0xbbadd8b1	-0.0053053726
191	0xbc28fb01	-0.01031375
192	0x3c41f4f2	0.011838185
193	0x3c99fd95	0.018797675
194	0xbcbed7c5	-0.023296246
195	0xbc36f58d	-0.011166942
196	0xbc90fc4a	-0.017698426
197	0xbc3e1fb3	-0.011604237
198	0xbc1a84e7	-0.0094311
199	0x3c46b077	0.012127033
200	0xbc85fe8d	-0.01635673
201	0xbc8d1e03	-0.017226225
202	0x3be07c13	0.0068507283
203	0x3cab3459	0.020898985
204	0x3d013970	0.031548917
205	0xbca64584	-0.02029682
206	0xbca45e25	-0.020064423
207	0x3c52b116	0.012859603
208	0x3c081e14	0.008307952
209	0xbc6fc8f5	-0.014635314
210	0x3c31c7c6	0.010850852
211	0x3be9a58f	0.007130332
212	0xbcf9a5a2	-0.030474488
213	0xbc0566e3	-0.008142206
214	0xbc43810b	-0.011932622
215	0x3cc55306	0.02408744
216	0x3a9ca2a3	0.0011950325
217	0x3cd10636	0.025515657
218	0xbcd515c8	-0.026011363
219	0x3c24abae	0.010050697
220	0xbc6e7e69	-0.014556506
221	0x3bea417d	0.00714892
222	0x3bcc22e5	0.0062297457
223	0x3ce1cedb	0.027564457
224	0xbcf8be79	-0.030364262
225	0xbd0f5d9d	-0.035001386
226	0x3c8be7ea	0.017078359
227	0x3965ddc1	0.00021921752
228	0x3ced67f1	0.028980227
229	0xbc74bd88	-0.014937766
230	0xbd101a74	-0.035181478
231	0x3cfa1fa5	0.030532667
232	0x3b264467	0.002537036
233	0x3d299b83	0.041408073
234	0x3a2567e5	0.0006309732
235	0xbcd81996	-0.026379388
236	0x3bbc2a41	0.0057423417
237	0xbb8a8b19	-0.0042280075
238	0x3c5a7d99	0.013335609
239	0xbcc1eb61	-0.023671808
240	0x3a90ebcb	0.00110566
241	0xbb224f22	-0.0024766405
242	0x3ce2dc0b	0.027692815
243	0xbc4dc46c	-0.012559038
244	0x3ae1358e	0.0017182098
245	0xbb854d81	-0.004068077
246	0xbb9dc891	-0.004815169
247	0xbceb082e	-0.028690424
248	0xbca1c4ea	-0.019747216
249	0xbd218fc3	-0.039443742
250	0x3b912d84	0.0044304747
251	0xbb201024	-0.0024423683
252	0x3c047037	0.008083395
253	0xbacd8c68	-0.0015682103
254	0xbc0f3613	-0.00874092
255	0xbc210f7b	-0.009830351

encoder1.0.weight f4 [15, 1, 5, 1]
0	0xbd992fc8	-0.07479817
1	0xbea84247	-0.32863066
2	0xbd925658	-0.07145375
3	0x3d9421d4	0.07233015
4	0x3e81a344	0.25319874
5	0x3eb41378	0.35171103
6	0xbe65afbc	-0.22430319
7	0xbe6aa324	-0.22913796
8	0x3e12f0cb	0.14349668
9	0xbe95e1f8	-0.29273963
10	0x3eb82bca	0.35970908
11	0xbb43a270	-0.002985146
12	0x3d08f7e5	0.033439536
13	0x3e718732	0.23586729
14	0xbd2a81e7	-0.04162779
15	0x3cfb54fc	0.030680172
16	0x3e8a4a71	0.2700992
17	0xbe793352	-0.24335983
18	0x3dca0ec9	0.09866101
19	0x3eb07f1e	0.34471983
20	0x3eb8ad89	0.36069897
21	0x3e982638	0.2971666
22	0x3e5d4ee5	0.21612127
23	0xbe30f979	-0.17282666
24	0x3db9743d	0.09055374
25	0x3e2d0b66	0.1689888
26	0xbe402bc8	-0.18766701
27	0xbe0f61f7	-0.14002214
28	0xbe8d164b	-0.2755607
29	0x3e6f6518	0.23378408
30	0xbeba1a7b	-0.36348328
31	0xbe9ad831	-0.30243066
32	0xbe5a6ebd	-0.21331306
33	0xbe5b9942	-0.21445182
34	0x3d5aa4cb	0.053379815
35	0x3eb3601f	0.35034272
36	0xbe05aaf4	-0.13053495
37	0xbe2f1cbb	-0.17100804
38	0x3e913273	0.28358802
39	0xbc91c52b	-0.017794212
40	0x3d803b0f	0.062612645
41	0x3e3756c3	0.1790419
42	0x3de698f9	0.11259646
43	0x3e8903d0	0.2676072
44	0x3c09e3b4	0.008416105
45	0xbe51e652	-0.20498016
46	0x3d95f281	0.073216446
47	0xbde038f1	-0.10948361
48	0xbe387c83	-0.18016247
49	0xbe9a649b	-0.3015488
50	0x3ed24d5c	0.41074646
51	0xb98ec752	-0.00027232856
52	0xbd635cdf	-0.05550849
53	0x3cf0da17	0.029400868
54	0xbdddf685	-0.108380355
55	0xbde9e9f6	-0.11421578
56	0x3e7b75b1	0.24556614
57	0xbc65b662	-0.014020534
58	0x3d9a2251	0.075260766
59	0xbe005283	-0.12531476
60	0x3e8164e5	0.2527229
61	0x3daa6dbd	0.08321712
62	0xbe100148	-0.14062989
63	0x3c1d5f78	0.009605281
64	0x3e199cfe	0.15001294
65	0x3dc8794d	0.09788761
66	0xbd7dfcd3	-0.06200869
67	0xbea4f64b	-0.32219157
68	0xbdf88981	-0.12135602
69	0xbe251bd5	-0.16123898
70	0xbd59a215	-0.05313309
71	0x3e868e87	0.26280615
72	0xbd050bb1	-0.032481853
73	0xbdd50c3c	-0.10402724
74	0xbd779204	-0.060441986

encoder1.0.bias f4 [15]
0	0xbd77c2ae	-0.060488395
1	0xbeef2543	-0.46708116
2	0xbe89649a	-0.26834565
3	0xbe57fee5	-0.21093328
4	0x3ed0b6cc	0.40764463
5	0x3e8cb007	0.27478048
6	0xbe4c8d9d	-0.19975896
7	0xbe7b52ef	-0.24543355
8	0x3e886517	0.26639625
9	0xbf0623c4	-0.52398324
10	0x3eab0ece	0.33409733
11	0xbedec0fa	-0.43506604
12	0x3eb769bb	0.35822853
13	0xbe60fbe6	-0.21971092
14	0xbeb99623	-0.36247358

decoder1.0.weight f4 [15, 1, 5, 1]
0	0xbdfe836a	-0.12427409
1	0xbefa661a	-0.48906022
2	0xbe4f9c75	-0.20274527
3	0x3d4a34a4	0.04936661
4	0x3e4d857f	0.20070456
5	0xbc4717f2	-0.012151705
6	0xbde6945a	-0.112587646
7	0xbeb8f685	-0.3612558
8	0xbab03cd0	-0.0013445858
9	0xbf04b2d6	-0.5183538
10	0x3ef8e2a0	0.486104
11	0xbd5b56c4	-0.053549543
12	0xbdec2271	-0.11530007
13	0xbd85773c	-0.06516883
14	0xbe3ed274	-0.18634969
15	0x3e4c17c9	0.19930948
16	0x3e7a7214	0.2445758
17	0xbe5ac653	-0.21364717
18	0x3e1ab99c	0.15109867
19	0x3ecc7ae3	0.39937505
20	0x3e81472a	0.25249606
21	0x3ecf80be	0.4052791
22	0x3e8f64ab	0.2800649
23	0xbea25935	-0.31708685
24	0x3e1956bd	0.14974494
25	0x3e332cd4	0.1749757
26	0xbdab7cc7	-0.08373409
27	0x3e8f60ad	0.28003445
28	0x3d66811b	0.05627547
29	0x3c412397	0.01178827
30	0xbe95f446	-0.29287928
31	0xbdb924a0	-0.09040189
32	0xbef47442	-0.47744948
33	0x3d1464fc	0.03622912
34	0xbbf53ae1	-0.0074838256
35	0x3ed24f98	0.4107635
36	0xbe8a6a32	-0.27034146
37	0x3e43c7cb	0.19119184
38	0xbe97391a	-0.29535753
39	0x3eaa00b7	0.3320367
40	0xbe72b88d	-0.23703213
41	0x3ee4ac85	0.44662872
42	0x3eaebcb4	0.34128344
43	0x3eecde8d	0.46263543
44	0x3d972d2c	0.07381663
45	0xbe910282	-0.28322226
46	0x3c88f920	0.016720355
47	0xbeae92b5	-0.34096304
48	0x3d097ceb	0.033566397
49	0x3b37273c	0.002794697
50	0x3ef35534	0.47525942
51	0xbeb07fab	-0.34472403
52	0xbe642199	-0.22278441
53	0x3ca2fd4d	0.019896174
54	0xbec8773c	-0.3915347
55	0x3c83fa6f	0.016110627
56	0x3eb1e076	0.34741563
57	0x3e5586a8	0.20852149
58	0xbe1c33b6	-0.15254101
59	0xbe9690e5	-0.2940742
60	0xbe8eeaea	-0.279136
61	0x3e84fb7c	0.25973117
62	0xbdae9d27	-0.08526068
63	0x3eb0f1f0	0.34559584
64	0x3ef89c42	0.48556715
65	0x3e9f0cb8	0.3106439
66	0xbe7ee142	-0.24890617
67	0xbe419df9	-0.18907918
68	0xbf0c0e1e	-0.5470904
69	0xbdda9c1c	-0.10674307
70	0x3d83e9f2	0.06441106
71	0x3e9b3c31	0.3031936
72	0xbd3466f2	-0.04404349
73	0x3d87d4a2	0.06632353
74	0xbe02bd7c	-0.12767595

encoder2.0.weight f4 [15, 1, 5, 1]
0	0xbdd1b641	-0.1023984
1	0x3c77d420	0.015126258
2	0x3b4f19d1	0.003160108
3	0xbcb0109d	-0.021492297
4	0x3ea2c281	0.3178902
5	0xbe8fb423	-0.2806712
6	0xbd21d39f	-0.03950846
7	0xbd7cba49	-0.061701093
8	0x3c76ebc1	0.015070857
9	0x3ea0ef9c	0.31432807
10	0xbdf6cc9c	-0.12050745
11	0x3e7c4b07	0.24637996
12	0x3cce634b	0.025193831
13	0x3e6120b2	0.21985129
14	0xbe752a4e	-0.23941919
15	0xbe8ebf10	-0.27880144
16	0x3da3ea48	0.0800367
17	0x3d9a4984	0.07533553
18	0x3e128a34	0.14310533
19	0x3e1572c1	0.14594556
20	0x3d98012e	0.074221
21	0xbc14a11d	-0.0090716155
22	0x3cf62d0d	0.030050779
23	0xbe61646b	-0.22010963
24	0x3de5e44e	0.11225186
25	0x3d6c9da8	0.05776754
26	0xbe9e0981	-0.30866626
27	0x3e8b8333	0.27248535
28	0xbe9c58fe	-0.30536646
29	0x3e368ada	0.17826405
30	0x3d47ad36	0.04874917
31	0x3e54107f	0.20709418
32	0xbd4b0dc7	-0.049573686
33	0xbe312d38	-0.17302406
34	0xbe802cf8	-0.25034308
35	0xbd6c8115	-0.05774029
36	0xbdf81117	-0.12112635
37	0xbea1e446	-0.3161947
38	0x3df7cfcb	0.1210018
39	0x3dd9bdd8	0.10631913
40	0x3dfda67f	0.12385272
41	0x3e06be46	0.13158521
42	0x3e5b9cda	0.21446553
43	0x3e0a7a75	0.13523276
44	0xbe9453be	-0.2897014
45	0x3e1961e8	0.14978755
46	0x3e48f4ac	0.19624585
47	0xbd17afcf	-0.0370329
48	0xbdcba85f	-0.099442236
49	0xbe631b26	-0.22178325
50	0x3dab6d33	0.083704375
51	0x3e4a12c3	0.1973372
52	0x3e1db44d	0.1540081
53	0x3e33f8a6	0.1757532
54	0xbc1732b3	-0.009228396
55	0x3e524897	0.20535503
56	0x3c8a71be	0.01689994
57	0xbecc3d23	-0.39890394
58	0xbdd6400d	-0.104614355
59	0xbe29b2a2	-0.1657205
60	0x3d5c80a1	0.053833608
61	0xbdd4ad3f	-0.103846066
62	0x3e668555	0.225118
63	0x3ecfe16f	0.4060168
64	0x3dfa3d13	0.1221868
65	0xbe8d0668	-0.2754395
66	0xbec259f0	-0.37959242
67	0x3bbebbf8	0.0058207475
68	0x3e9367d8	0.28790164
69	0xbe1b1bf0	-0.15147376
70	0xbe633914	-0.22189742
71	0x3e5e97e9	0.21737637
72	0xbdddeca6	-0.10836153
73	0x3de98e17	0.114040546
74	0x3ecde57a	0.4021414

encoder2.0.bias f4 [15]
0	0xbeef3e57	-0.4672725
1	0xbec83d0a	-0.3910907
2	0x3dd4c43c	0.10388991
3	0x3e8e0763	0.2774001
4	0xbc43823b	-0.011932905
5	0xbf085828	-0.53259516
6	0xbea048bc	-0.31305492
7	0x3e33ae11	0.1754687
8	0x3e891b94	0.26778853
9	0xbe9e06ec	-0.30864656
10	0xbe6b263c	-0.22963804
11	0x3e856f08	0.26061273
12	0xbd036fbe	-0.032088988
13	0xbddd894d	-0.10817204
14	0x3d357930	0.044305027

decoder2.0.weight f4 [15, 1, 5, 1]
0	0x3db1f951	0.086901315
1	0x3dcf3ad5	0.10118643
2	0xbd89cea8	-0.0672887
3	0x3e18b7db	0.14913885
4	0x3e071845	0.13192852
5	0xbf00bb46	-0.50285757
6	0xbed39d4d	-0.41330948
7	0xbe24c69f	-0.16091393
8	0x3e526908	0.20547879
9	0x3e1916a8	0.14950049
10	0x3b66626a	0.0035153874
11	0x3ee9a72f	0.45635363
12	0x3ec9d8d6	0.39423245
13	0x3e057850	0.13034177
14	0x3dbd43f3	0.09241476
15	0xbdad5c4f	-0.08464872
16	0x3e85a2b9	0.2610071
17	0xbd8760e7	-0.066102795
18	0x3e99b4c3	0.30020723
19	0x3dbd7fbe	0.092528805
20	0xbe01584b	-0.12631337
21	0xba9b7d22	-0.0011862854
22	0xbe909e50	-0.28245783
23	0xbd6c7058	-0.057724327
24	0x3e9518c1	0.29120448
25	0xbea1d70b	-0.31609377
26	0xbdc1aa08	-0.09456259
27	0x3edaec0a	0.4275821
28	0x3dbff514	0.09372917
29	0x3ec7fd2f	0.3906035
30	0x3e9982a0	0.2998247
31	0x3eb8b612	0.3607641
32	0x3e959397	0.29214165
33	0x3e79f11f	0.24408387
34	0x3e6b2542	0.22963431
35	0xbe47ad7f	-0.19499777
36	0x3d8f4e78	0.069973886
37	0xbe48c5c0	-0.19606686
38	0x3e5075f0	0.2035749
39	0x3e41def2	0.18932703
40	0xbe62d704	-0.22152334
41	0xbe13079e	-0.14358374
42	0x3e0a2a12	0.13492611
43	0x3e59c552	0.21266678
44	0x3e6b94b6	0.23005947
45	0x3e166d37	0.146901
46	0x3e66b1ff	0.22528838
47	0xbea2703e	-0.3172626
48	0xbe9e40d1	-0.30908826
49	0xbea99a30	-0.33125448
50	0x3ea1fd6f	0.31638667
51	0x3f00c2e4	0.5029738
52	0x3f10b7f4	0.5653069
53	0x3e2a23e8	0.1661526
54	0xbe5948f8	-0.21219242
55	0xbe830a37	-0.2559373
56	0xbeac1e04	-0.3361665
57	0xbef396d0	-0.47575998
58	0xbe81bb00	-0.25337982
59	0xbeabcc89	-0.33554485
60	0x3ead1521	0.33805183
61	0x3d455144	0.048173204
62	0x3f005a92	0.501382
63	0x3e80769b	0.2509049
64	0x3d34e5e6	0.04416456
65	0xbe8cb4b6	-0.27481622
66	0xbec4eded	-0.38462773
67	0xbd425574	-0.047444776
68	0x3dc07267	0.093968205
69	0xbf015890	-0.5052576
70	0x3e7b9413	0.24568205
71	0x3ee071f2	0.43836933
72	0x3e846ba3	0.2586337
73	0xbd7d4384	-0.061831966
74	0x3e2869e0	0.16446638

encoder3.0.weight f4 [15, 1, 5, 1]
0	0x3e15ae8a	0.14617363
1	0xbd1444a9	-0.036198292
2	0x3e7a7df2	0.24462107
3	0x3e23c92f	0.15994714
4	0x3e3d3b26	0.18479595
5	0xbdcc060b	-0.0996209
6	0x3e1a115a	0.15045682
7	0xbe868e07	-0.26280233
8	0xbe9d4256	-0.30714673
9	0x3dc5b782	0.09654142
10	0xbe3c33fd	-0.18379207
11	0x3e57a32f	0.21058343
12	0x3c86ac5a	0.016439606
13	0x3da3ea30	0.08003652
14	0xbe1db1db	-0.15399878
15	0x3ec365df	0.3816366
16	0xbdb307a8	-0.08741695
17	0x3e0a7114	0.13519698
18	0xbd782e9a	-0.060591318
19	0x3e331428	0.17488158
20	0xbea37b09	-0.31929806
21	0xbe9e86b6	-0.3096215
22	0xbdc17d1d	-0.094476916
23	0xbe964716	-0.2935111
24	0x3cf3b5d8	0.029749796
25	0xbe1b6c46	-0.15178022
26	0x3eaa3c08	0.33248925
27	0xbd57cf50	-0.052687943
28	0xbdc0999b	-0.09404298
29	0xbe3ddb78	-0.18540752
30	0x3eb33238	0.3499925
31	0xbe514f65	-0.20440443
32	0x3e736bdb	0.23771612
33	0xbe2849b4	-0.16434366
34	0x3db5f2dd	0.08884213
35	0xbe594a4b	-0.21219747
36	0xbea3c1f7	-0.3198392
37	0x3e96a5d5	0.29423395
38	0xbe5e9eec	-0.21740311
39	0xbe21de05	-0.1580735
40	0x3eace987	0.33771917
41	0xbbf11b90	-0.007358022
42	0xbe8ba929	-0.27277496
43	0xbe972895	-0.2952315
44	0xbd691e9b	-0.056913953
45	0xbd697b54	-0.05700238
46	0xbe6ce728	-0.23135054
47	0x3de95343	0.11392834
48	0x3a4a738f	0.0007722908
49	0xbcf7ae8d	-0.0302346
50	0xbe87c30e	-0.26516002
51	0x3d8696f0	0.06571758
52	0x3e3cbaa1	0.18430568
53	0xbdeb034b	-0.114752375
54	0xbe4fe68e	-0.20302793
55	0x3e0c92e0	0.13727903
56	0xbe36c8cd	-0.17850037
57	0x3eb4de01	0.35325626
58	0xbd5d74ce	-0.05406647
59	0xbcb61f33	-0.022231674
60	0x3e655eab	0.22399394
61	0xbb816520	-0.0039488226
62	0xbdd1c381	-0.102423675
63	0xbea689c8	-0.32526994
64	0xbd4cced7	-0.050001945
65	0xbe36e864	-0.17862087
66	0x3e822eb0	0.25426245
67	0xbd8eba98	-0.06969184
68	0x3e34f755	0.17672475
69	0xbda896fd	-0.08231924
70	0x3ae33394	0.0017334097
71	0xbdec9a7d	-0.11552904
72	0xbe3dbf7e	-0.1853008
73	0xbe6c6a16	-0.23087344
74	0x3d93e194	0.0722076

decoder3.0.weight f4 [15, 1, 5, 1]
0	0x3ebc8196	0.36817616
1	0x3ef00b86	0.46883792
2	0x3f103d99	0.5634399
3	0x3f07a845	0.52991134
4	0x3d81f53b	0.06345602
5	0xbeb530f3	-0.35388908
6	0x3ec0e21d	0.3767251
7	0xbe82a004	-0.25512707
8	0xbb8765fb	-0.00413203
9	0x3e84141f	0.257966
10	0xbcf11585	-0.029429207
11	0x3d19bb27	0.037531998
12	0x3e74abb9	0.23893632
13	0x3ea5b687	0.3236582
14	0xbea8b712	-0.32952172
15	0x3e51b133	0.20477752
16	0x3eda44d0	0.42630625
17	0x3dde64f9	0.10859103
18	0xbd2b74b6	-0.04185935
19	0x3f0bd8ad	0.54627496
20	0x3c8dd198	0.017311856
21	0xbe677191	-0.22601916
22	0x3d2bcd6d	0.041943956
23	0xbee7cb02	-0.4527207
24	0x3bf8c9b9	0.0075924066
25	0xbe971d32	-0.29514462
26	0x3e7d1e66	0.24718627
27	0xbd238397	-0.039920416
28	0xbe989fae	-0.29809326
29	0x3da59504	0.08085063
30	0x3e87820e	0.2646641
31	0xbe7ec990	-0.24881577
32	0x3d2baa7a	0.041910626
33	0x3e4c8988	0.19974339
34	0x3e4bed6e	0.19914791
35	0xbe5bc12e	-0.21460411
36	0xbe62cb05	-0.22147758
37	0xbe45a298	-0.19300306
38	0x3e4b85ec	0.19875306
39	0xbdc1b82f	-0.09458958
40	0x3e8a3864	0.26996148
41	0xbbffa374	-0.0078014676
42	0x3e6c410a	0.23071685
43	0xbe09596e	-0.13413021
44	0xbd08067c	-0.03320931
45	0x3e25b854	0.16183597
46	0xbeab49b6	-0.33454674
47	0x3e6e212d	0.23254843
48	0xbd8763fd	-0.06610868
49	0x3d716060	0.0589298
50	0xbe9d2892	-0.30695015
51	0x3ed87451	0.42276242
52	0xbdf95682	-0.12174703
53	0xbec8022f	-0.39064166
54	0xbf0443ad	-0.51665765
55	0x3e4bf096	0.19915995
56	0xbe8eae43	-0.27867326
57	0x3e712581	0.23549463
58	0x3eafd1c8	0.34339738
59	0x3d7f9e85	0.062407035
60	0xbe86050c	-0.26175725
61	0xbe86ee9f	-0.26353928
62	0xbcb70972	-0.022343371
63	0xbe382b7e	-0.17985341
64	0xbec3a3e1	-0.38210967
65	0xbe30bbb0	-0.17259097
66	0x3ec11f41	0.37719157
67	0xbd8814c4	-0.06644586
68	0xbe9ff8ab	-0.31244406
69	0x3ee3e21c	0.44508445
70	0x3e9ace3d	0.30235472
71	0x3e326a80	0.17423439
72	0xbec10307	-0.37697622
73	0xbec31699	-0.38103178
74	0x3de23fb9	0.110473104
