train_models/SKCM/param2_10_param3_20_epoch_20.pth (torch, 814923 bytes, 9 tensors)

weight f4 [450, 450]
1e-04 0.008097901 -0.00892376 0.0028359543 0.0026500933 -0.005556207 0.014807722 -0.004487056
-0.0059253345 -0.0042543453 -0.0074717877 -0.010810613 0.009684435 0.004217194 0.001386886 -0.003995207
0.0029588 -0.0044311546 0.0008865517 0.0019199395 -0.00065422826 0.00034142338 -0.0122542335 -0.0013536365
0.0042749424 -0.0026754357 0.014093161 -0.0016890749 0.0012335541 -0.0014654594 0.012351989 -0.00011233342
-0.008605919 0.006833953 0.009854936 0.009992954 -0.00014198756 0.007286873 0.0028611454 0.009162537
-0.0006522541 0.0055331397 0.0033408378 -0.0019126671 0.00038000633 0.016493188 0.0035311745 0.0014462115
-0.010775089 0.0071107913 0.0036153076 0.0065477462 -0.00038875287 -0.0034008438 0.0074372315 -0.0074272896
-0.009360684 0.003707385 0.012427997 0.015872851 -0.0004212007 -0.00011381354 -0.004678228 0.010438498
-0.0021280749 0.0094642015 0.015599716 -0.007437544 0.0009027966 0.0074714045 -0.0005456779 0.007329186
0.012524452 0.005894276 0.0010187943 -0.008555403 0.009216208 -0.00058864185 0.0056909393 0.005237487
0.002498269 0.010331259 0.001418069 0.013388842 0.009173774 0.0031217048 0.016810501 0.0055952286
0.0033914 0.007848883 0.009437817 0.0045731943 0.00873418 0.0028192985 0.006363514 -0.006440683
-0.0044692834 0.008554035 0.014321535 0.0016014169 0.0030349283 0.004715358 -0.0008663177 0.0065851705
-0.005721318 0.0059194174 0.006957895 -0.010723608 0.0032570506 0.0047396054 0.0046329675 0.004710407
-0.0055277115 -0.001180625 -0.0040304866 0.01607322 0.000729218 -0.0041244486 -0.0065269433 -0.0069708684
-0.0013924477 1.6929407e-05 0.009612401 0.0013822626 0.0040830914 0.011452719 0.0023363833 0.00643017
0.0031049175 0.010497089 0.01766428 -0.0045455205 0.0064833155 0.0018983616 -0.0044809747 -0.0021052863
0.014572487 -0.004878857 0.0024671657 0.0021427844 -0.0072646188 0.0014470821 0.0025453751 -0.0064932657
-0.004693367 -0.011341353 0.007779079 0.0024232098 0.0018593515 -0.0007810235 -0.0018753023 -0.0016782
-0.0023082437 0.0013282304 -0.0018679646 0.009427778 -0.00024388358 -0.0015261575 0.0004333707 -0.0053641647
-0.0020232443 -0.0025723057 -0.0029629753 0.00132827 -0.007165009 0.015547786 -0.0040937215 -0.007779024
-0.0019340912 0.016189981 0.003915635 0.0026250202 0.005114984 0.0027751504 -0.009831331 0.006438689
0.004363267 -0.0068311775 -0.0074204155 0.00035621133 0.0067501664 -0.0007331441 -0.00041850918 0.00785274
0.004215795 -0.006944802 -0.01040533 -0.005403255 0.0029354715 0.013177036 -0.0021094112 0.008678961
0.008215567 -0.0036395767 -0.0036572728 0.005404839 0.0055663865 -0.005654147 -0.004679045 0.0036624058
0.0031897482 -0.0049390616 -0.0009833883 -0.010547932 0.0029733642 -0.00018190504 0.0020139448 -0.0036764895
0.0065832203 0.014296712 -0.0040409854 0.0030798996 0.014822405 0.012036901 -0.010545306 -0.00597807
0.008587924 0.0063288636 -0.0013615864 0.0025585827 0.0066012335 0.0065629203 -0.0047437 0.020711787
0.0030768032 0.004452899 0.0006342342 0.009023676 0.018410746 0.0021255463 0.007043132 -0.006265316
-0.0029424015 -0.003740031 -0.0004281553 -0.000670554 -0.0069000428 0.002706481 0.011535978 -0.002949031
-0.0017050433 0.005615176 0.0056693996 0.0026469943 0.010314948 0.015853325 0.012635808 0.0014845285
0.0036964912 0.0098818755 0.0139328865 0.0013353736 0.011692715 0.01114621 0.019520707 0.007145334
00000000: 17b7 d138 0fad 043c f634 12bc 6bdb 393b
00000010: 30ad 2d3b d810 b6bb 169c 723c 2708 93bb
00000020: 4f29 c2bb 0968 8bbb e6d5 f4bb ff1e 31bc
00000030: 77ab 1e3c 6330 8a3b 2cc8 b53a 3aea 82bb
00000040: 6de8 413b 3833 91bb 7a67 683a 7ba6 fb3a
00000050: 8480 2bba 1201 b339 fbc5 48bc 816c b1ba
00000060: d114 8c3b 5d56 2fbb 00e7 663c f363 ddba
00000070: 35af a13a a814 c0ba ff5f 4a3c 8c94 ebb8
00000080: d7ff 0cbc 5aef df3b 9976 213c 7db9 233c
00000090: 7fe2 14b9 b9c6 ee3b 0e82 3b3b 771e 163c
000000a0: 08fc 2aba 574f b53b f5f1 5a3b 75b2 faba
000000b0: 963b c739 b91c 873c 476b 673b ce8e bd3a
000000c0: 008a 30bc a401 e93b ccee 6c3b 7a8e d63b
000000d0: 87d1 cbb9 b1e0 5ebb 05b4 f33b 9f60 f3bb
000000e0: 8e5d 19bc 99f7 723b cc9e 4b3c c807 823c
000000f0: 9ad4 dcb9 2eaf eeb8 d24b 99bb 3c06 2b3c
00000100: 2c77 0bbb bd0f 1b3c f495 7f3c a4b6 f3bb
00000110: a7a9 6c3a afd2 f43b d30b 0fba ab29 f03b
00000120: 5c33 4d3c c524 c13b 1089 853a f62b 0cbc
00000130: 94ff 163c 164f 1aba 0f7b ba3b 3a9f ab3b
00000140: 00ba 233b 7144 293c 80de b93a e05c 5b3c
00000150: 994d 163c 8495 4c3b 2db6 893c 2e58 b73b
00000160: 4042 5e3b 9a98 003c 13a1 1a3c bcda 953b
00000170: ce19 0f3c fbc3 383b 0685 d03b 5d0c d3bb
00000180: 1173 92bb 3926 0c3c dfa4 6a3c a2e6 d13a
00000190: a6e5 463b 4a83 9a3b 9919 63ba 6ac8 d73b
000001a0: e579 bbbb acf7 c13b 0eff e33b 12b2 2fbc
000001b0: 3e74 553b b14e 9b3b 26d0 973b c259 9a3b
000001c0: ce21 b5bb 34bf 9aba 2c12 84bb fcab 833c
000001d0: fe28 3f3a 6226 87bb f8df d5bb e26b e4bb
000001e0: cb82 b6ba a003 8e37 557d 1d3c 092d b53a
000001f0: 74cb 853b 2fa4 3b3c 021e 193b 2db4 d23b
00000200: df7b 4b3b fbfb 2b3c aeb4 903c 97f2 94bb
00000210: fe71 d43b 72d2 f83a 24d5 92bb d8f8 09bb
00000220: 71c1 6e3c d2de 9fbb 2cb0 213b f56d 0c3b
00000230: 0a0c eebb 05ac bd3a 4fd0 263b 76c5 d4bb
00000240: d1ca 99bb 15d1 39bc a5e7 fe3b b7ce 1e3b
00000250: 7cb5 f33a 9abd 4cba b4cc f5ba 0cf7 dbba
00000260: e745 17bb 0418 ae3a 7ed6 f4ba f876 1a3c
00000270: 00bb 7fb9 5909 c8ba 0836 e339 e0c5 afbb
00000280: 6898 04bb 2194 28bb 7a2e 42bb 5819 ae3a
00000290: 74c8 eabb 24bc 7e3c a024 86bb 2fe7 febb
000002a0: 5581 fdba daa0 843c ba4e 803b 8808 2c3b
000002b0: 989b a73b 4cdf 353b 9713 21bc a3fb d23b
000002c0: bdf9 8e3b 12d8 dfbb f526 f3bb e0c1 ba39
000002d0: 8030 dd3b 7830 40ba 5a6b dbb9 c7a8 003c
000002e0: a724 8a3b 3991 e3bb 1e7b 2abc ca0d b1bb
000002f0: 0a61 403b 7fe4 573c 0c3e 0abb 3332 0e3c
00000300: 969a 063c f785 6ebb dbae 6fbb 131b b13b
00000310: 3c66 b63b 6c46 b9bb ad52 99bb f904 703b
00000320: 180b 513b dad7 a1bb 09e5 80ba 3cd1 2cbc
00000330: c6dc 423b c3bd 3eb9 63fc 033b 42f1 70bb
00000340: 0eb8 d73b c23c 6a3c 3e6a 84bb 24d8 493b
00000350: acd9 723c 6c36 453c 38c6 2cbc b0e3 c3bb
00000360: 5db4 0c3c 5b62 cf3b 4277 b2ba e5ad 273b
00000370: 294f d83b c40d d73b 0a71 9bbb c4ab a93c
00000380: 31a4 493b a0e9 913b bd42 263a 0ad8 133c
00000390: 22d2 963c c04c 0b3b 13ca e63b 484d cdbb
000003a0: 4ed5 40bb 4f1b 75bb 087a e0b9 1ec8 2fba
000003b0: c119 e2bb 375f 313b 6601 3d3c 8844 41bb
000003c0: c27b dfba 83ff b73b 5fc6 b93b 3279 2d3b
000003d0: 0700 293c d5de 813c 6c06 4f3c 8394 c23a
000003e0: d540 723b 97e7 213c c346 643c b407 af3a
000003f0: cd92 3f3c 989e 363c e4e9 9f3c 6823 ea3b

encoder1.0.weight f4 [15, 1, 5, 1]
-0.32849422 0.10998977 -0.31252006 -0.06545459 -0.4242141 0.22416776 0.096984334 -0.22716337
0.13800871 -0.027012415 0.32420838 0.2778672 -0.14916387 0.059206497 -0.28102517 -0.024675978
0.17427151 0.4314996 -0.15682064 0.46425697 0.2098689 0.1514035 0.32267314 0.12259683
-0.20651531 0.16308552 -0.22498587 -0.26080468 -0.16392235 0.27527693 0.3936425 -0.08653671
0.18992703 -0.30443683 -0.05044353 -0.011643237 -0.2078717 -0.2382483 0.30879653 0.23227715
0.35005873 -0.06523855 -0.35885653 0.038115982 0.4661146 0.26382628 -0.26964286 -0.3326944
-0.24362026 -0.30615622 0.18459882 0.12273768 0.01105339 0.18322018 -0.21738842 0.084230274
-0.13396691 -0.2316233 0.0299755 -0.058679063 -0.26218742 -0.1677237 -0.15354437 -0.024216658
-0.11487062 -0.40861088 -0.099849366 -0.25361186 -0.36898503 0.29906732 -0.19079162 0.0052733384
-0.2476088 0.36452165 0.04888268
00000000: 6530 a8be 5142 e13d a102 a0be 0e0d 86bd
00000010: 9732 d9be 3c8c 653e b99f c63d 849d 68be
00000020: 2852 0d3e 2449 ddbc a4fe a53e 9c44 8e3e
00000030: 6abe 18be 8382 723d 88e2 8fbe 4725 cabc
00000040: 3b74 323e 84ed dc3e 9795 20be 17b3 ed3e
00000050: dfe7 563e 8509 1b3e 6a35 a53e 0c14 fb3d
00000060: c078 53be e4ff 263e b262 66be 3188 85be
00000070: 43db 27be 19f1 8c3e 828b c93e 293a b1bd
00000080: 3b7c 423e 25df 9bbe e09d 4ebd 47c3 3ebc
00000090: 52dc 54be 5df7 73be 941a 9e3e 10da 6d3e
000000a0: e63a b33e ca9b 85bd 0bbc b7be 811f 1c3d
000000b0: 93a6 ee3e 3d14 873e a10e 8abe ec56 aabe
000000c0: 9777 79be 82c0 9cbe 7907 3d3e e55d fb3d
000000d0: 4719 353c 129e 3b3e 129b 5ebe ec80 ac3d
000000e0: 9f2e 09be a92e 6dbe 2e8f f53c 7559 70bd
000000f0: 6e3d 86be c3bf 2bbe bc3a 1dbe 0362 c6bc
00000100: 4a41 ebbd 7235 d1be d37d ccbd 6ad9 81be
00000110: 9beb bcbe 5a1f 993e e15e 43be f8cb ac3b
00000120: 298d 7dbe 95a2 ba3e 3439 483d

encoder1.0.bias f4 [15]
0.01468466 0.32577294 -0.23088239 -0.016300315 -0.24980871 -0.28902417 -0.31544727 -0.19674057
0.09872759 -0.49961954 0.011027086 -0.32683674 -0.14920098 -0.19382246 0.17039764
00000000: ee97 703c b6cb a63e 6f6c 6cbe 3d88 85bc
00000010: dbcd 7fbe fafa 93be 4e82 a1be 5c76 49be
00000020: b131 ca3d 22ce ffbe f3aa 343c 2557 a7be
00000030: 24c8 18be 6579 46be b87c 2e3e

decoder1.0.weight f4 [15, 1, 5, 1]
-0.32810834 0.1911156 -0.39772874 -0.055195004 -0.29052398 -0.34116194 0.066085525 -0.19254231
0.2964549 -0.02912724 -0.3692991 0.3836653 -0.03459788 0.07492081 0.19470456 -0.3250258
0.31894502 0.16920274 -0.27687976 0.41240934 0.43786463 -0.058018956 -0.31756032 -0.32174748
-0.3947099 -0.4243508 -0.43355462 0.10419009 -0.23542525 -0.19004312 0.111530766 0.001536364
0.4479687 -0.12880617 0.24682759 0.10819906 -0.20528963 0.15987578 0.507449 0.282031
-0.3455282 0.15720214 -0.28501493 -0.083625376 0.056621015 -0.08798183 -0.29277027 -0.34534705
-0.15414016 0.24176845 0.475096 0.22332254 -0.34543118 0.3585291 -0.4198143 0.3912371
-0.102254175 -0.15757394 -0.2802404 -0.07460539 0.11290006 0.2154796 -0.022758141 -0.09068644
-0.3863641 0.006959362 -0.44095165 0.21019511 -0.29104802 0.15121648 0.2741459 -0.26629767
-0.19544826 0.2739735 0.40766692
00000000: d1fd a7be cfb3 433e 1aa3 cbbe 2814 62bd
00000010: 8fbf 94be c7ac aebe d957 873d d029 45be
00000020: f0c8 973e 409c eebc c614 bdbe c76f c43e
00000030: 82b6 0dbd 1570 993d a260 473e c869 a6be
00000040: c34c a33e 7c43 2d3e 2fc3 8dbe 5127 d33e
00000050: cb2f e03e 49a5 6dbd 4497 a2be 16bc a4be
00000060: 6a17 cabe 8244 d9be dffa ddbe 9d61 d53d
00000070: 5113 71be aa9a 42be 3e6a e43d d25f c93a
00000080: 275c e53e c4e5 03be 5fc0 7c3e 7897 dd3d
00000090: 7237 52be 7ab6 233e 2de8 013f 5e66 903e
000000a0: 12e9 b0be 99f9 203e 7aed 91be c843 abbd
000000b0: 70eb 673d d12f b4bd fce5 95be 54d1 b0be
000000c0: ebd6 1dbe 2692 773e c83f f33e aaae 643e
000000d0: 5bdc b0be 2091 b73e e6f1 d6be 3b50 c83e
000000e0: a36a d1bd 105b 21be ab7b 8fbe b6ca 98bd
000000f0: 2638 e73d afa6 5c3e 486f babc d0b9 b9bd
00000100: 84d1 c5be 5c0b e43b 6ac4 e1be 633d 573e
00000110: 3f04 95be 7ed8 1a3e da5c 8c3e 2b58 88be
00000120: 9723 48be 4146 8c3e b8b9 d03e

encoder2.0.weight f4 [15, 1, 5, 1]
-0.23620284 -0.25449148 0.08806929 -0.24484548 0.1725541 0.36457735 -0.46573687 -0.3687768
0.17307584 0.37433115 0.1233773 0.26199397 0.10505721 0.23638086 -0.18736435 0.2715929
0.36063436 0.05148331 0.41994748 -0.18287036 0.029660413 -0.33430412 -0.13826421 -0.18020356
-0.2828666 -0.06079994 0.09827847 -0.025125148 0.31683296 0.15606329 0.11542485 0.29988483
-0.0459494 0.3169238 -0.30106136 -0.26916355 -0.44245505 -0.36085206 -0.18236062 -0.013444251
-0.15699041 -0.37435442 -0.32141635 0.16950808 0.3087163 0.11743479 0.23311745 -0.25647283
0.19827078 -0.012192526 -0.16674286 0.41389307 0.0992788 0.34712628 -0.21376674 0.41621146
0.12373755 -0.16281252 0.030261004 -0.01925043 -0.14904216 0.34542784 -0.18263808 -0.3336541
0.05934436 0.27521357 -0.28921703 -0.26464036 -0.013777662 0.2338439 -0.37486812 0.07732005
-0.18366395 -0.22760567 0.061233636
00000000: 28df 71be b54c 82be ac5d b43d c6b8 7abe
00000010: 06b2 303e e2a9 ba3e 1075 eebe 50d0 bcbe
00000020: cb3a 313e 55a8 bf3e 3dad fc3d 1324 863e
00000030: 3c28 d73d d30d 723e 71dc 3fbe 390e 8b3e
00000040: 11a5 b83e 2ae0 523d 5b03 d73e 5e42 3bbe
00000050: 65fa f23c e929 abbe 2295 0dbe 4887 38be
00000060: e4d3 90be 5c09 79bd 3946 c93d 41d3 cdbc
00000070: ee37 a23e 0ecf 1f3e dd63 ec3d 818a 993e
00000080: 7035 3cbd d643 a23e b724 9abe cecf 89be
00000090: 7889 e2be 9ac1 b8be bebc 3abe 4745 5cbc
000000a0: 18c2 20be 62ab bfbe af90 a4be 8793 2d3e
000000b0: 1010 9e3e a781 f03d 57b6 6e3e 6850 83be
000000c0: 7f07 4b3e 29c3 47bc a4be 2abe cbe9 d33e
000000d0: af52 cb3d 89ba b13e abe5 5abe ab19 d53e
000000e0: 1d6a fd3d 53b8 26be ede5 f73c 14b3 9dbc
000000f0: 829e 18be ebdb b03e 7a05 3bbe b6d4 aabe
00000100: 1213 733d cbe8 8c3e 4114 94be f17e 87be
00000110: b4bb 61bc c674 6f3e b7ee bfbe f959 9e3d
00000120: 6712 3cbe 7611 69be 1fd0 7a3d

encoder2.0.bias f4 [15]
0.24270013 0.21033971 0.21550678 -0.13829075 -0.21568957 0.0044514113 0.15724052 -0.4423966
0.4360375 0.1869396 -0.044356357 -0.2336973 -0.06852731 0.3180068 -0.38643676
00000000: 6286 783e 4b63 573e cfad 5c3e 179c 0dbe
00000010: badd 5cbe 25dd 913b a903 213e cf81 e2be
00000020: 4f40 df3e 186d 3f3e 03af 35bd 584e 6fbe
00000030: 0c58 8cbd cad1 a23e 0adb c5be

decoder2.0.weight f4 [15, 1, 5, 1]
-0.48394245 -0.27172476 0.35300383 0.3535881 0.3615953 -0.21039434 -0.2927622 0.3774888
0.26223952 -0.043088965 0.42655745 0.38342506 0.20318902 0.3877059 0.16719843 -0.2464776
-0.11231646 -0.08412443 0.41683203 -0.43712324 -0.11955923 -0.025570136 0.26618356 0.21269976
-0.07355733 -0.12195924 0.4628717 -0.19847524 -0.07721986 -0.4587391 0.073373996 -0.11709889
0.056147818 0.06085773 0.2775233 0.37611836 -0.46211204 -0.3350994 -0.28863785 -0.21512789
-0.09155406 -0.020078413 -0.4430157 -0.3086848 -0.42964303 -0.21886821 -0.057524674 -0.46159324
0.18481581 0.032815095 0.18268725 0.31567153 -0.05544022 0.14289162 0.012198306 0.42094746
0.018388076 0.16900638 -0.26733664 -0.27014968 0.2810081 0.32791278 -0.07431833 -0.5127834
-0.08166006 0.40935904 0.3892935 -0.16392516 -0.059911232 0.050345004 0.082970046 0.19922559
-0.37844148 0.14059657 -0.044948325
00000000: 4ec7 f7be 821f 8bbe ebbc b43e 8009 b53e
00000010: 0523 b93e 9d71 57be ede4 95be 3646 c13e
00000020: 4244 863e 0e7e 30bd bd65 da3e 4a50 c43e
00000030: c810 503e 6381 c63e 1136 2b3e a064 7cbe
00000040: 2c06 e6bd 6e49 acbd 026b d53e 9ece dfbe
00000050: 78db f4bd 7678 d1bc 3649 883e f7cd 593e
00000060: 3aa5 96bd c4c5 f9bd 85fd ec3e 183d 4bbe
00000070: 7225 9ebd dadf eabe 1b45 963d 8bd1 efbd
00000080: 41fb 653d f545 793d 8917 8e3e 9692 c03e
00000090: f399 ecbe 2692 abbe 57c8 93be 7c4a 5cbe
000000a0: b280 bbbd 7c7b a4bc f4d2 e2be ef0b 9ebe
000000b0: 2cfa dbbe fd1e 60be fe9e 6bbd f355 ecbe
000000c0: 5b40 3d3e 1f69 063d 5e12 3b3e b39f a13e
000000d0: 4915 63bd 2e52 123e 67db 473c 6d86 d73e
000000e0: 97a2 963c 0210 2d3e 59e0 88be 0f51 8abe
000000f0: 4be0 8f3e 2fe4 a73e 3534 98bd c645 03bf
00000100: 643d a7bd 8297 d13e 7a51 c73e ffdb 27be
00000110: 7b65 75bd 9036 4e3d 33ec a93d cb01 4c3e
00000120: 15c3 c1be 8cf8 0f3e bc1b 38bd

encoder3.0.weight f4 [15, 1, 5, 1]
-0.104709156 0.13034967 -0.116138205 0.39619696 -0.073955804 -0.37305284 0.023114098 -0.13962369
0.1271698 -0.11049564 -0.122172944 0.03231624 -0.11791905 -0.32946327 0.19995663 0.0012108227
0.2696652 0.22706325 -0.31583807 0.07649305 0.030812321 -0.27756017 0.048976667 -0.186244
-0.16912055 0.007301245 -0.39045367 0.21497124 0.33861876 0.32555065 -0.11507265 0.38058108
-0.3425388 0.2354754 0.284662 0.4217761 -0.052167006 -0.18278825 0.31184953 0.22020061
0.38853717 -0.007399675 -0.28655672 0.2724435 0.001002011 0.14811528 -0.27202505 -0.24737595
-0.28662086 0.39802364 -0.16393815 -0.12173115 -0.19011585 -0.14034016 -0.409395 0.019746039
0.041942544 -0.24158359 -0.21691747 0.057064414 0.42254892 -0.24807942 0.09881346 0.32115072
0.12640992 0.39837596 -0.4343639 0.20156766 0.15564547 -0.16742468 0.050193556 0.008848808
0.2856011 0.063775316 -0.056754682
00000000: c171 d6bd 627a 053e ded9 edbd 54da ca3e
00000010: 2476 97bd c800 bfbe c759 bd3c 83f9 0ebe
00000020: cd38 023e 8a4b e2bd cf35 fabd 095e 043d
00000030: 8b7f f1bd 69af a8be 6ec1 4c3e 78b4 9e3a
00000040: 8f11 8a3e 4583 683e 87b5 a1be 63a8 9c3d
00000050: 1f6a fc3c 5e1c 8ebe c29b 483d bfb6 3ebe
00000060: f02d 2dbe 483f ef3b 8be9 c7be 6c21 5c3e
00000070: 705f ad3e 93ae a63e 36ab ebbd 86db c23e
00000080: 3f61 afbe 7720 713e 38bf 913e 09f3 d73e
00000090: 12ad 55bd d82c 3bbe beaa 9f3e 457c 613e
000000a0: 58ee c63e f978 f2bb 90b7 92be b77d 8b3e
000000b0: e955 833a 88ab 173e de46 8bbe 1f50 7dbe
000000c0: f8bf 92be c1c9 cb3e 67df 27be 2e4e f9bd
000000d0: bbad 42be 55b5 0fbe 399c d1be 72c2 a13c
000000e0: f2cb 2b3d b061 77be 9d1f 5ebe 60bc 693d
000000f0: 5558 d83e 8808 7ebe b65e ca3d de6d a43e
00000100: 9a71 013e eff7 cb3e f264 debe c167 4e3e
00000110: 8761 1f3e 6071 2bbe c297 4d3d 97fa 103c
00000120: 4f3a 923e a29c 823d 9977 68bd

decoder3.0.weight f4 [15, 1, 5, 1]
0.28257883 0.29832387 -0.13652425 0.30391017 -0.06465606 0.020600233 -0.29145485 -0.31060457
-0.34479225 -0.19127649 -0.39227983 -0.20881696 0.035952196 -0.49415812 -0.051178187 0.3254169
0.0927696 -0.3202776 0.17889819 0.29707164 0.15421344 -0.3185305 0.3173076 -0.20771071
0.2150319 -0.32871875 0.009701941 -0.011220216 -0.08756053 0.21272288 -0.09111902 0.48616827
-0.3757408 0.47808394 0.27382895 0.05476733 0.1292088 0.10757377 -0.32067224 0.2324904
0.27587998 -0.37946102 -0.093598284 0.12592322 -0.047400214 0.15028156 -0.04089328 -0.0828569
0.26855388 0.19059147 -0.4151803 0.1602776 0.0734925 0.1297438 -0.22614643 -0.10365376
0.31623635 -0.38338333 -0.040313568 0.33826098 0.19631712 0.2648896 0.01405255 0.45055994
-0.25204808 0.32080448 -0.25259268 0.24874423 -0.3871708 -0.17386554 0.26742396 -0.22343187
0.33577123 -0.17964685 0.07912978
00000000: 2cae 903e e8bd 983e 03cd 0bbe 1d9a 9b3e
00000010: 656a 84bd d2c1 a83c 9239 95be 9007 9fbe
00000020: 9c88 b0be fcdd 43be e7d8 c8be 1dd4 55be
00000030: 9c42 133d 4b02 fdbe 38a0 51bd 0b9d a63e
00000040: fdfd bd3d 6dfb a3be 1631 373e c619 983e
00000050: 21ea 1d3e 6e16 a3be 2476 a23e 1eb2 54be
00000060: 5331 5c3e d34d a8be e4f4 1e3c ffd4 37bc
00000070: ef52 b3bd 07d4 593e 9c9c babd 0ceb f83e
00000080: 1961 c0be 6bc7 f43e 4f33 8c3e b553 603d
00000090: 504f 043e a34f dc3d 272f a4be f711 6e3e
000000a0: 2440 8d3e b748 c2be 75b0 bfbd 04f2 003e
000000b0: ba26 42bd 69e3 193e b67f 27bd e1b0 a9bd
000000c0: e57f 893e 692a 433e 8392 d4be d01f 243e
000000d0: 3c83 963d 8fdb 043e ee92 67be 6c48 d4bd
000000e0: bbe9 a13e d24a c4be d71f 25bd 8b30 ad3e
000000f0: 5b07 493e 9c9f 873e ab3c 663c cbaf e63e
00000100: 720c 81be 7c40 a43e d453 81be cfb6 7e3e
00000110: 403b c6be cf09 32be cbeb 883e 53cb 64be
00000120: 35ea ab3e 58f5 37be cb0e a23d
