train_models/OV/param2_10_param3_20_epoch_90.pth (torch, 334411 bytes, 9 tensors)

weight f4 [287, 287]
000000 17 b7 d1 38 6a 0e 83 3b 57 e8 e4 3a d9 7e ab 3c
       1e-04 0.003999521 0.0017464262 0.02093451
000010 61 2d 17 3d 1e f1 0d bc d5 ec 66 3c bc 2c 05 bc
       0.03690851 -0.008663444 0.014094551 -0.008128341
000020 55 c2 2b 3c e7 59 03 3d 69 56 d7 bb 81 e0 cf bc
       0.010483344 0.03206816 -0.00657158 -0.025375606
000030 36 81 29 3d d3 84 aa 3c 84 fb c5 bc ce 13 54 3c
       0.04138299 0.020815289 -0.024167784 0.012944175
000040 b7 b9 07 bc a6 03 bc 3c 53 59 f9 3b 4c fc 77 3c
       -0.008284024 0.022950958 0.007609525 0.015135836
000050 ab 1b 1e 3c fe 25 6b 3c ff 52 72 3c c8 a5 2d bc
       0.009650151 0.01435232 0.014790296 -0.010598607
000060 c5 9e b6 3b d9 5d 0f bc 08 98 d9 3b 1d 3f 0e 3c
       0.005573126 -0.008750402 0.006640438 0.00868204
000070 72 fa 28 ba f9 70 32 bc 2c d7 ac 3c ab 59 c7 39
       -0.00064460107 -0.010891193 0.021098696 0.00038023046
000080 81 75 a2 bb 90 47 86 3b 51 e4 f8 b9 84 33 b8 3c
       -0.004957855 0.0040978864 -0.00047472355 0.022485502
000090 ba 1a d6 3c ed 11 e4 bc 8d 8b 53 bb 23 42 8f 3c
       0.026135791 -0.027840579 -0.0032279224 0.017487591
0000a0 7d af 77 bb 16 81 22 3d 6d f5 44 3c 36 28 a1 bc
       -0.0037793808 0.039673887 0.012021405 -0.019672494
0000b0 51 2c 94 bb dd 95 02 3d 02 97 b4 bc b3 1b b1 bb
       -0.0045218845 0.031881202 -0.022044662 -0.0054049133
0000c0 4e 14 21 3c ea 5c dc 38 25 82 2f 3a 7c c8 75 bc
       0.009831501 0.00010507724 0.0006695113 -0.0150014125
0000d0 f7 b4 ce 3c 60 4c 21 3a 12 54 ff bb 96 7a 77 bc
       0.025232775 0.00061530434 -0.0077920044 -0.01510491
0000e0 23 6d 65 bb e8 7c 86 bc 2a 73 39 3d 05 b2 e9 bb
       -0.0035007678 -0.016416982 0.045275845 -0.0071318173
0000f0 2e cd ae 3c a9 b7 f7 3b f8 06 df 3a 6d e7 20 bc
       0.021338072 0.007559736 0.0017015627 -0.009820801
000100 44 6d 2f b9 3c 59 fb 39 c8 88 33 3b 7a 61 35 3b
       -0.00016730005 0.00047940935 0.002739476 0.0027676509
000110 d5 27 b0 bb 09 03 7c 3c 6c f8 b2 3c e9 3a d7 3c
       -0.005375842 0.015381583 0.021846972 0.026273208
000120 e8 6b a9 bc a1 ee 41 bc ef a3 ef 3b 55 c9 43 bc
       -0.020681337 -0.011836679 0.0073132436 -0.011949857
000130 a6 6d 77 bb 33 77 05 3d 36 d4 a3 bc 92 f5 1f bb
       -0.0037754565 0.03258438 -0.019998651 -0.0024407846
000140 c2 58 9e bc 54 29 45 bc 15 47 be bc bc ab 17 bc
       -0.019329432 -0.012033779 -0.023227254 -0.009257253
000150 eb aa a7 3c 00 b5 b1 3c 77 40 2d bb 6c 61 32 3c
       0.020467242 0.021692753 -0.002643613 0.010887485
000160 37 d1 9a bc de fa 05 3c 26 1b 9f 3c fa 1d 00 3b
       -0.01889859 0.008177487 0.019422125 0.0019549117
000170 72 52 1e 3d b3 0a 30 3d dd 57 6b 3c 91 e9 87 3c
       0.038652845 0.042978954 0.01436421 0.016590865
000180 2f 50 f2 3b a9 2c 94 3c 58 76 49 3c 68 ba f2 bb
       0.0073948125 0.018087702 0.012296282 -0.0074074753
000190 d7 f0 e3 3c 2b 9d 14 bc 85 94 a8 3b 6b cc 9b ba
       0.027824802 -0.009070675 0.005144658 -0.0011886483
0001a0 36 b3 0e 3d de b6 7e 3b 85 9c a5 3c e6 54 bf 3c
       0.034838878 0.0038866322 0.020216236 0.023355912
0001b0 93 d2 11 3d 88 43 46 bc 4f f9 16 3c a0 c9 8c 3a
       0.03560121 -0.012101062 0.009214713 0.0010741241
0001c0 4b 6e 83 bb 7d 6f 14 bc 33 ab c9 3b b7 8c 96 bb
       -0.0040109507 -0.009059784 0.0061544417 -0.0045944112
0001d0 c8 d3 c1 3c f8 86 0e bb 23 91 a6 ba d5 9f e8 3c
       0.023660555 -0.0021747928 -0.0012708049 0.028396526
0001e0 74 a9 23 3c 22 10 67 3c d3 58 28 bc 1c 83 cc bc
       0.009989131 0.014102967 -0.010275084 -0.024964862
0001f0 52 d8 9f bc 50 dd 92 bc dd ce 12 bc 0b 76 8d bc
       -0.01951233 -0.017927796 -0.008960453 -0.017268201
000200 f1 e5 3b 3c 74 8c 00 3c ef d7 77 3c fa bc eb 3b
       0.0114683965 0.007845987 0.015127166 0.0071941586
000210 7e e6 e5 3c 29 61 61 bc 1c 50 3a 3c 05 83 44 bb
       0.028064009 -0.013756075 0.011371639 -0.002998532
000220 1b 40 bd 3c ff 58 a3 bb a7 7e 54 3b 4b 88 43 3d
       0.023101857 -0.0049849744 0.0032424123 0.0477374
000230 31 63 4f bc 32 d7 2d bc 81 82 39 bc 27 04 06 bc
       -0.012657926 -0.010610389 -0.011322618 -0.008179701
000240 07 38 68 bc bc de 85 bc 33 e1 4a bc 1d 62 b5 3c
       -0.014173514 -0.01634156 -0.012382793 0.02214151
000250 64 b7 cd bb 1c 89 10 bc 24 bd 19 bc 9e 85 eb bb
       -0.0062779654 -0.008821752 -0.009383474 -0.0071875593
000260 6b c5 27 bc 6b 2d 89 3b 45 6a 3a bc 72 d2 af 3c
       -0.010239939 0.0041863224 -0.011377876 0.021462653
000270 6a 43 46 bb 11 ad 95 bb f9 c8 78 bc 5f bd 28 3b
       -0.0030252584 -0.0045677503 -0.015184634 0.002574764
000280 df 80 08 3a 21 d8 4a bc 22 c6 0b bc b4 fa 0a bd
       0.00052071916 -0.012380631 -0.008531125 -0.033930495
000290 8a d8 c0 ba cb e7 7f 3a 0b 81 6d 3b 99 0e a7 ba
       -0.0014712971 0.0009762018 0.0036240246 -0.0012745439
0002a0 3d 30 ef bc 61 54 0d 3b 5f 71 ad bc 8c 20 30 3c
       -0.029197806 0.0021565186 -0.021172224 0.010749947
0002b0 c0 a6 2b 3d 76 51 11 3c b9 7d ef 3b ef 75 93 3c
       0.041907072 0.008869519 0.0073086885 0.018000571
0002c0 6f 92 18 3b ce 80 f8 39 4a 5f 53 bc 9f ed 8d bb
       0.002328064 0.00047398213 -0.012901137 -0.004331305
0002d0 ba b4 50 3c 56 0a a5 bc 4e df 00 3a b9 03 13 bc
       0.012738401 -0.02014653 0.00049160875 -0.0089730555
0002e0 33 90 40 bc 01 67 16 bc 29 e4 a9 bc e5 8c 08 bd
       -0.01175313 -0.0091798315 -0.020738678 -0.033337492
0002f0 23 89 68 bc 12 00 dc 3c 57 41 8a 3c 70 99 15 bc
       -0.014192852 0.026855502 0.01687686 -0.009130821
000300 16 3b 1a bc 2a 6b 83 3c 98 1f a5 3c 3e 1a 82 bb
       -0.009413501 0.01604231 0.020156667 -0.0039704135
000310 a3 89 2f bc a5 ae e8 ba 62 1c fe bb 4a 42 1d bb
       -0.0107139675 -0.0017752243 -0.0077548483 -0.002399581
000320 f5 63 df bc 9d e2 82 bc e3 ae 91 bb 56 d6 10 bc
       -0.027269343 -0.015977198 -0.004445897 -0.008840164
000330 3d aa 5c 3c fc fe c0 3c bd 60 45 bc 8e eb a5 bc
       0.013468322 0.023559086 -0.01204699 -0.020253923
000340 cc bf 0f 3d e2 7b 8f 3b 61 7e fb 3b f5 64 70 ba
       0.03509502 0.0043787817 0.0076749776 -0.0009170317
000350 98 d7 9f 3b 2f 58 20 39 c7 6c 8b bc 6e d2 56 bc
       0.0048779957 0.0001529164 -0.017019643 -0.013111694
000360 30 b3 e5 bc 56 45 b8 3c 4b 3a d8 3c 18 d9 5f ba
       -0.028039545 0.022494 0.026394984 -0.00085391244
000370 ce b7 9f 3c 03 7b 64 3c 77 2f e4 bb 2c 2a 55 3c
       0.019496825 0.013945344 -0.006963666 0.013010543
000380 65 4f 96 bc 28 f4 c6 3c 73 2f 9b bc f5 57 dd 3c
       -0.018348405 0.024286345 -0.018943524 0.02701948
000390 5f 98 d5 3c a2 e7 7d 3c b0 ba df 3b be 17 c7 3a
       0.026073633 0.01549712 0.006827675 0.0015189571
0003a0 d8 92 9c bc 0c 09 82 3c d7 7a 91 3c fa ea 05 bc
       -0.01911299 0.015873455 0.01775877 -0.008173699
0003b0 35 5e 6e ba 5b b5 63 bc fc 27 76 3c 40 8c e0 3c
       -0.00090930174 -0.013898219 0.015024181 0.027410626
0003c0 30 f3 a0 3a 1b 8c d4 3c bc 62 9a 3c ec 3e 33 3c
       0.0012279507 0.025945714 0.018845908 0.010940295
0003d0 20 d0 68 b6 fd e7 5c 3c 82 ec 1d 3a 52 f2 b3 3b
       -3.4691839e-06 0.013483045 0.0006024317 0.0054915333
0003e0 35 e1 60 3b b8 f7 fb bb 70 f0 8d bc b5 f0 ad 3b
       0.0034313921 -0.0076894425 -0.017326564 0.0053082355
0003f0 00 4b f9 3b fa 13 92 3c 3b e6 ee 3c 94 80 aa 3b
       0.0076078176 0.017831791 0.029162517 0.005203316

encoder1.0.weight f4 [15, 1, 5, 1]
000000 5e d1 20 3e fb 8b 60 3e e8 e9 03 be 25 2b 8a be
       0.15704867 0.21928398 -0.12882197 -0.26986042
000010 26 7c 35 be 40 e1 2c 3d 91 a0 af 3d aa 25 8b 3e
       -0.1772314 0.042207003 0.085755475 0.27177173
000020 d0 0a 76 3e e2 6a 7c bd cc f0 32 3e 42 5f c7 bc
       0.24027562 -0.06162537 0.17474669 -0.024337415
000030 be d0 0c 3e 53 33 30 3e 6d 42 d5 bc 21 5c 66 bd
       0.13751504 0.17207079 -0.02603265 -0.056240205
000040 77 9f ac 3c 17 b0 67 3d f7 24 bd bd de 6b 4e be
       0.021072133 0.056564417 -0.09235566 -0.20158336
000050 b7 7e 8a 3c 7d 05 14 be 4c 2c 89 3e ec 69 86 3e
       0.016906125 -0.14455219 0.26791608 0.26252687
000060 65 66 a8 bc cc 9b cd 3e f7 52 f0 bb ac 6c 00 3e
       -0.020556638 0.40157926 -0.007334109 0.12541455
000070 da a4 c6 bc 4d 76 85 3c 37 dc 1e 3d 6a cf c4 3a
       -0.02424853 0.016291762 0.038784232 0.0015015427
000080 0b f8 eb bd 81 e1 a5 bc 60 57 21 3e e5 b8 28 3d
       -0.1152192 -0.02024913 0.15755987 0.041191954
000090 9b 8b 0e 3e e1 97 10 3e 41 90 12 3e 5c 58 2e 3e
       0.13920443 0.14120437 0.14312841 0.17025894
0000a0 3a 4a a1 3e 5d 92 ba be 7e 27 c5 bd 36 b2 56 be
       0.31501943 -0.3643979 -0.09626673 -0.2096642
0000b0 22 56 97 3e d0 96 b3 3e f9 87 80 bc 73 f7 9f 3e
       0.29557902 0.35075998 -0.015689837 0.31243476
0000c0 de 29 96 bd 4a 42 1e bc c5 a7 4f be bf 64 8d bd
       -0.07332204 -0.009659359 -0.20278843 -0.069039814
0000d0 b5 ca d2 3e e4 0e 37 3e 2e d8 57 be 81 0a e4 bd
       0.41170278 0.17876774 -0.2107856 -0.11134816
0000e0 22 25 a3 bd 29 48 5e 3e 45 cf b1 3c f4 9e c8 3b
       -0.07966067 0.21707214 0.02170528 0.0061224643
0000f0 1b 83 a7 bd dc e9 89 be 19 2e 0a 3e ed dd c6 3e
       -0.08179303 -0.26936233 0.13494147 0.3884119
000100 8b 4c 48 3c ec 8d bc bd 08 12 8c bd dc 74 0d 3e
       0.0122252805 -0.09206757 -0.06839377 0.1381411
000110 92 d8 9d be 30 ce 9d 3d 59 50 ca bd b9 bf 90 3e
       -0.30829293 0.07705343 -0.09878606 0.28271273
000120 19 01 15 be d6 c1 a1 3d 10 b9 f3 3c
       -0.145512 0.078982994 0.02975133

encoder1.0.bias f4 [15]
000000 45 05 c4 3d c7 d7 e4 bd 1b 3b 35 be 29 c8 e7 bd
       0.095713176 -0.11173969 -0.17698328 -0.113174744
000010 e5 64 89 3e e1 b8 21 3e 01 2c ef be 2b 0b 85 bb
       0.2683479 0.15793182 -0.4671326 -0.004060169
000020 02 d7 c7 be 40 75 a3 be 6c 04 cf be 72 7d 93 3e
       -0.39031225 -0.31925392 -0.4043306 0.28806645
000030 72 5a 77 3e df 6a d5 be 9f be a2 bd
       0.24155596 -0.416831 -0.07946514

decoder1.0.weight f4 [15, 1, 5, 1]
000000 df 81 fd bc 41 31 a2 be 8d 44 59 be 06 bc 92 3e
       -0.030945716 -0.31678203 -0.21217556 0.28659075
000010 dd 14 3d 3e c0 6e 4d 3e 0a 1c a7 3d 61 e0 a9 3e
       0.1846499 0.20061779 0.08159645 0.33179
000020 91 ff c0 3e 3c 21 99 3e 38 c0 9a 3d 6a 78 92 be
       0.37694982 0.29908168 0.07556194 -0.28607494
000030 11 27 b4 3e 83 e3 45 3e 2b c0 b4 3b e7 16 72 be
       0.35186055 0.1932507 0.0055160723 -0.23641549
000040 53 cd 7c bd f4 be 8d 3e 09 0c c6 3d 32 fd ed be
       -0.06171925 0.27684748 0.09670264 -0.46482235
000050 1b 9d 4f 3e c4 af 11 be db 5a 2f 3e ab ef 93 be
       0.20274775 -0.14227206 0.17124502 -0.2889379
000060 df 1f 4d 3e b3 c4 80 3e 55 f5 ea 3d 7c 38 3b 3e
       0.20031689 0.2515007 0.114725746 0.18283266
000070 47 e4 c9 be 72 3d d3 be 83 8d 27 3e 3c 63 5d bd
       -0.39431974 -0.41257817 0.16362576 -0.054049715
000080 c5 ac 20 bd 86 ac fb be 86 f1 a8 bd a7 b2 a9 3e
       -0.039227266 -0.49155062 -0.08249192 0.33144113
000090 cb 7c e7 be ad 83 b9 3e fc 95 60 be e1 64 d3 be
       -0.45212397 0.36233273 -0.21932214 -0.41287902
0000a0 88 df e2 3c 72 5e d7 bd 6b 08 73 bc 6c 50 31 be
       0.027694479 -0.10516061 -0.01483355 -0.17315835
0000b0 03 b6 e1 be 9a 92 02 3f e0 d6 65 3e 4a 6f fc 3d
       -0.44084176 0.51004946 0.2244525 0.12325914
0000c0 a0 03 90 3e b7 79 92 3e 06 88 f0 be 2f 41 86 3e
       0.28127766 0.28608486 -0.46978778 0.26221606
0000d0 b4 56 64 be 3f d0 0a bd e8 ea cf be 6b a9 31 3e
       -0.222987 -0.033890005 -0.40608907 0.17349784
0000e0 8d 2c 9f 3c c8 77 e4 3e b5 49 06 bf 4a 2a 61 3d
       0.019430423 0.44622636 -0.5245622 0.05497197
0000f0 6e d1 1b be 94 fc fc bd 50 ef b0 be 7f 23 85 be
       -0.1521661 -0.12352863 -0.3455758 -0.26003644
000100 22 c5 3c be fd 81 d7 be 65 73 64 3e 48 11 a7 3d
       -0.18434575 -0.4209136 0.22309645 0.08157593
000110 32 77 84 be f1 7a 2c 3e 00 35 03 bf 7c 49 3b be
       -0.2587219 0.16843773 -0.51252747 -0.18289751
000120 74 61 81 be a7 14 9c be 53 f4 ec be
       -0.25269663 -0.30484506 -0.46280155

encoder2.0.weight f4 [15, 1, 5, 1]
000000 14 52 7b be 80 4e 8c be f2 9f 04 3d 1e 7c ab be
       -0.24543029 -0.2740364 0.0323791 -0.3349313
000010 71 28 2d 3e 5e ae 8f 3e 34 b9 dd bd a0 66 8d 3d
       0.16909958 0.2806272 -0.1082634 0.0690434
000020 fe 42 6d 3d bc 4e 1e 3b f3 1e 68 bb 15 58 c9 3e
       0.057925217 0.0024155816 -0.0035418838 0.39325014
000030 9c 12 5f be 62 28 4e 3e 19 d4 bd 3e 7f 61 0f 3d
       -0.21784443 0.20132592 0.3707588 0.03500509
000040 4d 2b c3 3e a9 e0 90 be f6 d9 08 be 10 9c a9 bd
       0.38118973 -0.28296402 -0.13364395 -0.0828172
000050 7e 75 47 bd b4 d6 ac bd e8 76 3a bd 8c 9a f7 bd
       -0.048696034 -0.08439389 -0.045523554 -0.12090024
000060 e7 b0 85 3d c4 b5 35 3d f8 ee 44 be e4 b7 9c 3e
       0.06527882 0.0443628 -0.19231784 0.30609047
000070 9c 12 94 3e 42 d4 18 bd d7 c1 1c 3d f1 d3 86 be
       0.28920448 -0.0373118 0.038270798 -0.26333573
000080 ca a2 9e 3e b1 ab ec 3d f5 ce 56 bd 09 63 0d 3e
       0.30983573 0.11556185 -0.052443463 0.1380731
000090 55 de ce 3e 09 4a 93 3e 03 cd 25 3e 1f 85 1e 3e
       0.40404 0.28767422 0.16191487 0.15480469
0000a0 c2 5e 9b 3e e7 75 c6 3e b3 4a 83 3e 76 c8 a1 3e
       0.30345732 0.38761827 0.25642928 0.31598252
0000b0 ae 7c 62 be 5d bc 96 3d 43 7a 27 3e 7a 15 81 3d
       -0.22117874 0.07360146 0.16355233 0.063029245
0000c0 8a 17 03 be f9 22 7d bd 15 de 84 3d 61 87 ca bd
       -0.12801948 -0.06180093 0.06487671 -0.09889103
0000d0 fe cd a3 bc 23 34 af 3e bb d3 a3 be 5b 89 4e bd
       -0.019995686 0.34219465 -0.31997475 -0.05042396
0000e0 89 a6 04 be e5 4f a7 3e d3 f9 0c 3e 62 8f 2c 3e
       -0.12954153 0.32678142 0.13767175 0.16851571
0000f0 a5 fa 1e be 92 16 d5 bd ed 73 98 3e 4d d7 05 bd
       -0.15525301 -0.104046956 0.29775944 -0.03267603
000100 8c 6c 9e 3e 63 15 13 bd 6c eb 89 3e 2e a4 d4 bd
       0.3094219 -0.035909068 0.26937425 -0.10382877
000110 23 9c 6f 3d 16 a7 43 3d 98 53 af bd db c9 53 bd
       0.058498513 0.047766767 -0.08560866 -0.051706176
000120 7f db d9 bd e5 7e 61 be 4f 69 13 3d
       -0.10637569 -0.22021063 0.035989102

encoder2.0.bias f4 [15]
000000 f7 37 43 3e e3 00 fd bd 8c c4 fa bd 99 04 bf 3e
       0.19064318 -0.12353685 -0.122445196 0.37308195
000010 c8 01 1f bc be 1e b0 be 34 06 93 bd 2c 44 8a be
       -0.0097050145 -0.34398454 -0.071789175 -0.27005136
000020 a4 89 18 be de 90 81 bd ff 93 98 3e 86 a9 48 3d
       -0.14896256 -0.06326459 0.29800412 0.048989795
000030 32 66 a9 bd 09 bb 1f 3e 67 65 3c 3e
       -0.08271445 0.15598692 0.18398057

decoder2.0.weight f4 [15, 1, 5, 1]
000000 5b 06 7f be 09 bf 16 3e ff 23 b4 be 3c 10 a2 be
       -0.24904768 0.14721312 -0.35183713 -0.3165301
000010 23 33 43 3c ce 9d 0d 3f 49 9b 3f be 2c eb 29 3e
       0.011914047 0.55318916 -0.1871158 0.16593617
000020 3f d0 6f be 8d 15 29 bc a0 57 36 bd 80 1e fa 3e
       -0.23419283 -0.0103200795 -0.04451716 0.48851395
000030 e9 c1 ea bb ef d5 9f 3e a4 9f a6 3e 3c a8 57 3e
       -0.007164229 0.31217906 0.3254367 0.2106027
000040 d5 14 c3 3e 74 76 9f be 8f 51 fa be 54 8c 2b be
       0.3810183 -0.3114506 -0.4889035 -0.1675275
000050 a3 64 8e be 1c cb d3 be c8 68 d5 be bb 2a 3c be
       -0.27811155 -0.41365898 -0.41681504 -0.18375675
000060 6b 4b 40 3e 04 62 07 be df e7 9c 3e ac 64 53 3e
       0.1877877 -0.13220984 0.30645654 0.20643872
000070 21 74 1a 3e c3 e0 44 bd 42 0c 8d bd b9 bb 2a 3e
       0.15083362 -0.048065912 -0.068871036 0.16673173
000080 05 51 6d be 79 ae 81 3e 92 c6 8a 3e 24 0e 48 bc
       -0.23175438 0.25328425 0.27104622 -0.012210403
000090 f6 28 d4 3e fa 46 eb 3c 87 85 c4 3e e5 3e 54 be
       0.414375 0.028720368 0.38383123 -0.20727117
0000a0 2a 68 08 3f 97 b0 1b 3e 20 15 bf 3c da 13 7d 3e
       0.5328394 0.15204082 0.023325503 0.24714604
0000b0 35 46 4e 3e 23 c5 fa 3c 0a 29 9e 3d fc 82 75 be
       0.2014397 0.03061158 0.07722671 -0.23975748
0000c0 bc 44 05 bf 9b 75 2e bd 58 b9 8c be 2d 30 0c be
       -0.52058005 -0.042592626 -0.27485156 -0.13690253
0000d0 08 dd 2d be c0 be f9 3e 56 76 b2 be 66 f9 54 bd
       -0.16978848 0.48778343 -0.34855908 -0.051995657
0000e0 29 cc 72 be b4 fa 9a be 91 32 85 be 30 e2 f9 3e
       -0.23710693 -0.30269396 -0.26015142 0.4880538
0000f0 07 29 7b 3c 94 d2 c9 be 04 56 3b 3e 63 14 6a 3e
       0.015329606 -0.3941847 0.18294531 0.2285934
000100 16 cd 7b 3e 7d 2a 7a bd b5 ae 59 bd 58 7b 92 3d
       0.24589953 -0.061075676 -0.05314513 0.07152432
000110 15 1e bb 3e 81 6e c9 3d 36 83 5e 3e 26 98 c4 be
       0.36546388 0.0983553 0.2172974 -0.3839733
000120 91 4d b9 3e 9c 47 93 3e 49 e7 f2 3d
       0.3619199 0.2876557 0.118605204

encoder3.0.weight f4 [15, 1, 5, 1]
000000 9f ae ea bc cc 92 aa 3d 62 57 a2 be 46 25 e6 bd
       -0.028647719 0.083287805 -0.31707293 -0.11237578
000010 98 7e 6b be b8 55 23 3e 56 7f 0c 3d cb f2 5b be
       -0.2299751 0.15950668 0.034301125 -0.21479337
000020 01 9c fb 3d b7 35 80 bd ba 4f c9 be 13 e4 f8 3d
       0.12285615 -0.06260245 -0.3931864 0.12152877
000030 fc 6e ab bc 48 32 17 be 85 40 63 3e a9 83 b8 3b
       -0.020926945 -0.14765275 0.22192581 0.0056309295
000040 e5 8a 68 3e 43 a2 b1 be 83 ee 09 3d 7d 67 10 3e
       0.22709234 -0.34694108 0.033674728 0.14101978
000050 dd 2e 08 3d 6c af be 3e c7 0f 56 bd 64 02 91 3e
       0.033247817 0.3724321 -0.05226114 0.28322136
000060 66 ac 8f 3c e4 05 00 3e 2d 9e 33 3e 88 3e bf 39
       0.01753826 0.12502247 0.17540808 0.00036476948
000070 52 3d a2 be e8 ef 62 3e 83 d3 31 3d 00 15 9e bd
       -0.3168741 0.2216183 0.043414604 -0.07718849
000080 1f 14 95 bd 4b 19 7c 3d 6f 23 90 bd b6 16 27 be
       -0.072792284 0.06154756 -0.070380084 -0.16317257
000090 c2 e9 19 bd 51 54 9d be 94 5a c2 bd 40 13 a8 3d
       -0.037576444 -0.3072839 -0.09489933 0.08206797
0000a0 b0 71 b7 3e 7a 98 ab 3c c6 22 16 3e d4 b6 03 be
       0.35828924 0.02094673 0.14661703 -0.12862712
0000b0 0a 37 11 3d e4 40 52 3c fa 8e c5 3e 83 44 e5 3d
       0.03545288 0.012832854 0.38585645 0.11194708
0000c0 8f c3 e6 bd c1 6f 7b bd e8 e9 47 bc db 09 25 3d
       -0.112677686 -0.061385874 -0.012201764 0.040292602
0000d0 ae f3 94 be 2c ab e9 bc c1 43 3c 3d de a2 0f be
       -0.29092163 -0.028524004 0.045963053 -0.14026973
0000e0 46 6f 26 3d 2b e5 a0 be 0e cc ac bd 2e c4 55 3b
       0.040633462 -0.3142484 -0.08437358 0.0032618153
0000f0 7e 05 57 be 2c a3 c0 3d 70 28 71 3e 9e e6 9b be
       -0.20998189 0.094061226 0.23550582 -0.30449384
000100 62 5a 61 3e 55 48 ee 3d 69 5e 43 bd 96 52 3e 3d
       0.22007135 0.1163489 -0.04769746 0.04646548
000110 d4 f5 ad be 2f 44 1c bd 6e 53 26 3e 7a f7 ca bd
       -0.33976614 -0.038150962 0.16242763 -0.09910484
000120 37 a8 91 3e 0a a8 7e 3e 4e 03 d6 bc
       0.2844865 0.2486879 -0.026124623

decoder3.0.weight f4 [15, 1, 5, 1]
000000 25 14 86 be b2 41 02 be 45 d1 2a be a0 50 a1 be
       -0.26187244 -0.12720373 -0.16681392 -0.31506824
000010 94 cf 04 bf b4 d7 e9 3e 09 04 eb 3d c3 bc 67 3e
       -0.5187924 0.4567238 0.11475379 0.226306
000020 ac b4 fa 3e 26 c4 8a bc 49 29 01 bf 40 48 83 be
       0.48965967 -0.016939234 -0.5045362 -0.2564106
000030 cb 8c e1 3d cc ee 8b be dd 51 33 be 2c 6a 75 be
       0.11013182 -0.27330625 -0.17511697 -0.23966283
000040 4c a9 40 be 56 7c 75 3e ba a3 dd 3e 7e 6d e3 3e
       -0.18814582 0.23973212 0.43288976 0.44419473
000050 04 3b ec 3e 4e d4 92 3e 89 5c 8b be 48 d1 e1 3e
       0.46138775 0.286776 -0.27219036 0.4410498
000060 11 26 9f be 02 1e 98 be 19 e5 dc 3e 5d a3 d6 3d
       -0.3108373 -0.29710394 0.43143538 0.10480378
000070 c0 57 04 bd d2 02 51 bc 1b c3 fa 3d 8a 57 d3 be
       -0.032310247 -0.01275702 0.12244245 -0.41277725
000080 fd 56 b0 be 8c 79 8b be 65 12 a8 be 77 c4 2a be
       -0.34441367 -0.2724117 -0.32826534 -0.16676508
000090 57 2e 09 bf 41 7a cd be b6 6a 52 be a5 24 0b 3f
       -0.53586334 -0.40132335 -0.2054852 0.5435279
0000a0 c1 3b fe 3e b8 ea d3 3e 9c 54 a2 3e 91 07 c4 bd
       0.49654964 0.41390014 0.31705177 -0.09571756
0000b0 20 95 70 be 89 24 f4 3c fc e5 ee 3e b8 58 03 be
       -0.23494387 0.029802578 0.4665984 -0.12826812
0000c0 d5 5c 0e be bb 86 4b be d9 8a 60 be 39 82 4c 3e
       -0.139026 -0.19875614 -0.21927966 0.19971551
0000d0 19 08 01 bf 23 e6 07 bd 3a d1 dd 3e d0 c9 9c 3d
       -0.5040298 -0.03317846 0.4332369 0.0765568
0000e0 b5 f6 a3 bc ba ae 2d be f9 6d 2e 3e 2a 21 8c be
       -0.0200151 -0.16961184 0.17034139 -0.27369052
0000f0 d9 f3 d0 3d a5 6d 09 3e 92 30 d6 3e 5e aa b4 3e
       0.1020276 0.13420732 0.4183393 0.3528623
000100 63 37 0e 3f 33 c5 e9 3e d0 a7 60 be 22 71 c4 3e
       0.55553263 0.45658264 -0.21939015 0.38367563
000110 4c 39 03 bf 49 7a 48 bd 07 c8 92 3e a2 72 28 3e
       -0.51259303 -0.048944745 0.28668234 0.16449979
000120 7c 64 72 be c8 9b 9d 3e 21 da 03 3e
       -0.23671144 0.30782914 0.12876178
