train_models/LIHC/param2_10_param3_20_epoch_50.pth (torch, 543691 bytes, 9 tensors)

weight f4 [367, 367]
00000000: 17b7 d138 f19a 67bb 4ec1 353c 2cbe 2fbc
00000010: 86ce 0ebc c4e9 6f3c 60ba c73b 13d6 4a3c
00000020: 2b11 15bc e60f b2bb e4c4 cc3c 861d 573a
00000030: b60d 243c be60 2f3b e1ba 103b 7d4a 1d3b
00000040: d077 983c 1462 c9bb df1a ef3b f22b 08bc
00000050: b43b a33c bc78 5c3c ff81 3ebb 8e1e 68bb
00000060: d5eb 0f3c 1197 233c 5828 28bb d637 63bc
00000070: d478 63bc 29b0 a43c 1cd0 c63c 962a 763b
00000080: 1fe2 e03b e479 f33b 4fe4 8dbb caad 06bb
00000090: 8954 3d3c ed19 78bc a7b2 cfbb 3bff e9bb
000000a0: 77dd debb e9cd 893c e2b1 633c 3d6a 04bb
000000b0: 8bc0 59bc c09e c53a 80d8 a6b9 897c 323c
000000c0: 56dd 41bb 533a 343c 13ab 8bbb 2c07 363c
000000d0: 2606 4638 088c d0ba 959c 58bb bbca 843c
000000e0: 9403 093c f522 8e3c e91e 303c 6ec7 7aba
000000f0: c0d9 583c 4399 8c3c 27e5 043c 36c8 5339
00000100: 629b f53c c19c 9a3c eea3 d6bb 58a3 5d3b
00000110: d10d 08bc 0fd6 d2ba 33c7 07bc e38c 1d3c
00000120: b02c 353c 7216 88bc 2337 753b 9f86 b2bb
00000130: 67ac c53b 2dae 593b 7062 a6bb d3d1 79ba
00000140: da1f 4ebc 51ac 183c 9a04 40bc 702f af3a
00000150: 6ebe e4bb 568d b6ba f05d 283b 06bf 193c
00000160: 1458 e03b 4d85 5a3c c330 41ba 94e9 0fbc
00000170: 3bed 80bb a912 37bb d381 d6bb 6440 0b39
00000180: fea7 bcbb 8887 643b b923 993a 0650 07bc
00000190: 0ede 953c 589b 2dbc b425 7d3c 93bd c4ba
000001a0: e5ef 813c 6e04 9b3b fac7 4fbb 0b1c 6fbb
000001b0: 5e0f 13bc 1555 e1bb 4194 123c ba4b 01bc
000001c0: ea01 08bc 8533 673c 095a ad3c 841c 323c
000001d0: 180f aebb a4f0 af3a d5e1 3ebb 270d 0ebc
000001e0: 4800 9dbb d44d 843c 2fcc 09bc 3a7b 933b
000001f0: 172c 583c 6790 b9bb 92c5 18ba 35d9 c1bc
00000200: 5895 763a 98e7 193b 4539 b13b bd87 273c
00000210: 8b43 8cbc a17d 60bc 4f1c 033b 83cc 32bc
00000220: 4eb0 e33b 8d09 a03c 928a 8fbb 995f 71bb
00000230: 3b8e 3b3c be2e 69bc 21f2 95bc f41d 1bba
00000240: ef68 87bb 9d3f 1f3c 39dc 66bb d623 d739
00000250: f5c8 623b e18b 053c 4fab 5ebb 99a2 013c
00000260: ff53 d53c d6b1 d5bb 2e2f faba 0c88 de3a
00000270: dc54 a13b d777 d73c b0e8 0b3d dcda fb3b
00000280: bec5 d73b 9bb9 483b b824 12bc 0ef4 e139
00000290: d0ae c33a b33b 453b fd39 25bb 68b9 803c
000002a0: c1cf 623b ed99 21bc c86b 2dbc 5f96 bcba
000002b0: 02e2 b53c 57ad bc3c 2216 c639 b101 993c
000002c0: 9076 b33b 0ca0 2a3c 4846 663c 5586 a0ba
000002d0: 8055 d13a 44e2 153c 0d0f 823c 80b9 fb3a
000002e0: 80a2 21bb 3c86 f23a 2a71 2cbc e2f2 363c
000002f0: 5853 543c d0c4 4738 d28f d7bb af45 8e3c
00000300: 5ce7 bf3c 4fee 353c a459 263c 756f 083c
00000310: 7018 d23b 4c10 eb3b a0d5 a5bb 8ef7 aebb
00000320: 771f 29bc e8e0 17b8 ba6c 3b3b c6d5 3a3c
00000330: 208a 083a ab1b a1bb 3bab 133c ba9d bcba
00000340: feba 603c 91b2 1cbb 442a 973b 3960 d8bb
00000350: 232d 553c 32b1 803b 2701 14bc 2da9 f93b
00000360: 7e2c 693b f1be 023b f878 34bc 6726 853c
00000370: b3cc 393c dc4c 09bc 6613 cdb8 4f8e 893c
00000380: 95a3 883a c556 4a3b 06b6 d6bb 6c22 f7bb
00000390: 3873 17bc b699 0a3a 27ba 64bb ff3a 74bb
000003a0: 11bd 2bbc 9571 cabb 2091 b83c 5fe7 e7bb
000003b0: 83ce 903a b566 763c e9e4 e73b 49a9 43bc
000003c0: e8c0 b6bb ca29 08bc c6fd e8bb fdda a2ba
000003d0: 1d45 413b 950e 6cbb 6897 993b f7e3 9239
000003e0: 8d7c c53a 1be2 333d 9853 08bc 9b7c 013c
000003f0: 346e 363c a903 463c b76b 50bc 1580 2d3c
1e-04 -0.0035340155 0.011093451 -0.010726493 -0.008716231 0.014643136 0.0060952157 0.012380141
-0.009098331 -0.005434024 0.024996229 0.00082059985 0.010013035 0.0026760544 0.0022084045 0.0024000697
0.018611819 -0.006145725 0.0072969045 -0.008311259 0.01992593 0.01345652 -0.0029069183 -0.0035418603
0.008784254 0.0099847475 -0.0025658812 -0.013868293 -0.013883788 0.020103531 0.024269156 0.0037562004
0.0068628932 0.007430302 -0.004330195 -0.0020550364 0.011555799 -0.0151429 -0.0063384357 -0.0071410215
-0.006801303 0.016821818 0.013897391 -0.0020204925 -0.013290535 0.0015077218 -0.00031823292 0.010893949
-0.002958139 0.011000234 -0.004262337 0.011110108 4.7212605e-05 -0.0015910873 -0.0033052315 0.01620995
0.0083626695 0.017350653 0.010749557 -0.00095664605 0.013235509 0.017162925 0.008111275 0.00020197112
0.029981319 0.018873574 -0.0065503037 0.0033819284 -0.008304075 -0.0016085523 -0.008287239 0.00961611
0.011058018 -0.016612265 0.0037416897 -0.005448177 0.006032515 0.003321539 -0.0050776526 -0.00095298624
-0.012580836 0.009318427 -0.011719847 0.0013365578 -0.006980709 -0.001392762 0.0025690757 0.009383922
0.006846437 0.013337445 -0.0007369632 -0.008783717 -0.00393453 -0.0027934706 -0.006546238 0.0001328006
-0.005757331 0.0034870822 0.001168362 -0.008258825 0.01829436 -0.010596119 0.015450884 -0.0015010111
0.015861461 0.0047307527 -0.0031704889 -0.003648522 -0.008975832 -0.0068765976 0.008946479 -0.00789159
-0.008301238 0.014111404 0.021161096 0.0108710565 -0.005311858 0.0013423157 -0.0029126306 -0.008670128
-0.0047912933 0.016150393 -0.008410498 0.0045007737 0.013194106 -0.005662966 -0.000582778 -0.023663143
0.0009406409 0.0023483988 0.0054084384 0.010225234 -0.01712205 -0.013701827 0.0020005887 -0.010913017
0.0069485074 0.019535804 -0.0043805325 -0.0036830662 0.011447485 -0.014232336 -0.018303933 -0.0005917244
-0.004132382 0.009719756 -0.0035226478 0.00041034695 0.0034604643 0.0081510255 -0.003397662 0.007912301
0.026041029 -0.006521444 -0.0019087547 0.0016977801 0.004923446 0.026302261 0.034157455 0.007686002
0.006584852 0.0030628208 -0.008919887 0.0004309718 0.0014929418 0.0030095398 -0.0025211566 0.015713409
0.0034608694 -0.009863359 -0.010584779 -0.0014388076 0.022202495 0.023031874 0.00037781993 0.018677564
0.0054767802 0.010414135 0.014054842 -0.0012247065 0.0015970916 0.009148184 0.015876317 0.0019205064
-0.0024663508 0.001850314 -0.010525027 0.011166306 0.012959324 4.7628593e-05 -0.006578424 0.017367212
0.02342575 0.0111041805 0.010153208 0.008327355 0.0064116046 0.0071735736 -0.0050608665 -0.0053395694
-0.010322443 -3.6210666e-05 0.0028598742 0.011403507 0.00052085705 -0.0049166284 0.0090129925 -0.0014390268
0.013716457 -0.0023910145 0.0046131928 -0.0066032675 0.01301125 0.0039273733 -0.009033478 0.0076190443
0.0035579498 0.0019950236 -0.011015169 0.016253663 0.011340308 -0.008380141 -9.778775e-05 0.01679149
0.0010424728 0.0030874473 -0.0065524606 -0.007541945 -0.009243779 0.0005287187 -0.0034900995 -0.003726661
-0.010482089 -0.006178091 0.022530138 -0.007077142 0.0011047873 0.015039136 0.0070768488 -0.011942216
-0.0055771954 -0.008310745 -0.0071103303 -0.0012424883 0.0029490658 -0.0036019434 0.0046872385 0.00028017137
0.0015067026 0.043916803 -0.008320712 0.007903243 0.011134673 0.012085834 -0.012720994 0.010589619

encoder1.0.weight f4 [15, 1, 5, 1]
00000000: 8d9d f9bb 46f5 5fbd dd86 c1bd 69ff 343c
00000010: 754c cfbe 1d5c 133e 5278 ab3e 8a2e 913d
00000020: 6ee6 59be 4131 9ebe 8ab4 c13d 52bd c4be
00000030: 5bf9 1a3e 190d 88be 743a 74bd bb25 23be
00000040: aaf4 5abe 4956 4b3b a545 73be 3c32 a53e
00000050: afe7 fb3c 7edc f93d b09d 2c3e 9876 dc3e
00000060: 3955 693d 95a1 c6be bf9e 1cbe 774f 21be
00000070: d77d 753d 9669 36be 352a bcbd 130a d6be
00000080: 7ad6 b3bd 31d7 51be a73a 613c 7700 543d
00000090: dc40 47be cbd4 f5bc f385 9abd 0b50 543e
000000a0: 77da df3e 6af5 833d f56a 793e 703f 5ebe
000000b0: 825e 3c3e 15e6 efbb 51ed 0fbe 565e 8bbe
000000c0: ebf6 363e 463a a3be 21ac 763e a5b6 b83e
000000d0: 57db 013e c311 1d3e 1eb5 9dbc d357 aa3d
000000e0: ad25 acbd 16a7 24be 6938 743e 0d34 0a3e
000000f0: affd 12be 14cf a4bd aca3 b33e fc2d 50bd
00000100: 401d 313e f2e6 98be 9faf a63e ca74 0cbd
00000110: 30f1 c3be 1395 1b3c d17c 93be 0c40 a6be
00000120: 74e8 7e3e cbc0 dabe 2a34 43be
-0.0076176585 -0.05467727 -0.09449551 0.011047223 -0.4048802 0.14390607 0.33490235 0.07088955
-0.21279308 -0.30896953 0.09458263 -0.3842569 0.15134184 -0.26572493 -0.059626058 -0.15932362
-0.21382394 0.0031026772 -0.23757036 0.32264888 0.030750124 0.12200259 0.16857028 0.4305923
0.05696604 -0.38795152 -0.15294932 -0.1575297 0.059934463 -0.17813715 -0.09187738 -0.4180456
-0.087811425 -0.20492245 0.013746894 0.051758256 -0.19458336 -0.030008694 -0.0754508 0.20733659
0.43721363 0.064432934 0.24357207 -0.21703887 0.18395427 -0.007321129 -0.14055373 -0.2722041
0.17867629 -0.31880397 0.240891 0.36076847 0.12681328 0.15338807 -0.019251402 0.083175324
-0.084056236 -0.16079363 0.23849644 0.13496418 -0.14354585 -0.080473095 0.3508581 -0.050825104
0.17296314 -0.29863697 0.32555863 -0.034291066 -0.3826995 0.009495991 -0.28806165 -0.3247074
0.24893361 -0.42725214 -0.19062868

encoder1.0.bias f4 [15]
00000000: c0ac 7c3d 4a19 7c3e 5b36 d63e 1ded 933e
00000010: d267 a73c 6496 863e a865 92be cb66 9cbe
00000020: 8a93 91be 059c e93d 4e7b 4b3c 584a a3be
00000030: c2a1 d6bd 893c 583e 57fb 3d3e
0.061688185 0.24619022 0.41838345 0.2889184 0.020435248 0.26286614 -0.28593183 -0.30547175
-0.28432876 0.114067115 0.012419535 -0.31892657 -0.104800716 0.21116842 0.1855291

decoder1.0.weight f4 [15, 1, 5, 1]
00000000: 0f50 93be d1c9 59be d0de 913d 8af7 cc3e
00000010: fcdb 14be 7a0f 723e ecc9 d43e 0ac5 ac3e
00000020: aa6f b7be f251 16be b291 c43e cb63 22be
00000030: d25f 55bc 9c00 3a3e 1334 8dbe ce79 39be
00000040: ddcc 193c c899 ddbd fadc 1c3e 27ad e13e
00000050: 798c 793e 6326 7bbd 5dc1 743e 505f 543e
00000060: 6a41 d73e b92a dcbe a2f0 e23d b52c 87be
00000070: 92b6 163e fc05 153e 6152 e63d e719 85be
00000080: 7f61 b0bd cb99 c2be e2d5 f1bd 8e78 d43d
00000090: b5d6 94bc 7cba 673e a815 7f3b 2007 9abe
000000a0: 437d ff3e 1564 ca3c f468 84bd 933a 753e
000000b0: 801b 603e ef09 0a3d ef06 b73d 99e4 afbd
000000c0: ef44 a43d 14d2 d3be 72fa 613e ba0e c03e
000000d0: bdc3 8f3e d286 bf3e 7069 973e 979b a73e
000000e0: 32d5 1fbe e01b c0be e53d 5bbe 0cb7 ddbd
000000f0: ae4a eabe 8235 9cbe ce17 7c3e 4c5b 29be
00000100: c90c 84be 2d75 503e e5b7 593d 4ace d0be
00000110: 62d7 06be 3c71 193e 1de2 7fbe a127 24bd
00000120: 2865 c13e ef31 cdbe 807d b13a
-0.28772017 -0.21268393 0.07122576 0.40032607 -0.14537042 0.23638716 0.41560304 0.3374408
-0.3582738 -0.14679697 0.38392407 -0.1585838 -0.013023334 0.18164295 -0.27578792 -0.18112871
0.009387222 -0.10820347 0.15318671 0.44077417 0.24369992 -0.061315905 0.23901887 0.20739484
0.42042094 -0.43001345 0.11081053 -0.26401296 0.14718083 0.14553064 0.11246181 -0.25996324
-0.08612346 -0.3800796 -0.11808373 0.103745565 -0.018168787 0.22629732 0.003892282 -0.3008356
0.49900255 0.024705926 -0.06465331 0.23948126 0.2188549 0.03370088 0.08936869 -0.085885234
0.080209605 -0.41371214 0.22068194 0.37511235 0.28079024 0.37407547 0.2957263 0.32735893
-0.15608671 -0.37521267 -0.2141033 -0.10825929 -0.457601 -0.30509573 0.24618456 -0.16538733
-0.25791004 0.20357199 0.05315389 -0.40782386 -0.131681 0.14984602 -0.24988599 -0.040076856
0.3777249 -0.4007716 0.001354143

encoder2.0.weight f4 [15, 1, 5, 1]
00000000: 7dd2 933e 9a11 be3c 2825 823d 78b0 543e
00000010: 633b afbe 4867 293e b817 9bbe f895 08be
00000020: e344 40be d663 9bbe d776 e2bc a76a 6a3e
00000030: c4cd a1be 1dab cebe 321c cfbe fe84 5dbe
00000040: 13c0 08be 4ea7 2bbd 8e5e e93d 8ff1 97bc
00000050: 157e c4be 3e24 58bd fef6 bf3e 03be 1d3e
00000060: bcb1 67bd 12cd 093e 83e0 56be e830 a53e
00000070: 04c0 9bbe ca87 12be 268b 89be e81f 81be
00000080: c826 f53d 38ca ab3e 78a2 263e bbd0 dd3e
00000090: 2972 55bd 0949 a4be b475 73be 09aa b0be
000000a0: 6f36 883e ce14 21be efaf 233e 732b 76bc
000000b0: 6b9c e2bd d57b 38be 27cb 9ebe ba39 10bd
000000c0: 87ac 5c3e d2a3 18be 9df8 d3be cf07 053e
000000d0: 4100 1c3e 8ccd 9cbe 0536 033e 4e3c fb3d
000000e0: 4731 953d 5331 41be 4d86 eb3d cda9 043e
000000f0: 352c 453e 1f08 d33e 3378 39bd b023 c13e
00000100: 5c55 93be 7d14 323d c03c 013e 0ebf a23e
00000110: bf65 1d3e bf1b 71be 0940 9a3e 18cf d4be
00000120: ba3c 41bd 2f9e cb3d af7c 9abe
0.28871527 0.023201752 0.06354743 0.20770442 -0.34224996 0.16543305 -0.30291533 -0.13338459
-0.18776278 -0.30349606 -0.027644558 0.22892247 -0.316023 -0.40364924 -0.404512 -0.21632764
-0.1335452 -0.0419076 0.11394988 -0.018547801 -0.38377443 -0.05276894 0.37493128 0.15404515
-0.056565985 0.13457134 -0.20984082 0.32263875 -0.30419934 -0.14309612 -0.26863974 -0.25219655
0.119702876 0.33552718 0.16272914 0.4332331 -0.052110825 -0.3208697 -0.23775369 -0.34504727
0.2660403 -0.15730593 0.15985082 -0.015025008 -0.110649906 -0.18015988 -0.31014368 -0.035211302
0.21550189 -0.14906242 -0.41400614 0.1299126 0.15234472 -0.3062557 0.12813576 0.122673616
0.072847895 -0.18866472 0.11500225 0.12955399 0.19255145 0.41217133 -0.045280647 0.3772254
-0.28776062 0.04347657 0.1262083 0.31786388 0.15370844 -0.2354574 0.3012698 -0.4156425
-0.047177054 0.099422805 -0.3017325

encoder2.0.bias f4 [15]
00000000: 0099 d1be 237c 3a3e 0404 ca3e 38a1 a7bd
00000010: 678b 37be f3a3 a63d 4969 b73e 1bfe fcbc
00000020: b6ce bfbe e1fe d83e 0b3d e93e 1301 82be
00000030: 5c95 af3e 5a50 993d b9d1 903d
-0.40937042 0.18211417 0.3945619 -0.08185047 -0.17924272 0.081367396 0.35822514 -0.030882886
-0.37462395 0.42381957 0.45554385 -0.25391445 0.3429364 0.07486029 0.070712514

decoder2.0.weight f4 [15, 1, 5, 1]
00000000: f4ab bd3d 1e65 9ebe dfbf db3e 4393 84be
00000010: cc7c a8bc 4f52 843d d976 063e 2482 5abe
00000020: ea1a 36be c4a8 febe 95ac 0abe e812 8dbe
00000030: 6780 2abe 8707 74be 63af 2fbe 2428 983e
00000040: 3680 a23e f310 b73e da8a 55be bd79 bebb
00000050: 58aa 753e 5725 b4be ffe6 063f 20ec 89be
00000060: c05b 1ebe 1173 8ebe 867d a33e 722c 38be
00000070: a939 eebd 2cd1 62be c7d2 b3be 5a81 cd3d
00000080: 0d7b 253e 10ed d83e 2c81 0abe d03f 8f3e
00000090: 957f 943e 88b8 f93c 1bc4 ddbb 53ee 823d
000000a0: 1bd7 7f3e b377 343e 02d7 cb3d 4393 523d
000000b0: 35a3 133e 0ccf 0cbe dea3 00be 3991 eabd
000000c0: fada 7ebe 5ea7 bf3e bc0e aebd 8f4a 01bf
000000d0: 42c0 a13c 828a 873e 56f9 cf3e 4fdd bcbe
000000e0: 706c 9c3e c474 61be 09cd dc3b 2251 cd3e
000000f0: ba0d 3dbe 9d73 38bc 828c 7c3e b49f 883e
00000100: 2cb9 16be 231b 813e edda d0be d0c1 ca3e
00000110: 38fa de3e b6ca 12bd b331 dfbd ee79 e0bd
00000120: 1bdb 24be b06d ae3b 9bcf d23c
0.09261313 -0.3093652 0.42919824 -0.25893602 -0.02056732 0.064610116 0.13131274 -0.21338707
-0.17783704 -0.49738133 -0.13542397 -0.27553487 -0.16650544 -0.23830996 -0.17156748 0.29718125
0.31738442 0.3575512 -0.20853749 -0.005812852 0.23990762 -0.35184738 0.5269622 -0.26937962
-0.15464687 -0.27822164 0.31931704 -0.17985705 -0.116320916 -0.22150105 -0.35121748 0.100344375
0.16160221 0.42368364 -0.13525838 0.27978373 0.29003587 0.0304835 -0.0067677624 0.06393113
0.249844 0.17623787 0.09953119 0.05140997 0.14417727 -0.13750857 -0.1256251 -0.1145348
-0.2488822 0.3743238 -0.08498904 -0.5050439 0.019744996 0.2647286 0.40619916 -0.36887595
0.3055148 -0.22017199 0.0067383093 0.40100962 -0.18462268 -0.011258033 0.24662974 0.26684344
-0.14719075 0.25216016 -0.40792027 0.39600992 0.43550277 -0.03583785 -0.10898151 -0.10960756
-0.16099207 0.0053231344 0.02573376

encoder3.0.weight f4 [15, 1, 5, 1]
00000000: 6073 f53d ff0c 8d3e e8e3 cabe d15a 1fbe
00000010: 0db5 5a3e 7c8e 853c a5f3 15be 8a6c 98be
00000020: acc2 a43d 9979 edbd 61d9 70bd b57f 90bd
00000030: bb02 81bd b986 753e b54b c23d d004 e0bc
00000040: 36b8 20be 37da 0a3d 1005 bc3d 2d82 963e
00000050: f76d 5c3d f8aa e7bd 187b e5bd ee4f 94be
00000060: e12a d33e 3bbb 6a3e 2b68 e83d 1e7a f4bd
00000070: 87dd 1abd 333e 8fbe ee1a 823e 6f2d 863d
00000080: eec6 433c 3fb1 5dbe 368b 5b3e 2593 383e
00000090: 8360 b13e 4fb9 74be 34ea 57be eab1 ab3c
000000a0: 5941 173e 2590 aabe 6e98 8fbd 209a 85be
000000b0: 94d2 5f3e 5eff 893e 17a8 903e 9de0 2cbe
000000c0: 9989 233e 2438 92be 620e 28be e228 2abe
000000d0: 730b 8c3e a985 2dbc 851a d33e d3a4 debd
000000e0: d644 873e 93b4 8e3e b9ff c8bd 0a51 4f3e
000000f0: a8cc 67bc dbcb 6abd bdc0 963e 3a37 7cbe
00000100: 0e11 ab3b 5a9c 093e a4ae bfbe f861 483b
00000110: 0c9c 8d3e 0ba2 8bbd f96e 91be 9a62 193d
00000120: 6357 65bd 720d 41bd 88ba 363a
0.11984897 0.27548978 -0.39627004 -0.15561987 0.21358128 0.016303293 -0.14643724 -0.2977031
0.08044943 -0.115954585 -0.05880106 -0.07055608 -0.06299349 0.23977174 0.09487096 -0.027346045
-0.15695271 0.033899512 0.09180653 0.2939619 0.05381581 -0.113119066 -0.11205119 -0.28967232
0.41243652 0.22922985 0.113479935 -0.119373545 -0.03780892 -0.27977142 0.2541117 0.065516345
0.011949284 -0.21649645 0.21439824 0.18024881 0.34643945 -0.23898815 -0.21085435 0.02095886
0.14771022 -0.333131 -0.070114955 -0.2609415 0.21857673 0.26952642 0.28253242 -0.16882558
0.15970458 -0.28558457 -0.16411737 -0.16617158 0.27352485 -0.010590949 0.4123117 -0.108712815
0.26419705 0.27872142 -0.098144 0.20245758 -0.014147915 -0.057323318 0.29443923 -0.24630442
0.005220539 0.1343855 -0.37437928 0.0030575972 0.27658117 -0.068180166 -0.28404978 0.03744755
-0.05599154 -0.047131963 0.00069705443

decoder3.0.weight f4 [15, 1, 5, 1]
00000000: 3d2b 0f3d 2a55 fabd 1595 ecbe 39d9 85bc
00000010: 3608 533e 0add fcbd 4531 c03d 3326 a1be
00000020: 781a 87bd eb5b dfbd d50f 52be 16fe e3bd
00000030: 3444 de3d 7e68 b43e bf9f ae3e aebf 823d
00000040: e619 cf3e b5d2 44bd e850 713d 56ea 4fbe
00000050: d0ac b4be 555d 2c3c 4190 c23d 561a 8dbe
00000060: 7765 e93e 7d14 a0be 74b0 4bbe d369 953e
00000070: eaee 38be 806c 5dbd e602 71be c6eb 9a3d
00000080: 5488 943e 216b d23e 121a 1fbe 8154 18be
00000090: 7939 063f d4c6 9d3e 8866 793e f9da a9be
000000a0: c3d7 313e 119b b8be 3a43 5bbe 5df4 5dbe
000000b0: 40df 1ebb 3308 e1be 5b37 833e 7cc0 d7ba
000000c0: 2d92 6fbe d017 84be 3d8a 483e b33f 69be
000000d0: 2cf0 6e3e 7bb6 293e aada fb3e 4453 8abe
000000e0: bc7c 8b3e 527c eb3e 6149 c33e 9a5b 0bbe
000000f0: 3bfa 8f3e e8c7 a33d c5f4 2bbe 7ee7 a6be
00000100: 6809 2fbe e6d9 a7be a2e6 4fbe 051d 123d
00000110: ccf3 be3e cad8 9ebe 6620 403e 9ca2 023e
00000120: 007e bf3d 53c8 c7be 909f 38be
0.034953345 -0.12223275 -0.4620749 -0.016338931 0.20608601 -0.12346847 0.093843974 -0.31474456
-0.065968454 -0.10906204 -0.20513852 -0.111324474 0.108528525 0.3523597 0.34106252 0.06384216
0.40449446 -0.04805251 0.05891505 -0.20304236 -0.35288095 0.010520299 0.095001705 -0.27559155
0.45585224 -0.3126563 -0.1989153 0.291823 -0.18059888 -0.05405855 -0.23536262 0.075645015
0.2901026 0.41097358 -0.15537289 -0.14875986 0.52431446 0.30815756 0.24355519 -0.33174875
0.17367463 -0.36055806 -0.21412364 -0.21675248 -0.0024241954 -0.43951568 0.2562817 -0.0016460563
-0.23395605 -0.25799417 0.19583984 -0.22778206 0.23333806 0.16573517 0.49190265 -0.27016652
0.27243602 0.45993286 0.3814192 -0.13609162 0.28120598 0.079971135 -0.16792591 -0.3259849
-0.17093432 -0.3278343 -0.20302823 0.035672206 0.37295377 -0.31024772 0.18762359 0.12757343
0.093502045 -0.39020023 -0.18029618
