train_models/COAD/param2_10_param3_20_epoch_90.pth (torch, 198475 bytes, 9 tensors)

weight f4 [220, 220]
00000000: 17b7 d138 2b44 1bbb cc68 f4bb c55d 313c
00000010: f78e 483d 987a f5bb 8f40 a4bb db26 683d
00000020: 8db4 5f3c 6a5d 573d cbc1 5dbc a2e5 363d
00000030: c537 163c cba9 85bc e4c1 9f3a 7727 94bc
00000040: 27e6 8abc 9070 933c 6876 fe3c 933a 2abb
00000050: 346f ce3c 9907 2bbc 07d5 b13b ee5c 1abc
00000060: 88f0 4dbc 01aa c63b e9a3 9cbb 874f 603d
00000070: f2e6 773d 6604 243d c9d2 613d cb3c 183d
00000080: 7f00 563d e68c 6a3d 571b 4d3d 285a 473d
00000090: f9af 323d 7239 433c 74ba babb 78c4 0a3c
000000a0: 002d 85ba aa41 c6ba 882a 833b 513e e4ba
000000b0: de9c bd3b feaa 45bc 3a37 97bb 5baf 30bc
000000c0: a0ef a03c 0be7 aabc d4b5 c2bc 2687 95bc
000000d0: 226c e2bc 778f 003c 22dd ad3b 7e72 44bc
000000e0: 1ca1 ef3c 2fea 53bc 1ba5 833c a420 2cbc
000000f0: 896f 613d a1bf 4b3d 3a72 4b3d ec84 613d
00000100: 3fa2 673d 9b84 893d 8c07 393b db00 8d3c
00000110: 4287 9abc 8543 86bc 7115 cebc fd60 c0ba
00000120: b2ec 663c ae50 babb 5916 9d3c a725 ba3c
00000130: be6f d2bc cb62 663b b49a 8cbc 1fbe babb
00000140: adee 99bb 4503 14bc 6e32 ccbb af9b eabb
00000150: 2d01 bebb 723f a63a 0409 1ebb 5a7e 61bc
00000160: ca29 f0ba e12c 92bb af6b d03b 0f81 9dbb
00000170: 68a1 583c 05cc 433c c933 cf3c b734 943b
00000180: 8784 ae3b 8e7e 9abb c1f4 97bb 8419 653b
00000190: 6a46 acbc de6d acbc bb40 12bc c840 583c
000001a0: dd8e 693c 3682 9ebb bfbb a03c f3c8 8cbb
000001b0: f8fb 123d b482 a93c 2628 a33a 3f62 9dbc
000001c0: b652 8fbb 7e1f 7a3c 8d43 5e3b 38ad 843b
000001d0: 778a 243c a452 f4bb 2781 99bb 7268 8d3b
000001e0: 6c85 dfbb c327 833b 9a79 bdbc 4095 603b
000001f0: 60a8 86bc eed5 cdbb 1153 d6bc 54ac 90bc
00000200: 192b 14bc cd84 c8bb 6e79 d5bc 2699 203c
00000210: eb87 68bc b688 55bc 2912 3cbc 9e9c 3b3b
00000220: b1ab 9c3c e0da 34bc 637c 9ebc 613c 8b3c
00000230: 149a 273b 55a3 e83c fa8d 543b 2116 a33a
00000240: f434 1cbc d39a 28ba e04a a5bb d344 a8bc
00000250: 86fd 45bc f7a9 053c 0972 3cbb 1e7d 4e3b
00000260: 5fc1 b3bb 3354 023c 3292 a1bc fe67 63bc
00000270: b90e 3eba c8e0 c3bb 4641 803a dcd1 ccbb
00000280: b64c 53bc 6180 473b 2091 47bc 0af7 ff3a
00000290: 4e49 11bb d831 67bc 5cac e4ba 1ac4 953b
000002a0: 9d05 3839 403e 2039 d184 5f3b 8e66 88bc
000002b0: c30a 56bc ba97 6b3b 202d 8bbb 24d2 e8bb
000002c0: 5705 043c 8263 a83c dd32 0a3d f2bb f73a
000002d0: c912 843c ef98 ee3b d816 3cbc 4685 05bb
000002e0: 9575 683d 1d79 933c 2c0e 0abc c2ef 903b
000002f0: 770d 27bc d2d4 d33c 61eb 763a 7e40 5cbb
00000300: 6d41 fe3b 028d 7cbc 6294 11bc 882d 02bd
00000310: ace1 bc3a 57e2 04bc cea2 ea3a bf15 293d
00000320: 40eb fbba 413a d1bc 3cad 39bb 5978 f5bb
00000330: ea19 25bc 87eb 443d 24be d63a 67fd e13c
00000340: af02 833b 130f 3fbc d0f5 03bc 5512 853c
00000350: bc0f 1c3c 832d 80bc 6e0e 7cbc b0c4 08bc
00000360: 47c3 cd3b b293 1ebc 0617 023d 5cd0 a2bb
00000370: 18c8 f6bb 17b7 d138 ab55 70bb b1a6 ee3b
00000380: 32b0 073d 812a c13c dfd7 513c 129f d0bb
00000390: 28d1 473c 0b25 8b3c 9798 463c 66be 87bc
000003a0: 1598 81ba 9908 343d 1297 ca3a f586 843a
000003b0: eb87 ea3a 8386 e63b 916b d13c 395d 9138
000003c0: 3653 39bc b292 88bc 0fbd c03c 4f64 003d
000003d0: ff8b fd3b c4bc 143b 0d17 023c 4a67 333c
000003e0: 2d9a 6e3c 91a2 8abb d4e8 9e3a e48a 07bc
000003f0: 4afc 90b8 8ad7 91b8 f4a3 023c fb68 6c3b
1e-04 -0.0023691754 -0.007458782 0.010825579 0.048964467 -0.007491421 -0.005012579 0.05667768
0.0136538865 0.05257932 -0.013534973 0.04465259 0.00916857 -0.016316315 0.0012188521 -0.018085225
-0.016955448 0.01799801 0.03106232 -0.0025974854 0.02519951 -0.010438823 0.005427006 -0.00942157
-0.012569554 0.0060627465 -0.004780282 0.054763343 0.06052298 0.040043257 0.05513266 0.03716735
0.052246567 0.057263277 0.0500749 0.048669964 0.04362485 0.0119155515 -0.0056984965 0.008469693
-0.0010160506 -0.0015125771 0.004002873 -0.0017413591 0.0057865223 -0.0120646935 -0.004614738 -0.0107839955
0.019645512 -0.020862123 -0.023768343 -0.01825292 -0.027639452 0.007846705 0.005305902 -0.011990188
0.029251628 -0.012934252 0.01606994 -0.010505829 0.05503801 0.0497433 0.04966948 0.055058405
0.056551214 0.067147456 0.0028233258 0.017212322 -0.018863324 -0.016389618 -0.025156708 -0.0014677342
0.0140945185 -0.0056858873 0.019175695 0.022723032 -0.025688048 0.00351541 -0.017163612 -0.0056989337
-0.004697642 -0.009033983 -0.0062315976 -0.007159672 -0.00579848 0.0012683703 -0.002411426 -0.013763035
-0.0018323001 -0.0044609164 0.006360493 -0.0048066447 0.013222076 0.0119504975 0.025293248 0.0045228857
0.005325857 -0.0047147935 -0.0046373312 0.0034957835 -0.02102967 -0.021048483 -0.008926566 0.013199039
0.014255253 -0.0048372997 0.019620774 -0.004296416 0.035884827 0.020692207 0.0012447878 -0.019211886
-0.0043738736 0.015266297 0.0033914775 0.0040489696 0.010042778 -0.0074561406 -0.0046845856 0.0043154294
-0.006821325 0.0040025427 -0.023129273 0.0034268647 -0.01643771 -0.006281606 -0.026162656 -0.017660297
-0.009043478 -0.0061193467 -0.026058879 0.009802138 -0.014192562 -0.013033083 -0.011478939 0.0028627287
0.019124838 -0.011038512 -0.019346422 0.016996564 0.0025574015 0.028398195 0.0032433257 0.0012442508
-0.009534109 -0.0006431762 -0.005044326 -0.02054063 -0.0120843705 0.008158199 -0.0028754494 0.003150768
-0.005485698 0.007954645 -0.019723032 -0.013879774 -0.00072501187 -0.0059777237 0.0009785078 -0.006250603
-0.012896707 0.003044151 -0.012180597 0.001952858 -0.0022168937 -0.014111005 -0.0017446387 0.0045704963
0.00017549699 0.00015281979 0.0034106264 -0.016650464 -0.013064089 0.003594859 -0.0042473227 -0.007105129
0.008057914 0.020555262 0.033739913 0.0018900617 0.016122239 0.0072814147 -0.011480056 -0.0020373627
0.05675276 0.018002087 -0.00842623 0.0044231126 -0.010196081 0.025858317 0.00094192295 -0.0033607776
0.007759264 -0.015414478 -0.008885475 -0.031781703 0.0014410517 -0.008110604 0.0017901303 0.041280504
-0.001921989 -0.025540473 -0.0028332015 -0.007491153 -0.010076979 0.04807618 0.0016383571 0.027586652
0.0039981226 -0.011661309 -0.008054212 0.016244093 0.009525236 -0.015646702 -0.0153843 -0.008347675
0.0062793824 -0.009678768 0.031760238 -0.004968686 -0.0075311773 1e-04 -0.0036672156 0.0072830548
0.033127017 0.023579838 0.012807815 -0.006366619 0.012195863 0.016985437 0.012121341 -0.016570281
-0.0009887243 0.043953512 0.0015456399 0.0010111021 0.001789329 0.007035078 0.025563987 6.931503e-05
-0.011311343 -0.016671512 0.02352765 0.03134566 0.007737636 0.002269552 0.007940066 0.010949919
0.014563126 -0.004230805 0.0012123832 -0.00827286 -6.9134476e-05 -6.954286e-05 0.00797366 0.0036073315

encoder1.0.weight f4 [15, 1, 5, 1]
00000000: 7e7c fbbc 0197 82be 248c 88be 7cac c73d
00000010: 40c3 30be 12a8 19be 864f b63e 4314 d3bd
00000020: f9db 913e e5ca a83e 23d4 5abd ab33 fe3c
00000030: e5d1 c63e 7771 143e b17d 36be 2ddb 763e
00000040: f11d c1bd 73cc 943e 6987 283e 75eb 7e3e
00000050: 0dc6 5f3e 5903 8b3d 0807 a23e faa8 dc3c
00000060: 9861 a43e 8981 66be 342b 57be 275f a7bd
00000070: 719f 37be 3e83 ff3c 00b3 7a3e fec6 453e
00000080: 87a3 1f3d cf3a c3be 5090 0abe 16ea 0c3e
00000090: ea36 aabd 3e6a 83be 6d22 393e c263 de3d
000000a0: b141 39be cdcd ba3e 430b 8c3e fa32 90be
000000b0: e5a3 353e 48ca 363e 7465 8d3e 063d 52be
000000c0: f97f 47bd 9f4e bcbd 7185 98bd 57a8 5ebe
000000d0: 2000 a83e d185 59be 1a27 713d f0de 923c
000000e0: 6951 c53e f049 0d3e 25b1 823e 0990 ea3c
000000f0: 3d51 5fbe f856 a6bc b366 8f3e 19bb b33d
00000100: 358f b6be f473 0f3e f382 fb3d 2037 4ebd
00000110: 3d4b b8bd 57bb d0bd 54f0 483e da93 3dbe
00000120: efdb e4bc 3fc9 b1bd e75a c2bc
-0.030699011 -0.25505832 -0.2666942 0.09749696 -0.17261982 -0.1500552 0.35607547 -0.10306599
0.28488138 0.32967296 -0.053424966 0.031030497 0.38832012 0.14496408 -0.17821385 0.24107046
-0.09429539 0.29062232 0.16457905 0.24894507 0.21852894 0.06787748 0.3164599 0.026936043
0.32105708 -0.22510351 -0.21012574 -0.08172446 -0.17931916 0.03119051 0.24482346 0.19314191
0.03897431 -0.38130805 -0.13531613 0.13761172 -0.08311255 -0.25666994 0.18079539 0.10858871
-0.18091466 0.3648514 0.27352342 -0.28163892 0.17738302 0.17850602 0.27616465 -0.20531091
-0.04870603 -0.09194683 -0.07447327 -0.21743904 0.32812595 -0.21242453 0.05887518 0.01792857
0.38538674 0.13797736 0.25525776 0.028633134 -0.21808334 -0.020305142 0.2800804 0.087759204
-0.35656133 0.14009076 0.12280836 -0.05034554 -0.089987256 -0.10191982 0.19622928 -0.18513432
-0.027936904 -0.08680963 -0.023724986

encoder1.0.bias f4 [15]
00000000: 4c23 8bbe 748d e6be 6ef6 1a3d 2aea 8abd
00000010: 765c 69be d7aa 41be 4549 99bd cb88 e8be
00000020: b7fc a43e a6e7 3c3e cda4 03be 60e3 90be
00000030: d99f a93d fb10 82be cee3 d23d
-0.27175367 -0.45029795 0.03783267 -0.067829445 -0.22789177 -0.18912826 -0.07484678 -0.45416865
0.32224056 0.18447742 -0.12855835 -0.28298473 0.08282442 -0.2540358 0.102973565

decoder1.0.weight f4 [15, 1, 5, 1]
00000000: 33b3 f5bd 2a36 83be 789a 9abe 16b0 223e
00000010: 191b e7be 338c 92be f212 c33e 3c0e 8e3c
00000020: 6a33 1e3e 2ea1 9c3e 54c9 fabd a58f e73d
00000030: 493f b7bd 933f ca3e 1b37 d3be 1e6c 0e3f
00000040: c37e 8cbe e0f4 753d 2ac1 db3d 9782 ba3d
00000050: 6cfc 8d3c 5d23 ba3e 1944 833e 26c7 743e
00000060: 5a6c 89be 1ff0 7b3d dda4 8ebe bb31 883e
00000070: 9834 1dbe 3553 22be b6cd b0ba 2da3 8d3e
00000080: c6d8 c3be e839 43be 54d1 823e 955b 733e
00000090: a211 8e3e ed4d 363d 2f17 f93e bcb2 533d
000000a0: 1990 b13d ad25 b13e 3bdd 123e dce3 92be
000000b0: 5817 eb3d bdfc b13d 7d2c aa3e 8469 97be
000000c0: 8499 5e3c 75f2 b43e ffa7 62bd 1fa5 a9be
000000d0: dce8 613e 4f3c 1bbe 7217 a63d 053b f23e
000000e0: eea8 0b3e 94fc a63d 5daa 043f 9d0b c23d
000000f0: eb51 a5be c8bc 80bd bc24 333c 2f4e 8d3e
00000100: 7ca8 11bf b191 48be 1c61 c83a 0291 e73d
00000110: 2ff0 eabc e7f2 e7be 838e babc 304e b6be
00000120: 9739 443d 869d e4bc 77f9 bdbe
-0.1199707 -0.2562726 -0.30195975 0.15887484 -0.4513786 -0.2862259 0.38100392 0.017340772
0.154493 0.3059172 -0.122454315 0.11306695 -0.089476176 0.39501628 -0.4125298 0.55633724
-0.27440462 0.060047984 0.107302025 0.09106939 0.017332278 0.36355105 0.25637892 0.23904094
-0.26840478 0.061508294 -0.27860156 0.2660044 -0.15352094 -0.15852053 -0.0013489041 0.27663556
-0.38251323 -0.19065058 0.2555033 0.23765405 0.27747828 0.04450791 0.486505 0.051684126
0.086700626 0.34599057 0.14342205 -0.28689468 0.11479062 0.08690784 0.33237067 -0.2957269
0.013586406 0.3534123 -0.055335995 -0.3313379 0.22061485 -0.15159725 0.081099406 0.47310653
0.1363866 0.08153644 0.51822454 0.09474871 -0.3228906 -0.06286007 0.010934051 0.27598712
-0.5689771 -0.19586827 0.001528773 0.11306955 -0.028678982 -0.45302507 -0.022773033 -0.35606527
0.047906484 -0.027907144 -0.3710439

encoder2.0.weight f4 [15, 1, 5, 1]
00000000: bd1a 6abe 0303 833e ba84 9fbe 482a 833d
00000010: 9a7b 2b3d c343 27be 5657 be3e 1258 20be
00000020: c283 083e eedb 4a3e c638 41be 71fe 6d3d
00000030: 1ad6 253e 172e f9bd cc03 1fbe 44a5 553e
00000040: 462f 1abe f3c9 7d3e 69e6 943e a52b 10be
00000050: 7239 013e fc1a 8ebe 00b6 0939 c931 7fbd
00000060: b64c 413d 5552 d63e 6519 d63e 6237 853e
00000070: c921 243e b57b 45be 5b17 26be 7b7a 903e
00000080: 96df dc3e 59a4 be3b 1cff acbd c615 82be
00000090: 89b5 4dbe 632f a73e 7276 783e 3ada 88be
000000a0: 6ddc ad3d c8f3 7cbd 2f3e ae3e c74a 103e
000000b0: 5cde 85be 9999 a6be d58d 2fbe b6fb 9fbd
000000c0: 4f92 7d3e db21 9c3e 5024 e5bd c214 803e
000000d0: ac99 713e c2af 1f3e d89e c1be 5c02 a3bc
000000e0: c203 4fbd 5985 863e c3aa c3be a0bb c83d
000000f0: 38ae 1ebe 58ae 7a3e 8710 c33d 5ae2 8e3e
00000100: 6bb2 193e 32df 9ebe f701 723b 606d 073e
00000110: 9d4b 07bd 29fe f63c c2e1 693e 9455 263e
00000120: 57d6 863e 2749 763e 5f2e a13e
-0.22861762 0.25588235 -0.3115595 0.06404549 0.041865923 -0.16334443 0.37176007 -0.15658596
0.13331512 0.19810459 -0.18869314 0.058103982 0.16194955 -0.12166994 -0.15528792 0.20863825
-0.15057096 0.24784069 0.2908204 -0.14079149 0.1261957 -0.27754962 0.00013133138 -0.06230334
0.047192298 0.4185969 0.4181625 0.26018816 0.16028513 -0.19285472 -0.16219847 0.28218445
0.43139333 0.0058179316 -0.08447096 -0.25407237 -0.20088781 0.3265334 0.24263933 -0.26728994
0.084893085 -0.061755925 0.34031817 0.14091025 -0.2614621 -0.3253906 -0.17143948 -0.07811682
0.24762844 0.3049458 -0.11188567 0.25015837 0.23593777 0.1559439 -0.378165 -0.019898586
-0.050540693 0.2627361 -0.38216218 0.09801412 -0.15496147 0.2448057 0.09524637 0.27907068
0.15009467 -0.3102966 0.003692744 0.13225317 -0.033031095 0.03015049 0.22840026 0.16243583
0.26335403 0.24051343 0.3148069

encoder2.0.bias f4 [15]
00000000: 6dae df3d 2856 b33e f3d1 963e be2e db3d
00000010: f458 9fbe 6cf1 bbbe d5d0 4bbe 9b17 07bf
00000020: c3f7 aa3e 9f6a 0abe a9e7 eabe fcc0 3f3e
00000030: bae9 143e e391 8ebc 33ca 173c
0.10921941 0.3502667 0.29457054 0.10702275 -0.31122553 -0.36707628 -0.19903882 -0.52770394
0.33392152 -0.13517235 -0.45879868 0.18725961 0.14542285 -0.017403549 0.009264517

decoder2.0.weight f4 [15, 1, 5, 1]
00000000: 8751 803e 9177 99be 7a93 1bbe 8fe0 a1be
00000010: 96ab 84be 5a5f 04bf 2181 8d3e 96bb edbc
00000020: 399c c5bd 78ed e23e e9c2 313e f93a 973e
00000030: 6a1f 9dbe 82e9 b6be 3365 85be a06a a8be
00000040: ad9a 9d3e c440 6f3e 54df d13e 0239 323e
00000050: ccac 13be 94fa 503e 782f b2bc 1195 083e
00000060: d928 23bd 7c9e bdba e3ff c13d a249 fc3e
00000070: 5f12 ca3e 4237 f73e 1495 ad3e 1764 643e
00000080: 64d1 a83e 325b 4c3e 3ce4 cdbb 04d8 463d
00000090: 43c0 9c3e 06a9 713d a367 243e 9925 6fbe
000000a0: 43a4 8fbe 3333 4dbe 2fd4 5c3e 20d1 2ebe
000000b0: 5e6c 46be a071 3f3d 4edb e1be 9a51 563d
000000c0: f076 6c3e f156 d53c 1418 163d aa73 383b
000000d0: 337e c5bd ce57 203e 79f4 13be a5e0 e0be
000000e0: 6cf6 59be b464 093d c642 37bd 2224 a83e
000000f0: 3267 d2bb 878d ce3e 4d64 b63e 5d54 9e3c
00000100: 1e5f 67be 3574 adbd 6e98 7dbe f4d0 a33e
00000110: be83 463e b98b 2d3e 32b2 6c3d 0184 883d
00000120: 56a5 42be bbc3 df3e f8c8 2c3e
0.250622 -0.29974034 -0.15192977 -0.31616637 -0.2591216 -0.51707995 0.2763758 -0.029020112
-0.09648938 0.443218 0.17359509 0.2953718 -0.3068803 -0.35725027 -0.2605377 -0.32893848
0.3078207 0.2336455 0.40990698 0.17404559 -0.14421386 0.20408088 -0.02175115 0.13338114
-0.039833877 -0.0014466788 0.09472635 0.49274927 0.3946714 0.48284346 0.339028 0.22303806
0.32972252 0.19956663 -0.006283311 0.048545852 0.30615434 0.058999084 0.1605516 -0.23354186
-0.2805501 -0.20039062 0.21565317 -0.17071962 -0.19377276 0.04673922 -0.4411263 0.052323915
0.23092246 0.026042433 0.036644056 0.0028145113 -0.09643211 0.15658495 -0.14448728 -0.4392139
-0.21285409 0.033543304 -0.044741414 0.32840067 -0.0064209932 0.40342352 0.35623398 0.019327337
-0.22594878 -0.0846943 -0.24765179 0.31995356 0.19386193 0.16947831 0.057787128 0.06665803
-0.19008383 0.43704018 0.16873538

encoder3.0.weight f4 [15, 1, 5, 1]
00000000: c3d5 953e 7a05 8a3c 9846 cc3b e699 eebd
00000010: 2ede a03d 0639 123d e7a6 3e3d e68d afbe
00000020: e072 c8bd dc1b 293e e548 34bd 395a 953e
00000030: a263 993d ce90 9ebd 264f 8dbd b616 663c
00000040: 5ed2 5f3b db59 51be ee85 e6bd 5094 053e
00000050: b6b5 1ebd 31ca 8c3e 40dd 493e e685 4fbe
00000060: 8623 21be 749d a53d 6ec8 8e3e 8e99 d0bd
00000070: 04f8 fd3d 48fd babe 33a1 94be dc87 af3d
00000080: 86cc 74be e0cd 5c3e 16a8 873e 62da bfbe
00000090: 8b52 24be 3558 803e c433 58bc 55f7 44bd
000000a0: 3bdd 313e c283 16be 2903 5f3d 6fa0 953e
000000b0: 28be a53e d176 33be df75 87be 0b97 8bbe
000000c0: 7b85 acbe 2931 4e3e 6786 8bbd 73fe 9c3e
000000d0: 1c28 55be 5e4f 823e 3292 b83d dd4b 7d3d
000000e0: 3579 5f3e 567e ddbd 5eb9 c1bd 5f7e a03d
000000f0: 2466 16be a089 5cbe 7fb3 e93d fdab 833e
00000100: ca81 773e 5f1b 2fbc 1e3e 963e 30be f93d
00000110: b1b5 54be 60f2 843e cebf fcbd b878 a93d
00000120: 2a54 13be d2ad 363e bb6c 8d3e
0.2926465 0.016848315 0.0062340014 -0.116504475 0.078548774 0.035698913 0.04654589 -0.34287947
-0.09787536 0.16514534 -0.04401483 0.29170397 0.074897066 -0.07742463 -0.06899862 0.014043501
0.0034152488 -0.20444433 -0.11256014 0.13044858 -0.03874751 0.2749801 0.19713306 -0.20265922
-0.15736207 0.080866724 0.2788729 -0.10185538 0.12400821 -0.36521363 -0.29029235 0.08570835
-0.23906144 0.2156291 0.26495427 -0.374713 -0.16047113 0.25067297 -0.013195936 -0.048087437
0.17369549 -0.14698699 0.054446373 0.29223964 0.3237164 -0.17525794 -0.26457116 -0.27263674
-0.33695588 0.2013594 -0.068127446 0.3066288 -0.20816082 0.25451177 0.090122595 0.061839927
0.2182358 -0.10815112 -0.09459184 0.078366034 -0.14687401 -0.21536875 0.11411189 0.25717154
0.24170604 -0.010687678 0.29344267 0.121944785 -0.20772435 0.25966167 -0.12341271 0.082749784
-0.14387575 0.17839745 0.27622017

decoder3.0.weight f4 [15, 1, 5, 1]
00000000: e0b4 003f d384 e8bc d350 c73b ddaa 953e
00000010: 70fc 443e 46ba aabe 7238 b33e b465 c9bd
00000020: 942b cabe ef73 d33e 40ad 1fbe fc7c 103f
00000030: b11e ed3e d65f 42be 3875 48be 7119 c93e
00000040: b3c4 babe 470b 803e 6b92 25be e5ae f93e
00000050: bef0 643e b63e 073e 7668 a33e dc2c b8be
00000060: 3b1d 79be 50f8 053c d66b a1be d4ce 323e
00000070: c92a 143f 4b32 e1be 466d 513d 1363 8d3e
00000080: fd78 5d3d 1a90 63bd 5a5a 3e3d 0d7c cebe
00000090: b45d 603d 0e67 283e a43b 1abe d3c3 7e3e
000000a0: e378 98be 9836 963e 6800 ba3e d525 0b3f
000000b0: 43f6 4a3e 3522 08bd ca8e cabe de6a 88be
000000c0: 693e cbbd f929 bbbe 6ac0 a3bd 8a7b 833d
000000d0: c066 6bbe 07fe 053e 2415 e83e fe40 bc3e
000000e0: 1a17 c3bc a497 d5be b508 18be d761 053f
000000f0: f1a7 a83d 85e6 ccbe e4f9 a1be 45f5 ae3e
00000100: 36cf 43be 74c0 e13e 1e9c bc3e f807 c53e
00000110: 0a0a 793e 9599 19be 1a45 a1be 43f7 ba3e
00000120: fece f4bd 7804 01be 5c17 a63e
0.50275993 -0.028383648 0.006082633 0.2923192 0.19236922 -0.3334524 0.35004002 -0.098338515
-0.39486372 0.41299388 -0.15593433 0.5644071 0.46312478 -0.18981871 -0.19575965 0.39277223
-0.36478195 0.25008604 -0.16169135 0.48766246 0.22357461 0.13207516 0.31915635 -0.35971725
-0.24327557 0.008176878 -0.31527585 0.17461711 0.57877785 -0.43983683 0.051129602 0.2761465
0.05407046 -0.055557348 0.046472885 -0.40329018 0.054776862 0.16445562 -0.15061814 0.24879389
-0.2977973 0.29338527 0.36328435 0.543546 0.19820504 -0.033235747 -0.39562064 -0.26644033
-0.09924013 -0.3655546 -0.079956844 0.064200476 -0.22988415 0.13085185 0.4532863 0.36768335
-0.023814727 -0.41717255 -0.14847071 0.52102417 0.08235157 -0.40019622 -0.31635964 0.341715
-0.19122013 0.44092143 0.36837858 0.38482642 0.24320236 -0.14999993 -0.31498033 0.3651677
-0.11953543 -0.12599361 0.32439697
