train_models/SARC/param2_10_param3_20_epoch_40.pth (torch, 269131 bytes, 9 tensors)

weight f4 [257, 257]
0	0x38d1b717	1e-04
1	0x3c808463	0.015688127
2	0xbb03383e	-0.0020022537
3	0xb9e8517a	-0.00044311193
4	0x3c8a8aba	0.016911853
5	0xba91e203	-0.0011129979
6	0x3a819d5e	0.0009888818
7	0x3b8dc350	0.0043262616
8	0x3b80dd13	0.003932604
9	0xbb57aa96	-0.0032908074
10	0x3b3ef0e7	0.0029135288
11	0x3a370293	0.00069812796
12	0x3b43f85b	0.002990267
13	0x3b3f1d34	0.0029161694
14	0x3c1ba8ba	0.009500677
15	0xba66eebd	-0.00088093785
16	0x3ba8994d	0.005145228
17	0xbbc997af	-0.0061521153
18	0xbba985fc	-0.005173443
19	0x3a83a769	0.0010044399
20	0x3c7350fd	0.014850852
21	0x3b86fe8e	0.0041197008
22	0xbbf1df34	-0.007381344
23	0x3b264ddf	0.0025376005
24	0x3bbabf48	0.005699072
25	0x3cbee5b7	0.023302896
26	0xbbae8022	-0.005325333
27	0x3c1e4362	0.00965962
28	0x3c18a9fb	0.00931787
29	0x3c1d7090	0.0096093565
30	0x3c4393da	0.011937106
31	0xba3b4bf5	-0.00071448024
32	0xbb584851	-0.0033002088
33	0xbb626c8a	-0.0034549558
34	0xbc50939c	-0.012730505
35	0xbc37b6a9	-0.011212983
36	0x3b785165	0.0037890312
37	0x3c54793c	0.012968358
38	0x3c122d4e	0.008921934
39	0xbaea4c24	-0.0017875475
40	0x3c5c2831	0.013437317
41	0x3c497c10	0.012297645
42	0x3ca33ec8	0.019927397
43	0x3aa9066a	0.0012895588
44	0x3cb2fbdb	0.02184861
45	0x3c732871	0.014841185
46	0xbbe8f985	-0.007109823
47	0xba01352e	-0.0004928884
48	0xbb1ccaf0	-0.002392467
49	0xbc19d48c	-0.009389054
50	0x3c236e8a	0.009975085
51	0x3a67c6c0	0.0008841567
52	0xba049f84	-0.000505917
53	0xbaaaaa9c	-0.0013020816
54	0x3b34a750	0.0027565546
55	0xba9eafaa	-0.0012106795
56	0x3ac649f6	0.0015128243
57	0x3acdb9ba	0.001569561
58	0xb9963c4b	-0.0002865515
59	0xba1f0929	-0.00060667336
60	0x3ac418f7	0.0014961053
61	0x3bc17d31	0.0059048166
62	0x3aead8cb	0.0017917393
63	0xbb875237	-0.004129674
64	0xbb5cbc60	-0.0033681616
65	0xbbebf576	-0.007200892
66	0x3b2c4231	0.002628457
67	0xbbcf2d8e	-0.006322569
68	0x39e045b2	0.00042776536
69	0xb83e4070	-4.5359542e-05
70	0xba09c982	-0.0005256162
71	0x3c6b9bbd	0.014380393
72	0x3c3172e8	0.010830618
73	0x3bacd414	0.005274305
74	0x3c1b28e5	0.009470199
75	0x3cc6c7ef	0.024265258
76	0x3d0a9950	0.033837616
77	0x3cb5de85	0.022200832
78	0x3cf7c9fa	0.030247677
79	0x3cea9667	0.02863617
80	0xbb0d394f	-0.002154905
81	0x3cc9d2c8	0.024636641
82	0x3c049bbf	0.008093773
83	0x3bd9fe5a	0.0066526355
84	0x3b8af70d	0.0042408765
85	0xbbbb9c55	-0.0057254233
86	0x3b8b34f3	0.0042482554
87	0xba8dc393	-0.0010815732
88	0xbb1f1f4a	-0.0024280124
89	0xbc3b7481	-0.011441351
90	0x3ad2a671	0.0016071332
91	0x3bfb4cd2	0.00766907
92	0x3c401b46	0.0117252525
93	0x3c6075da	0.013699973
94	0x3c354d26	0.011065757
95	0x3c915f1e	0.01774555
96	0x3bc8e216	0.006130467
97	0xb98f2f64	-0.00027310394
98	0x3cde436c	0.027131759
99	0x3c7df300	0.01549983
100	0x3ca8d045	0.020607123
101	0x3c93a5b6	0.018023353
102	0x3c054271	0.008133517
103	0xbc1d46cb	-0.009599398
104	0x3c30f39a	0.010800267
105	0x3cd773c2	0.026300315
106	0x3c2cfd7a	0.01055848
107	0x3c296246	0.010338372
108	0x3be0e697	0.006863426
109	0x3d0b69e1	0.03403652
110	0xba6de80a	-0.0009075409
111	0x3c1a5033	0.009418535
112	0xba9b0f39	-0.0011830098
113	0xbc3dd3cb	-0.01158614
114	0x3bb24b72	0.0054411227
115	0x3bda7489	0.006666724
116	0xbad67222	-0.0016360919
117	0xbc4a9edb	-0.012366976
118	0x3cbe727a	0.023247946
119	0x3bf60af1	0.0075086285
120	0x3c3a3519	0.0113651985
121	0xba88b166	-0.0010428845
122	0x3c627dbc	0.013823923
123	0x3cd55fe8	0.026046708
124	0x3c87219d	0.01649552
125	0xbbfa239d	-0.00763364
126	0xbaf8ec6b	-0.0018991356
127	0xbaee32e1	-0.0018173122
128	0xbc33e3f6	-0.010979643
129	0x3ca788ff	0.020451067
130	0x3c4f6c30	0.012660071
131	0xbc1d0405	-0.009583478
132	0x3c68aec0	0.01420182
133	0x3c094abb	0.008379634
134	0x3bf90d22	0.0076004425
135	0x3bdbe4a4	0.0067106057
136	0x3a309925	0.00067366875
137	0x3b44e751	0.0030045102
138	0x3b46f3d9	0.0030357747
139	0xbba26b34	-0.0049566273
140	0x3b01b8bd	0.001979395
141	0x3bc0aea2	0.005880193
142	0x3bf6848d	0.0075231255
143	0x3bf9405d	0.0076065497
144	0x3c5fc188	0.013656981
145	0x3b667248	0.0035163332
146	0xbc37c0e8	-0.011215426
147	0xba8347b6	-0.0010015878
148	0xbbbfb872	-0.005850845
149	0xbb1d4d37	-0.0024002322
150	0xbc27dae2	-0.010245057
151	0xbb79008c	-0.003799471
152	0x3ba6f3cc	0.005094981
153	0xb9106cb3	-0.00013773404
154	0xbbd3072f	-0.0064400653
155	0x3c3f513e	0.0116770845
156	0xbb5284b6	-0.003212256
157	0x3cb0ce82	0.021582846
158	0xbc319485	-0.0108386325
159	0x3b0b9d03	0.0021303303
160	0x3af97051	0.0019030665
161	0xbbf79eeb	-0.0075567863
162	0xbc01c91c	-0.007921483
163	0x3b77ee09	0.003783109
164	0xbb413048	-0.002947824
165	0x3b31801a	0.002708441
166	0xbb266205	-0.0025388014
167	0xbc23151e	-0.009953765
168	0xbb40d4d3	-0.0029423728
169	0xbc39c84b	-0.0113392575
170	0x3afaca81	0.0019133837
171	0xbb66c5e3	-0.0035213165
172	0x3befa72a	0.0073136287
173	0xbb9ab11b	-0.0047208196
174	0xb9ab705e	-0.00032699382
175	0x3b42bdda	0.002971521
176	0x3cd1b2b2	0.025597904
177	0x3bbbccb3	0.005731189
178	0x3c67916e	0.014133794
179	0xba883905	-0.001039297
180	0xb80f8bba	-3.4223987e-05
181	0xbb9d8340	-0.004806906
182	0x3b01d436	0.0019810325
183	0x3cc02319	0.023454236
184	0x39913668	0.0002769709
185	0x3b9ebd1b	0.0048443205
186	0x3b8199d2	0.0039551044
187	0x3cde9393	0.027169978
188	0x3b234ae8	0.0024916474
189	0x3b12923a	0.002236499
190	0x3c4879b6	0.012236049
191	0x3c55fb5a	0.013060415
192	0xbc75300d	-0.0149650695
193	0xbb50786f	-0.0031810065
194	0x3aeca0c1	0.001805328
195	0xbac491c6	-0.0014997057
196	0xb86278c0	-5.3995056e-05
197	0x3c23247f	0.009957432
198	0x3aaa3764	0.0012986478
199	0xba25d624	-0.000632616
200	0xb9bdbc80	-0.00036189333
201	0x3ba96069	0.0051689637
202	0x3c22725d	0.009914962
203	0xbb93f67b	-0.0045154667
204	0x3c58503b	0.013202722
205	0xbc02b2a2	-0.00797716
206	0x3c638332	0.01388626
207	0xbb66bc99	-0.0035207628
208	0xbba3c501	-0.00499785
209	0xba33c56f	-0.0006857728
210	0x3c19e747	0.00939352
211	0xbba79a9a	-0.0051148655
212	0xb91102e8	-0.0001382936
213	0xba0c175e	-0.0005344058
214	0xb9a8e9c1	-0.00032217617
215	0xbc05b5d9	-0.008161032
216	0xbc3feaa0	-0.011713654
217	0xbbc3647b	-0.005962906
218	0x3cd820b2	0.026382778
219	0xbaaa0c9c	-0.0012973729
220	0x3be57d62	0.007003472
221	0x3c5d24cf	0.013497545
222	0xbbe7598f	-0.0070602368
223	0xbc20d3e5	-0.009816145
224	0x3c6207a4	0.013795767
225	0x3ba95ee3	0.005168782
226	0x3c1fa1dd	0.009743181
227	0xbc1c70e6	-0.009548401
228	0xbb147331	-0.0022651667
229	0xbaa6c3b0	-0.0012723114
230	0x3ca05b48	0.019574776
231	0xbbc5fee4	-0.006042348
232	0x3ba2fa40	0.00497368
233	0xbb8aca24	-0.004235523
234	0xbb0b625b	-0.0021268341
235	0x3a83f69e	0.0010068004
236	0xbb9eb696	-0.0048435433
237	0x3b61c0ce	0.0034447196
238	0x3a8a7d97	0.0010565993
239	0xb6928750	-4.3668915e-06
240	0x3a7b4940	0.0009585805
241	0x3b610bd7	0.0034339332
242	0xbba00589	-0.0048834723
243	0x3a08ce97	0.00052187726
244	0x3b62a256	0.0034581623
245	0xbb9419cb	-0.0045196763
246	0x3c3a1db2	0.011359619
247	0xbc8a8db4	-0.016913272
248	0x3b124ce0	0.0022323653
249	0x3c4fdea6	0.012687361
250	0x3bc9e393	0.006161162
251	0xbaf26663	-0.0018493648
252	0x3b3c0024	0.0028686607
253	0xba8edcab	-0.0010899504
254	0x3c86c750	0.016452461
255	0x3a75e85b	0.0009380632

encoder1.0.weight f4 [15, 1, 5, 1]
0	0x3eca9100	0.3956375
1	0xbe0fd852	-0.14047363
2	0x3ecb27be	0.39678758
3	0x3e92c742	0.28667647
4	0xbe1c3d7a	-0.15257826
5	0x3dabd889	0.0839091
6	0xbe6b42a4	-0.2297464
7	0x3ecd16bf	0.40056416
8	0xbcfd510e	-0.030922439
9	0x3e5323ff	0.206192
10	0x3dca5024	0.09878567
11	0xbe971db7	-0.29514858
12	0x3c36aa15	0.011148949
13	0xbe3cbfbc	-0.18432516
14	0x3e38a3b4	0.18031198
15	0x3d1d0f63	0.038344752
16	0x3d9fdde3	0.078059934
17	0xbe273225	-0.16327722
18	0xbeb6dff7	-0.35717747
19	0xbea84b14	-0.3286978
20	0x3ea12eba	0.31480962
21	0xbcf2794b	-0.029598853
22	0xbd8f5281	-0.06998158
23	0x3cea5c96	0.028608602
24	0x3eb722e4	0.35768807
25	0x3e8a6928	0.27033353
26	0xbdcad2b1	-0.099034674
27	0xbcd12f43	-0.025535231
28	0xbe085fa2	-0.13317731
29	0x3ec06ad9	0.37581518
30	0x3c23ec2a	0.010005036
31	0x3dc98201	0.098392494
32	0xbc66d751	-0.014089421
33	0xbc3ac77d	-0.011400101
34	0xbcf5dee2	-0.030013505
35	0x3e86c7a4	0.2632419
36	0xbea87ea7	-0.32909128
37	0x3e1c1f58	0.15246332
38	0xbe8187fa	-0.25299054
39	0xbe81e05d	-0.25366488
40	0xbd028a17	-0.031869974
41	0x3e877275	0.2645451
42	0xbc955206	-0.018227588
43	0x3eccffd0	0.4003892
44	0xbd2c8f19	-0.042128656
45	0xbc3803b3	-0.011231351
46	0xbce3e3da	-0.027818609
47	0x3e9a9f7f	0.3019981
48	0x3e30f43c	0.17280668
49	0xbdb9f12f	-0.09079205
50	0xbe3853be	-0.18000695
51	0xbeb71cd1	-0.35764173
52	0x3e8e08bb	0.27741036
53	0x3e87a5ca	0.26493675
54	0x3dd0a10e	0.10186969
55	0xbeac57bc	-0.33660686
56	0xbc8f4f6d	-0.017493928
57	0x3e85d46f	0.26138636
58	0x3dada9f2	0.0847968
59	0x3e444b3d	0.19169326
60	0x3dbb5243	0.091465496
61	0x3d240385	0.04004242
62	0xbe2503be	-0.16114709
63	0x3e81f73d	0.2538394
64	0xbea9cbaa	-0.33163196
65	0xbb2c3d37	-0.0026281604
66	0xbe6c0014	-0.23046905
67	0xbe60e29c	-0.21961445
68	0x3e787efc	0.2426719
69	0xbe1b7e7d	-0.1518497
70	0x3eb1fe78	0.34764457
71	0x3e7d7fe0	0.24755812
72	0xbd19893c	-0.037484393
73	0xbed38fe5	-0.4132072
74	0x3e45db88	0.19322026

encoder1.0.bias f4 [15]
0	0xbd8f5a8c	-0.06999692
1	0x3e84f878	0.25970817
2	0xbdeee30f	-0.11664402
3	0xbedf5e54	-0.43626654
4	0xbd80366a	-0.06260379
5	0x3e9997f4	0.29998744
6	0xbee91322	-0.4552241
7	0xbd80ac51	-0.06282867
8	0x3ee670a6	0.4500782
9	0xbe6761d8	-0.22595918
10	0xbe9a50ad	-0.30139676
11	0x3e37d267	0.17951356
12	0xbed26b68	-0.4109757
13	0x3c3488a1	0.011018903
14	0x3e9e14e8	0.30875325

decoder1.0.weight f4 [15, 1, 5, 1]
0	0x3e616b12	0.220135
1	0x3dcdf73b	0.10056921
2	0x3e10d028	0.14141905
3	0x3e023ad7	0.12717758
4	0xbe49c127	-0.19702588
5	0x3e5aa8f4	0.21353513
6	0xbd9d42c6	-0.07678752
7	0x3d83ce01	0.064357765
8	0x3d5fdd62	0.054654486
9	0xbe4451e6	-0.19171867
10	0x3dbc7dd0	0.09203684
11	0xbec71ec7	-0.3889067
12	0xbd31802d	-0.04333513
13	0x3e602c11	0.2189181
14	0x3e1604e1	0.14650299
15	0xbefe00bd	-0.49609938
16	0x3def04c4	0.11670831
17	0xbe975f8e	-0.2956509
18	0x3e25c2b0	0.16187549
19	0x3e505009	0.20343031
20	0xbe94653d	-0.2898349
21	0xbe80788f	-0.2509198
22	0xbd3f1af0	-0.04665655
23	0x3ed44c3a	0.41464406
24	0xbe9b9290	-0.30385256
25	0xbe69b453	-0.22822694
26	0xbd8a5499	-0.06754417
27	0x3e2d91fc	0.1695022
28	0x3df2da81	0.118580826
29	0x3e2b450c	0.16725558
30	0x3eb074d0	0.3446412
31	0xbe53225d	-0.20618577
32	0x3e5192d5	0.20466168
33	0xbd84a457	-0.06476658
34	0xbe24be50	-0.16088223
35	0x3e6a5e10	0.22887444
36	0x3d576853	0.052589726
37	0xbe278812	-0.163605
38	0xbed840dd	-0.42236987
39	0x3e84bfef	0.25927684
40	0xbe94b0d1	-0.2904115
41	0xbe840309	-0.25783566
42	0xbcddf242	-0.027093057
43	0x3e811d0f	0.25217482
44	0x3db929e6	0.090411946
45	0xbddc7232	-0.107639685
46	0xbed205ed	-0.41020146
47	0x3ef7a579	0.48368433
48	0x3e923ed3	0.28563556
49	0xbe84bcf4	-0.2592541
50	0xbecfff83	-0.40624627
51	0xbe3dde97	-0.18541943
52	0xbe7378e9	-0.23776592
53	0x3d7120fb	0.058869343
54	0xbecd8033	-0.4013687
55	0xbdff159f	-0.12455296
56	0xbebc385c	-0.3676175
57	0xbd601d09	-0.05471519
58	0x3e460cf0	0.19340873
59	0x3ce14604	0.027499206
60	0x3ee70aca	0.4512542
61	0x3ea99d74	0.3312794
62	0xbea36f8c	-0.3192104
63	0x3e9c5b15	0.3053824
64	0xbecfd830	-0.40594625
65	0x3e250a09	0.1611711
66	0xbe8f75da	-0.280196
67	0x3e1b6d92	0.15178517
68	0xbe0c37c5	-0.1369315
69	0xbef33bc7	-0.47506544
70	0xbea5a9fc	-0.3235625
71	0x3dc7d847	0.097580485
72	0x3e504935	0.20340426
73	0xbee3df52	-0.44506317
74	0xbebe7a9d	-0.37202922

encoder2.0.weight f4 [15, 1, 5, 1]
0	0xbdb96575	-0.090525545
1	0xbe4b62e3	-0.19861941
2	0xbd5b2ed3	-0.053511452
3	0xbdf728e2	-0.12068345
4	0xbc51911b	-0.0127909435
5	0xbe6682a8	-0.22510779
6	0x3e7db3d7	0.24775635
7	0x3e5e2166	0.21692428
8	0xbc4df336	-0.012570193
9	0xbe0de360	-0.13856268
10	0x3e97e4c1	0.29666713
11	0xbdb590c0	-0.088654995
12	0xbce4116e	-0.027840342
13	0x3d1acddf	0.03779399
14	0xbe5bc556	-0.21461996
15	0xbd390667	-0.04517212
16	0xbdc2e7d0	-0.09516871
17	0xbc69ff12	-0.014282005
18	0x3e0a7895	0.13522561
19	0x3eb6f67e	0.35734934
20	0x3ea5400d	0.3227543
21	0xbea73d39	-0.32663897
22	0x3e86ddeb	0.26341185
23	0x3d5aba26	0.05340018
24	0xbe758ecf	-0.23980258
25	0x3d1d3ab3	0.038386058
26	0xbe96a93a	-0.29425985
27	0xbd322f0f	-0.04350191
28	0x3d0122fa	0.031527497
29	0xbe8b31e7	-0.2718651
30	0xbe97e16c	-0.2966417
31	0x3d2ca123	0.04214586
32	0x3eabbb47	0.3354132
33	0x3cdce96c	0.026966773
34	0xbda8305f	-0.08212351
35	0x3d423694	0.04741533
36	0xbd12a32a	-0.035800137
37	0x3ed90973	0.42390022
38	0x3e61f764	0.22067028
39	0xbe91eabf	-0.2849941
40	0xbe83fb4e	-0.25777668
41	0x3e2604d4	0.1621278
42	0x3be7ba8c	0.0070717987
43	0x3e6db487	0.23213397
44	0x3ea48662	0.32133776
45	0xbca6a6ed	-0.020343268
46	0x3ece312c	0.4027189
47	0xbc90f2b7	-0.01769386
48	0xbea791f7	-0.3272855
49	0x3e3d2ac5	0.18473347
50	0xbd14e719	-0.036353204
51	0x3e91918c	0.28431356
52	0xbe8e5742	-0.27800947
53	0xbce05c1a	-0.027387667
54	0x3e861efd	0.26195517
55	0xbe4cc2bb	-0.19996159
56	0x3e3332bb	0.17499821
57	0x3e1ebc6b	0.15501563
58	0xbe5f2915	-0.21793015
59	0x3e20539a	0.15656891
60	0x3c35ec43	0.011103692
61	0xbe922243	-0.28541765
62	0x3ebf7d4b	0.37400278
63	0x3e8bda70	0.27315092
64	0x3e0d1028	0.13775694
65	0xbe1ef392	-0.15522602
66	0xbe1dccb5	-0.15410121
67	0x3ec5de43	0.38646135
68	0xbd7e6f59	-0.06211791
69	0xbe43781a	-0.19088784
70	0x3dad294a	0.08455141
71	0xbec738dc	-0.38910568
72	0x3ec3bad0	0.38228464
73	0x3dff776b	0.12473949
74	0xbe14cf83	-0.14532284

encoder2.0.bias f4 [15]
0	0xbeaa497e	-0.33259195
1	0x3e8a18b3	0.2697197
2	0xbe920dd2	-0.2852617
3	0x3e8aa141	0.27076152
4	0x3e957e3b	0.2919787
5	0xbdc83132	-0.09775008
6	0xbec66527	-0.38749048
7	0xbeb03719	-0.34417036
8	0x3eabd56f	0.33561274
9	0xbe898fce	-0.26867527
10	0x3d88022b	0.066410385
11	0x3dd6acd7	0.10482185
12	0xbf0097eb	-0.5023181
13	0x3c676aa9	0.014124551
14	0x3e8949ad	0.26814023

decoder2.0.weight f4 [15, 1, 5, 1]
0	0xbebbee3a	-0.3670519
1	0x3e665e1e	0.2249684
2	0xbe8fb278	-0.28065848
3	0xbe916cc7	-0.28403303
4	0x3e16f988	0.14743626
5	0xbeb57871	-0.35443452
6	0x3e51a26d	0.20472117
7	0x3d5411d8	0.05177483
8	0x3eba96d4	0.36443198
9	0xbecc6868	-0.39923406
10	0x3eacd1f2	0.33753926
11	0x3d8dda39	0.06926388
12	0xbe7f175e	-0.24911258
13	0x3ec79b23	0.38985547
14	0xbe59df44	-0.21276575
15	0x3ee3aa1e	0.44465727
16	0xbbc9b6ed	-0.0061558397
17	0xbe83e406	-0.25759906
18	0x3e6e2300	0.23255539
19	0x3ee68338	0.45021987
20	0x3eea1551	0.45719388
21	0xbec0a9ec	-0.3762964
22	0xbeaafc64	-0.33395684
23	0xbe9d6910	-0.3074422
24	0xbdbadc0f	-0.09124004
25	0x3dc7416e	0.097292766
26	0xbe0ae07a	-0.13562194
27	0xbe7d5981	-0.24741174
28	0xbe5d8cb9	-0.21635713
29	0xbeabd66e	-0.33562034
30	0xbe7a800e	-0.24462911
31	0x3e4b795f	0.19870518
32	0x3eb6799e	0.35639662
33	0x3ec56660	0.38554668
34	0x3e647229	0.22309174
35	0xbe08b9e5	-0.13352163
36	0xbd26e9c1	-0.04075027
37	0x3e07804b	0.13232534
38	0xbe3f0d0d	-0.18657322
39	0x3eb8cfa6	0.36095923
40	0xbe9efc11	-0.31051686
41	0x3ebc4dad	0.36778012
42	0x3e417e7a	0.18895903
43	0xbe596543	-0.21230035
44	0x3eef4383	0.46731195
45	0x3dbf390f	0.09337055
46	0x3df3e556	0.11908977
47	0x3eb1e813	0.3474737
48	0xbe8d9e56	-0.27659863
49	0xbdcff068	-0.10153276
50	0x3e033984	0.12814909
51	0x3e851ecd	0.26000062
52	0xbe9727d6	-0.2952258
53	0x3dbd8b73	0.092551135
54	0xbe9361da	-0.28785592
55	0x3ec2833f	0.37990758
56	0x3ea2e30e	0.31813854
57	0x3da11311	0.07864965
58	0xbe168ce1	-0.14702179
59	0x3ed82896	0.42218465
60	0x3eaeabfb	0.34115586
61	0x3de7b31b	0.113134585
62	0x3e650f7a	0.22369185
63	0xbe972282	-0.29518515
64	0xbe84b0f4	-0.25916255
65	0xbebe7cd1	-0.37204602
66	0xbf0050e0	-0.50123405
67	0x3ef183ad	0.47170773
68	0xbdbd6b83	-0.09249022
69	0xbef05d30	-0.46946096
70	0xbe05f4af	-0.1308162
71	0xbd8509bf	-0.064959995
72	0x3efd477a	0.49468595
73	0xbee6af2c	-0.4505552
74	0x3e4a8332	0.1977661

encoder3.0.weight f4 [15, 1, 5, 1]
0	0x3daf0d7c	0.08547494
1	0xbd8ab06d	-0.06771932
2	0x3be7f68c	0.007078951
3	0xbde6a8ef	-0.1126269
4	0x3ec7e11d	0.39038935
5	0x3d8b0f2e	0.06790005
6	0x3e57ac31	0.2106178
7	0x3e901f4d	0.2814888
8	0x3e34a520	0.17641115
9	0x3eb06ed8	0.34459567
10	0x3e6f67bd	0.23379417
11	0xbd8e06dd	-0.06934903
12	0x3d98848c	0.07447156
13	0xbeb906ac	-0.36137903
14	0xbeb56da9	-0.35435227
15	0x3d00170d	0.031271983
16	0x3ea52b75	0.32259718
17	0xbe1c02da	-0.15235463
18	0xbe0b03f6	-0.1357573
19	0x3e89480d	0.26812783
20	0xbea3bb2c	-0.31978738
21	0x3e30a25c	0.17249435
22	0xbdec7cc1	-0.115472324
23	0xbe264e86	-0.16240892
24	0xbc38a6eb	-0.011270265
25	0x3de92205	0.11383442
26	0xbe24aaa6	-0.16080722
27	0x3ba4d6a1	0.0050304686
28	0x3e493656	0.19649634
29	0xbe53a623	-0.20668845
30	0xbe78869b	-0.24270098
31	0xbcb63ff5	-0.022247294
32	0x3d5d0ae7	0.053965475
33	0x3b676781	0.0035309496
34	0x3cef2e77	0.02919696
35	0xbc99a13e	-0.018753644
36	0x3e024ef3	0.12725429
37	0xbddc14af	-0.107461326
38	0x3e845a5e	0.25850195
39	0xbdb6383d	-0.08897445
40	0xbeaba93a	-0.33527547
41	0xbdfe4059	-0.12414617
42	0x3e8149f2	0.25251728
43	0x3e687498	0.22700727
44	0x3e3b15c9	0.18270029
45	0xbe402bf8	-0.18766773
46	0xbe9cb542	-0.3060704
47	0x3e62ec25	0.22160394
48	0x3d12b7ea	0.035819925
49	0xbdda3da7	-0.106562905
50	0x3e43b32c	0.19111317
51	0x3eacf98c	0.3378414
52	0xbe525f83	-0.20544247
53	0xbd1610a5	-0.036636967
54	0xbeaee63f	-0.3416004
55	0x3d40610b	0.046967547
56	0x3d491696	0.049093805
57	0x3eb20eff	0.34777066
58	0xbe0fa1d8	-0.14026582
59	0xbe8d6167	-0.27613375
60	0xbea69c55	-0.32541147
61	0x3e0481f3	0.12940197
62	0xbed95767	-0.42449495
63	0x3e82bcc3	0.2553464
64	0xbe62a506	-0.22133264
65	0x3e818c70	0.25302458
66	0xbe5c0ed5	-0.21490033
67	0x3e9c26f1	0.3049846
68	0x3a7261f4	0.00092461635
69	0x3e9b22bb	0.30299935
70	0xbe866501	-0.26248935
71	0xbe8dead8	-0.27718234
72	0x3e27e256	0.16394934
73	0x3cbfa201	0.02339268
74	0xbcbdf2cb	-0.023187062

decoder3.0.weight f4 [15, 1, 5, 1]
0	0x3d9adbc5	0.07561449
1	0x3e862fc5	0.2620832
2	0x3d57061d	0.052496064
3	0x3e97b5c0	0.29630852
4	0x3ec5dbb7	0.38644192
5	0xbed5bab4	-0.41744006
6	0x3e2eb61f	0.17061661
7	0xbed26b7d	-0.41097632
8	0x3e638eec	0.22222489
9	0xbe4ca1d9	-0.19983615
10	0xbeda319d	-0.42615977
11	0xbde16f9b	-0.11007615
12	0xbeb9eead	-0.36314908
13	0x3d0fe9ea	0.035135187
14	0xbe0c8ba6	-0.13725147
15	0x3e630821	0.2217107
16	0x3e5366be	0.20644662
17	0xbe535f6a	-0.20641866
18	0x3e82c8a0	0.2554369
19	0x3e26982f	0.16268991
20	0x3e68ddce	0.22740862
21	0x3ee26169	0.44214943
22	0xbe6f2461	-0.23353721
23	0xbe7bec49	-0.24601854
24	0x3e5c5a29	0.21518768
25	0x3e88b5c2	0.2670117
26	0xbe6f6941	-0.23379995
27	0xbe6559aa	-0.22397485
28	0x3e416af3	0.18888454
29	0xbeced0e9	-0.4039376
30	0xbec6e53b	-0.38846764
31	0xbeabae12	-0.33531243
32	0x3e400a18	0.1875385
33	0xbe6a0fc0	-0.2285757
34	0xbc6831e1	-0.014172048
35	0x3e51753e	0.2045488
36	0x3e4cc82a	0.19998232
37	0x3d7a1229	0.061052475
38	0x3ec79db8	0.38987517
39	0xbe13d6c9	-0.14437403
40	0x3e8a62a4	0.27028382
41	0x3e384a48	0.17997086
42	0xbea05f2f	-0.3132262
43	0x3ec66610	0.38749743
44	0x3d93823e	0.07202576
45	0xbdb97dad	-0.09057174
46	0xbdc83da2	-0.097773805
47	0xbdc1b7ae	-0.09458862
48	0x3e3a41ef	0.18189214
49	0x3e910610	0.28324938
50	0xbe566d1e	-0.20940062
51	0x3ebbdcb4	0.3669182
52	0xbe07215f	-0.13196324
53	0x3e8e5afc	0.2780379
54	0x3e6eb4ae	0.23311111
55	0x3ebf3e1d	0.37352076
56	0x3d5b425f	0.053530093
57	0x3dd4dfff	0.10394286
58	0x3e7bd8e5	0.24594457
59	0x3dfc75e7	0.123271756
60	0xbec45b8a	-0.3835109
61	0xbecaa927	-0.39582178
62	0xbec1fa01	-0.3788605
63	0xbe0ddd5c	-0.13853973
64	0xbcf412a2	-0.029794041
65	0x3eae3a6f	0.34028956
66	0x3e98909e	0.29797834
67	0xbe437ee1	-0.19091369
68	0xbefcfdd4	-0.49412405
69	0x3ec05ab0	0.3756919
70	0x3e09ba49	0.13449968
71	0xbedad43d	-0.4274005
72	0x3dac7b09	0.084219046
73	0x3e7a7e00	0.24462128
74	0xbe8ea2fd	-0.27858725
