pre_train_models/AML.pth (torch, 120523 bytes, 9 tensors)

weight f4 [170, 170]
1e-04 1e-04 1e-04 1e-04 1e-04 1e-04 1e-04 1e-04
1e-04 1e-04 1e-04 1e-04 1e-04 1e-04 1e-04 1e-04
1e-04 1e-04 1e-04 1e-04 1e-04 1e-04 1e-04 1e-04
1e-04 1e-04 1e-04 1e-04 1e-04 1e-04 1e-04 1e-04
1e-04 1e-04 1e-04 1e-04 1e-04 1e-04 1e-04 1e-04
1e-04 1e-04 1e-04 1e-04 1e-04 1e-04 1e-04 1e-04
1e-04 1e-04 1e-04 1e-04 1e-04 1e-04 1e-04 1e-04
1e-04 1e-04 1e-04 1e-04 1e-04 1e-04 1e-04 1e-04
1e-04 1e-04 1e-04 1e-04 1e-04 1e-04 1e-04 1e-04
1e-04 1e-04 1e-04 1e-04 1e-04 1e-04 1e-04 1e-04
1e-04 1e-04 1e-04 1e-04 1e-04 1e-04 1e-04 1e-04
1e-04 1e-04 1e-04 1e-04 1e-04 1e-04 1e-04 1e-04
1e-04 1e-04 1e-04 1e-04 1e-04 1e-04 1e-04 1e-04
1e-04 1e-04 1e-04 1e-04 1e-04 1e-04 1e-04 1e-04
1e-04 1e-04 1e-04 1e-04 1e-04 1e-04 1e-04 1e-04
1e-04 1e-04 1e-04 1e-04 1e-04 1e-04 1e-04 1e-04
1e-04 1e-04 1e-04 1e-04 1e-04 1e-04 1e-04 1e-04
1e-04 1e-04 1e-04 1e-04 1e-04 1e-04 1e-04 1e-04
1e-04 1e-04 1e-04 1e-04 1e-04 1e-04 1e-04 1e-04
1e-04 1e-04 1e-04 1e-04 1e-04 1e-04 1e-04 1e-04
1e-04 1e-04 1e-04 1e-04 1e-04 1e-04 1e-04 1e-04
1e-04 1e-04 1e-04 1e-04 1e-04 1e-04 1e-04 1e-04
1e-04 1e-04 1e-04 1e-04 1e-04 1e-04 1e-04 1e-04
1e-04 1e-04 1e-04 1e-04 1e-04 1e-04 1e-04 1e-04
1e-04 1e-04 1e-04 1e-04 1e-04 1e-04 1e-04 1e-04
1e-04 1e-04 1e-04 1e-04 1e-04 1e-04 1e-04 1e-04
1e-04 1e-04 1e-04 1e-04 1e-04 1e-04 1e-04 1e-04
1e-04 1e-04 1e-04 1e-04 1e-04 1e-04 1e-04 1e-04
1e-04 1e-04 1e-04 1e-04 1e-04 1e-04 1e-04 1e-04
1e-04 1e-04 1e-04 1e-04 1e-04 1e-04 1e-04 1e-04
1e-04 1e-04 1e-04 1e-04 1e-04 1e-04 1e-04 1e-04
1e-04 1e-04 1e-04 1e-04 1e-04 1e-04 1e-04 1e-04
00000000: 17b7 d138 17b7 d138 17b7 d138 17b7 d138
00000010: 17b7 d138 17b7 d138 17b7 d138 17b7 d138
00000020: 17b7 d138 17b7 d138 17b7 d138 17b7 d138
00000030: 17b7 d138 17b7 d138 17b7 d138 17b7 d138
00000040: 17b7 d138 17b7 d138 17b7 d138 17b7 d138
00000050: 17b7 d138 17b7 d138 17b7 d138 17b7 d138
00000060: 17b7 d138 17b7 d138 17b7 d138 17b7 d138
00000070: 17b7 d138 17b7 d138 17b7 d138 17b7 d138
00000080: 17b7 d138 17b7 d138 17b7 d138 17b7 d138
00000090: 17b7 d138 17b7 d138 17b7 d138 17b7 d138
000000a0: 17b7 d138 17b7 d138 17b7 d138 17b7 d138
000000b0: 17b7 d138 17b7 d138 17b7 d138 17b7 d138
000000c0: 17b7 d138 17b7 d138 17b7 d138 17b7 d138
000000d0: 17b7 d138 17b7 d138 17b7 d138 17b7 d138
000000e0: 17b7 d138 17b7 d138 17b7 d138 17b7 d138
000000f0: 17b7 d138 17b7 d138 17b7 d138 17b7 d138
00000100: 17b7 d138 17b7 d138 17b7 d138 17b7 d138
00000110: 17b7 d138 17b7 d138 17b7 d138 17b7 d138
00000120: 17b7 d138 17b7 d138 17b7 d138 17b7 d138
00000130: 17b7 d138 17b7 d138 17b7 d138 17b7 d138
00000140: 17b7 d138 17b7 d138 17b7 d138 17b7 d138
00000150: 17b7 d138 17b7 d138 17b7 d138 17b7 d138
00000160: 17b7 d138 17b7 d138 17b7 d138 17b7 d138
00000170: 17b7 d138 17b7 d138 17b7 d138 17b7 d138
00000180: 17b7 d138 17b7 d138 17b7 d138 17b7 d138
00000190: 17b7 d138 17b7 d138 17b7 d138 17b7 d138
000001a0: 17b7 d138 17b7 d138 17b7 d138 17b7 d138
000001b0: 17b7 d138 17b7 d138 17b7 d138 17b7 d138
000001c0: 17b7 d138 17b7 d138 17b7 d138 17b7 d138
000001d0: 17b7 d138 17b7 d138 17b7 d138 17b7 d138
000001e0: 17b7 d138 17b7 d138 17b7 d138 17b7 d138
000001f0: 17b7 d138 17b7 d138 17b7 d138 17b7 d138
00000200: 17b7 d138 17b7 d138 17b7 d138 17b7 d138
00000210: 17b7 d138 17b7 d138 17b7 d138 17b7 d138
00000220: 17b7 d138 17b7 d138 17b7 d138 17b7 d138
00000230: 17b7 d138 17b7 d138 17b7 d138 17b7 d138
00000240: 17b7 d138 17b7 d138 17b7 d138 17b7 d138
00000250: 17b7 d138 17b7 d138 17b7 d138 17b7 d138
00000260: 17b7 d138 17b7 d138 17b7 d138 17b7 d138
00000270: 17b7 d138 17b7 d138 17b7 d138 17b7 d138
00000280: 17b7 d138 17b7 d138 17b7 d138 17b7 d138
00000290: 17b7 d138 17b7 d138 17b7 d138 17b7 d138
000002a0: 17b7 d138 17b7 d138 17b7 d138 17b7 d138
000002b0: 17b7 d138 17b7 d138 17b7 d138 17b7 d138
000002c0: 17b7 d138 17b7 d138 17b7 d138 17b7 d138
000002d0: 17b7 d138 17b7 d138 17b7 d138 17b7 d138
000002e0: 17b7 d138 17b7 d138 17b7 d138 17b7 d138
000002f0: 17b7 d138 17b7 d138 17b7 d138 17b7 d138
00000300: 17b7 d138 17b7 d138 17b7 d138 17b7 d138
00000310: 17b7 d138 17b7 d138 17b7 d138 17b7 d138
00000320: 17b7 d138 17b7 d138 17b7 d138 17b7 d138
00000330: 17b7 d138 17b7 d138 17b7 d138 17b7 d138
00000340: 17b7 d138 17b7 d138 17b7 d138 17b7 d138
00000350: 17b7 d138 17b7 d138 17b7 d138 17b7 d138
00000360: 17b7 d138 17b7 d138 17b7 d138 17b7 d138
00000370: 17b7 d138 17b7 d138 17b7 d138 17b7 d138
00000380: 17b7 d138 17b7 d138 17b7 d138 17b7 d138
00000390: 17b7 d138 17b7 d138 17b7 d138 17b7 d138
000003a0: 17b7 d138 17b7 d138 17b7 d138 17b7 d138
000003b0: 17b7 d138 17b7 d138 17b7 d138 17b7 d138
000003c0: 17b7 d138 17b7 d138 17b7 d138 17b7 d138
000003d0: 17b7 d138 17b7 d138 17b7 d138 17b7 d138
000003e0: 17b7 d138 17b7 d138 17b7 d138 17b7 d138
000003f0: 17b7 d138 17b7 d138 17b7 d138 17b7 d138

encoder1.0.weight f4 [15, 1, 5, 1]
0.22307509 -0.08815148 0.19028302 0.026708275 -0.06810222 0.15696399 -0.19041091 -0.396566
0.36321715 -0.12938204 -0.10540585 0.19435868 0.4133125 -0.1844171 -0.14389056 -0.18698794
-0.041809093 -0.21469212 -0.32528245 -0.3395408 0.12630904 -0.29185012 0.4435027 0.26937917
0.19796513 0.15573299 0.21001 -0.44837353 0.45757058 -0.003418649 0.37425518 -0.28177416
-0.39551297 -0.24981937 0.25271955 0.07299197 0.3445103 -0.303267 0.20834106 0.4595815
-0.40800333 -0.32245168 0.37227342 0.40827942 0.078929126 -0.06057007 0.14111371 0.4663458
0.14895341 0.4493825 0.15741336 -0.23670135 0.29700094 0.33568698 -0.097326666 0.1531593
-0.10142538 0.2016766 -0.16280551 -0.04105003 0.19720978 -0.22420625 -0.115476035 0.39662102
-0.17952347 0.21859953 0.22112116 0.062247172 -0.25379595 -0.32484058 0.39565018 0.122491926
-0.090649836 -0.35593733 -0.23005675
00000000: cc6d 643e c388 b4bd 8dd9 423e 50cb da3c
00000010: 2d79 8bbd 2bbb 203e 14fb 42be b30a cbbe
00000020: 99f7 b93e ba7c 04be 06df d7bd f605 473e
00000030: b29d d33e d6d7 3cbe 0c58 13be c479 3fbe
00000040: 0340 2bbd 40d8 5bbe 6c8b a6be 4bd8 adbe
00000050: 2857 013e 616d 95be c912 e33e 11ec 893e
00000060: 5fb7 4a3e 7878 1f3e dd0c 573e 3791 e5be
00000070: b146 ea3e 6a0b 60bb 609e bf3e b444 90be
00000080: ad80 cabe a6d0 7fbe 7564 813e d07c 953d
00000090: a763 b03e d045 9bbe 5c57 553e 444e eb3e
000000a0: d0e5 d0be 6318 a5be 9f9a be3e 000a d13e
000000b0: 98a5 a13d 5218 78bd 1d80 103e e0c4 ee3e
000000c0: 3e87 183e 7715 e63e f830 213e d761 72be
000000d0: 8210 983e 2adf ab3e 3453 c7bd cbd5 1c3e
000000e0: 1cb8 cfbd 5084 4e3e 7db6 26be 1424 28bd
000000f0: 5cf1 493e 5396 65be b37e ecbd e911 cb3e
00000100: 00d5 37be 8ed8 5f3e 966d 623e e4f6 7e3d
00000110: 8bf1 81be 8151 a6be a992 ca3e 0cdd fa3d
00000120: 9fa6 b9bd 6b3d b6be ff93 6bbe

encoder1.0.bias f4 [15]
0.19557618 0.26630953 -0.08071607 -0.25704443 0.31508458 -0.36169243 0.373655 -0.063414775
0.15545464 -0.24205609 0.30986968 0.23948912 -0.4862216 0.0987759 0.09513762
00000000: 1f45 483e b959 883e 784e a5bd 549b 83be
00000010: c452 a13e c02f b9be b54f bf3e 9bdf 81bd
00000020: 802f 1f3e 8ddd 77be 3da7 9e3e a33c 753e
00000030: 0af2 f8be 054b ca3d 83d7 c23d

decoder1.0.weight f4 [15, 1, 5, 1]
-0.2620187 -0.3577304 0.06428376 -0.44177184 -0.26802123 0.2902087 0.29385966 -0.32561705
-0.11075724 0.2809421 0.22711143 0.47853583 0.48875567 0.23799428 -0.2145697 -0.4841418
-0.16359685 -0.2941999 -0.3776467 -0.030121412 0.13218522 0.38480452 0.19475462 0.08232659
-0.39060023 0.15690847 -0.4490119 -0.17236082 0.19155015 -0.483091 -0.07598929 -0.2820939
-0.0051020496 -0.40039462 0.33164153 0.31571886 0.1239124 -0.24258725 0.38643387 0.2943148
-0.40296298 -0.21923038 -0.28951705 -0.15318531 -0.460516 -0.3675263 -0.18138693 0.47404614
0.17582454 -0.1348768 0.03808086 0.31477588 -0.23462036 -0.18173741 -0.35566813 0.43556044
-0.35907632 -0.2715201 -0.34771153 -0.015971765 0.050388794 0.29848942 -0.028849518 -0.27274075
0.3449716 -0.053193573 -0.053160593 0.084987864 0.39915887 -0.40811285 0.045151476 0.14246577
-0.3760464 -0.08456869 0.121478595
00000000: 5127 86be 7028 b7be 34a7 833d eb2f e2be
00000010: 143a 89be 3c96 943e c674 963e 47b7 a6be
00000020: b1d4 e2bd a5d7 8f3e e68f 683e a602 f53e
00000030: 2f3e fa3e c6b4 733e 29b8 5bbe 6fe1 f7be
00000040: ef85 27be 5fa1 96be e95a c1be 2ec1 f6bc
00000050: 905b 073e 1905 c53e c16d 473e d89a a83d
00000060: c1fc c7be 9dac 203e e3e4 e5be 5b7f 30be
00000070: b925 443e b457 f7be 46a0 9bbd 9d6e 90be
00000080: 182f a7bb 8600 cdbe ebcc a93e e7a5 a13e
00000090: c9c5 fd3d cb68 78be a9da c53e 6eb0 963e
000000a0: 2a51 cebe ee7d 60be 943b 94be 9cdc 1cbe
000000b0: c1c8 ebbe 682c bcbe 7fbd 39be 2db6 f23e
000000c0: 590b 343e 251d 0abe adfa 1b3d 4e2a a13e
000000d0: 5240 70be 5f19 3abe 221a b6be c701 df3e
000000e0: dad8 b7be af04 8bbe 3f07 b2be 38d7 82bc
000000f0: 7b64 4e3d 9bd3 983e d355 ecbc ada4 8bbe
00000100: 1ea0 b03e 81e1 59bd ecbe 59bd 1e0e ae3d
00000110: 8d5e cc3e 2bf4 d0be c1f0 383d 8ce2 113e
00000120: 2789 c0be 5932 adbd c5c9 f83d

encoder2.0.weight f4 [15, 1, 5, 1]
-0.04738172 0.012019325 0.31947005 -0.065181375 0.19685157 -0.30553052 0.33222744 -0.27935958
0.33217415 -0.3959694 -0.13356192 0.025468132 -0.25145116 0.050514705 0.11614038 -0.37199217
-0.21657328 -0.041852884 0.30429697 0.23638737 0.24571468 -0.17267606 0.21892956 -0.11016371
-0.23744471 -0.32865813 0.073063366 0.36867192 0.04905698 0.25038618 0.4759578 0.19792993
-0.23176906 0.0026063526 -0.2852259 0.061601423 -0.14100763 0.19457008 -0.1841954 0.36494344
-0.04992759 -0.28256246 0.08895099 -0.4166518 -0.41342914 -0.0007951694 0.108169325 -0.27296907
-0.0071797576 0.24456891 -0.3204155 -0.34903517 -0.097138405 -0.337076 -0.012110257 0.10943812
0.23456065 0.19574861 0.18810353 0.22157903 0.18123214 -0.113270834 -0.14487512 -0.25326106
0.16495116 -0.13204616 0.116448596 -0.19140959 -0.24428476 0.3784434 0.47318542 -0.3578151
0.3637614 0.021402743 -0.08982909
00000000: 5613 42bd b4ec 443c 9491 a33e d07d 85bd
00000010: 7593 493e 7f6e 9cbe b719 aa3e 3808 8fbe
00000020: bb12 aa3e 80bc cabe 75c4 08be 8ba2 d03c
00000030: 35be 80be 82e8 4e3d 02db ed3d c275 bebe
00000040: 63c5 5dbe ee6d 2bbd d0cc 9b3e 880f 723e
00000050: a19c 7b3e fed1 30be 122f 603e 839d e1bd
00000060: b524 73be e145 a8be 3fa2 953d 91c2 bc3e
00000070: f9ef 483d 9e32 803e beb0 f33e 25ae 4a3e
00000080: de54 6dbe 57cf 2a3b 2109 92be c651 7c3d
00000090: 4e64 10be 613d 473e b89d 3cbe ded9 ba3e
000000a0: df80 4cbd 07ac 90be f02b b63d 6253 d5be
000000b0: fcac d3be ea72 50ba e187 dd3d 9ac2 8bbe
000000c0: 2c44 ebbb 4670 7a3e 800d a4be bdb4 b2be
000000d0: 80f0 c6bd 3a95 acbe 196a 46bc 1821 e03d
000000e0: ab30 703e 5372 483e 369e 403e 9de5 623e
000000f0: eb94 393e 8afa e7bd 255a 14be 6fab 81be
00000100: f5e8 283e 1c37 07be 9a7c ee3d e000 44be
00000110: c925 7abe 55c3 c13e 5c45 f23e 8a33 b7be
00000120: ef3e ba3e ce54 af3c 50f8 b7bd

encoder2.0.bias f4 [15]
0.3252112 0.32974496 -0.10728776 -0.267486 -0.25113195 0.24681659 -0.08515619 0.18688677
0.2393567 0.3540329 0.20955314 0.13579647 -0.21508266 -0.17559674 0.17953475
00000000: 1582 a63e 55d4 a83e afb9 dbbd edf3 88be
00000010: 5e94 80be 7dbd 7c3e 5e66 aebd 3f5f 3f3e
00000020: ec19 753e cd43 b53e 1995 563e 3b0e 0b3e
00000030: a13e 5cbe a2cf 33be f5d7 373e

decoder2.0.weight f4 [15, 1, 5, 1]
0.28346437 -0.13962726 0.016081687 0.23836103 0.377649 -0.19507857 -0.14249982 0.355179
0.009104002 -0.33577517 0.23574841 0.37304237 0.3835574 0.38472566 -0.10172802 0.019335687
-0.23284283 0.25866678 0.11353592 0.16066447 -0.22748391 0.27442926 0.40055937 0.40454286
-0.37378493 -0.35128257 0.25301117 0.105892904 0.25778848 0.1545225 0.28861603 -0.18284746
0.23671225 -0.14527495 0.18332955 -0.19909868 0.07986085 0.33899972 -0.34557647 0.36958048
-0.061486274 -0.19405206 -0.036071833 -0.37476403 -0.2732051 -0.19737692 -0.1199261 -0.037950907
-0.37991807 0.16779181 0.24054466 -0.33947015 0.32908615 0.03585198 -0.27235618 0.015072074
-0.35010764 0.24077512 -0.03166567 0.10810995 0.4654091 -0.08819836 -0.37886932 -0.39802703
-0.01346194 0.05950571 -0.1547509 0.2795993 0.17164467 -0.063730314 0.40916985 0.15109198
0.0534414 -0.03019433 0.21659571
00000000: 3e22 913e 73fa 0ebe bebd 833c ea14 743e
00000010: 365b c13e adc2 47be 79eb 11be 06da b53e
00000020: f428 153c b9ea abbe 0868 713e 69ff be3e
00000030: a361 c43e c3fa c43e c856 d0bd e065 9e3c
00000040: 5a6e 6ebe f96f 843e 8585 e83d 3a85 243e
00000050: 8bf1 68be fe81 8c3e 1e16 cd3e 3e20 cf3e
00000060: bd60 bfbe 4fdb b3be ae8a 813e 61de d83d
00000070: dafc 833e 253b 1e3e 7bc5 933e 5d3c 3bbe
00000080: b264 723e f5c2 14be beba 3b3e 86e0 4bbe
00000090: 168e a33d 5f91 ad3e 66ef b0be a739 bd3e
000000a0: 08d9 7bbd 95b5 46be 0fc0 13bd 12e1 bfbe
000000b0: 8ae1 8bbe 2d1d 4abe d19b f5bd 6972 1bbd
000000c0: 9f84 c2be 9ed1 2b3e 5751 763e 08cf adbe
000000d0: fb7d a83e 87d9 123d 4572 8bbe dcf0 763c
000000e0: 4f41 b3be c18d 763e ddb3 01bd c068 dd3d
000000f0: 1a4a ee3e 57a1 b4bd 29fb c1be 33ca cbbe
00000100: 788f 5cbc 42bc 733d 0577 1ebe a427 8f3e
00000110: 9fc3 2f3e 0a85 82bd b67e d13e dbb7 1a3e
00000120: 5fe5 5a3d 195a f7bc 44cb 5d3e

encoder3.0.weight f4 [15, 1, 5, 1]
0.17887488 -0.3024013 -0.24452467 -0.3398408 -0.14283021 -0.4506546 -0.012201721 0.20204252
0.10980261 -0.29789105 -0.3468541 0.113469094 0.06848807 0.23263834 -0.10866904 -0.24888092
0.1746975 -0.028470417 -0.11138877 0.23297866 0.107687816 -0.24605685 -0.36598018 -0.034286853
-0.43872797 0.0717153 0.18577327 0.06751361 0.06915384 0.375866 0.13452625 0.19466844
-0.02323484 -0.2617932 -0.40209138 0.21445279 0.43771353 -0.34648928 -0.42768872 0.07633127
-0.16908507 -0.31918383 -0.33264685 0.16294484 -0.33386254 0.045622464 0.2952249 -0.15856835
-0.37469274 -0.32520503 -0.11271907 -0.35084707 0.14913179 0.26208723 -0.32571065 0.062062927
-0.28913796 0.14233747 -0.102306575 0.2620856 -0.25642636 -0.31994942 0.42349494 -0.33232906
0.32613754 0.31315324 -0.37249786 -0.37413996 -0.36475894 0.25889137 -0.119080886 -0.11446709
0.119343 0.46208596 -0.108680464
00000000: fa2a 373e 58d4 9abe ad64 7abe 9dff adbe
00000010: 1542 12be 33bc e6be bae9 47bc 3ce4 4e3e
00000020: 31e0 e03d 2d85 98be dc96 b1be 7c62 e83d
00000030: 7943 8c3d bf38 6e3e e08d debd a4da 7ebe
00000040: e7e3 323e cb3a e9bc cc1f e4bd f591 6e3e
00000050: 6e8b dc3d 54f6 7bbe c161 bbbe 5f70 0cbd
00000060: f4a0 e0be 79df 923d 593b 3e3e 9344 8a3d
00000070: 87a0 8d3d 8271 c03e 40c1 093e 2a57 473e
00000080: fe56 bebc c209 86be ecde cdbe 8399 5b3e
00000090: fd1b e03e 0b67 b1be 04fa dabe 9253 9c3d
000000a0: a324 2dbe 106c a3be b050 aabe 03db 263e
000000b0: 08f0 aabe 9fde 3a3d b827 973e be5f 22be
000000c0: bad7 bfbe 4681 a6be 41d9 e6bd 3aa2 b3be
000000d0: 01b6 183e 4c30 863e 8cc3 a6be b235 7e3d
000000e0: e409 94be eac0 113e 1c86 d1bd 1530 863e
000000f0: 514a 83be 69d0 a3be 54d4 d83e 0927 aabe
00000100: 80fb a63e 9f55 a03e 0ab8 bebe 468f bfbe
00000110: afc1 babe 698d 843e aee0 f3bd b96d eabd
00000120: 1a6a f43d 8896 ec3e dd93 debd

decoder3.0.weight f4 [15, 1, 5, 1]
0.1881792 -0.074302495 -0.45477518 0.2696435 -0.07417171 -0.13308428 0.10597527 -0.24759254
-0.31928742 -0.08265465 -0.3966289 0.24040471 -0.053952247 0.16333702 -0.19753303 0.15688641
0.16275792 -0.0023227483 0.25336075 0.04827728 -0.31460962 -0.114682004 0.12096804 -0.47126967
-0.18072623 -0.24928746 0.4123875 -0.26211044 0.30152062 0.41672722 0.00044052862 0.09102683
0.1745888 0.12510075 0.15072653 0.07248921 0.13199688 0.06864928 -0.17932478 -0.28597888
-0.3895283 0.048570592 0.20051421 0.32298347 0.14985403 0.22322872 0.3761847 -0.26539996
-0.45791718 -0.35636166 0.25128737 -0.23725903 0.003861997 0.34639996 0.19248664 -0.068162136
-0.2291484 0.26928267 0.29585233 -0.32922763 -0.08429029 -0.2731834 0.41253862 -0.45478314
0.19326521 -0.08010437 -0.36423647 0.23628828 0.26045588 0.3195462 0.07264656 0.23114817
-0.28207716 0.44322562 -0.03629392
00000000: 0cb2 403e e82b 98bd 4bd8 e8be b60e 8a3e
00000010: 56e7 97bd 3f47 08be 9009 d93d e688 7dbe
00000020: a479 a3be d746 a9bd f112 cbbe a72c 763e
00000030: 08fd 5cbd d241 273e 1946 4abe d5a6 203e
00000040: 03aa 263e 4039 18bb 80b8 813e 66be 453d
00000050: 8314 a1be 66de eabd 17be f73d 424a f1be
00000060: 4c10 39be 3645 7fbe 7424 d33e 5733 86be
00000070: e960 9a3e 455d d53e c0f6 e639 466c ba3d
00000080: 68c7 323e 691a 003e 0e58 1a3e 3975 943d
00000090: 312a 073e fe97 8c3d eaa0 37be d36b 92be
000000a0: 4170 c7be f5f1 463d 9953 4d3e 175e a53e
000000b0: 5673 193e 1296 643e 489b c03e 81e2 87be
000000c0: 1f74 eabe 0975 b6be bda8 803e 08f4 72be
000000d0: 8f19 7d3b 565b b13e 381b 453e 9798 8bbd
000000e0: e1a5 6abe 6bdf 893e f579 973e 8690 a8be
000000f0: 63a0 acbd b2de 8bbe 4338 d33e 56d9 e8be
00000100: 51e7 453e c30d a4bd 347d babe 8ef5 713e
00000110: 795a 853e 8f9b a33e b8c7 943d 1bb2 6c3e
00000120: 6b6c 90be 78ee e23e efa8 14bd
