pre_train_models/COAD.pth (torch, 198475 bytes, 9 tensors)

weight f4 [220, 220]
00000000: 17b7 d138 17b7 d138 17b7 d138 17b7 d138
00000010: 17b7 d138 17b7 d138 17b7 d138 17b7 d138
00000020: 17b7 d138 17b7 d138 17b7 d138 17b7 d138
00000030: 17b7 d138 17b7 d138 17b7 d138 17b7 d138
00000040: 17b7 d138 17b7 d138 17b7 d138 17b7 d138
00000050: 17b7 d138 17b7 d138 17b7 d138 17b7 d138
00000060: 17b7 d138 17b7 d138 17b7 d138 17b7 d138
00000070: 17b7 d138 17b7 d138 17b7 d138 17b7 d138
00000080: 17b7 d138 17b7 d138 17b7 d138 17b7 d138
00000090: 17b7 d138 17b7 d138 17b7 d138 17b7 d138
000000a0: 17b7 d138 17b7 d138 17b7 d138 17b7 d138
000000b0: 17b7 d138 17b7 d138 17b7 d138 17b7 d138
000000c0: 17b7 d138 17b7 d138 17b7 d138 17b7 d138
000000d0: 17b7 d138 17b7 d138 17b7 d138 17b7 d138
000000e0: 17b7 d138 17b7 d138 17b7 d138 17b7 d138
000000f0: 17b7 d138 17b7 d138 17b7 d138 17b7 d138
00000100: 17b7 d138 17b7 d138 17b7 d138 17b7 d138
00000110: 17b7 d138 17b7 d138 17b7 d138 17b7 d138
00000120: 17b7 d138 17b7 d138 17b7 d138 17b7 d138
00000130: 17b7 d138 17b7 d138 17b7 d138 17b7 d138
00000140: 17b7 d138 17b7 d138 17b7 d138 17b7 d138
00000150: 17b7 d138 17b7 d138 17b7 d138 17b7 d138
00000160: 17b7 d138 17b7 d138 17b7 d138 17b7 d138
00000170: 17b7 d138 17b7 d138 17b7 d138 17b7 d138
00000180: 17b7 d138 17b7 d138 17b7 d138 17b7 d138
00000190: 17b7 d138 17b7 d138 17b7 d138 17b7 d138
000001a0: 17b7 d138 17b7 d138 17b7 d138 17b7 d138
000001b0: 17b7 d138 17b7 d138 17b7 d138 17b7 d138
000001c0: 17b7 d138 17b7 d138 17b7 d138 17b7 d138
000001d0: 17b7 d138 17b7 d138 17b7 d138 17b7 d138
000001e0: 17b7 d138 17b7 d138 17b7 d138 17b7 d138
000001f0: 17b7 d138 17b7 d138 17b7 d138 17b7 d138
00000200: 17b7 d138 17b7 d138 17b7 d138 17b7 d138
00000210: 17b7 d138 17b7 d138 17b7 d138 17b7 d138
00000220: 17b7 d138 17b7 d138 17b7 d138 17b7 d138
00000230: 17b7 d138 17b7 d138 17b7 d138 17b7 d138
00000240: 17b7 d138 17b7 d138 17b7 d138 17b7 d138
00000250: 17b7 d138 17b7 d138 17b7 d138 17b7 d138
00000260: 17b7 d138 17b7 d138 17b7 d138 17b7 d138
00000270: 17b7 d138 17b7 d138 17b7 d138 17b7 d138
00000280: 17b7 d138 17b7 d138 17b7 d138 17b7 d138
00000290: 17b7 d138 17b7 d138 17b7 d138 17b7 d138
000002a0: 17b7 d138 17b7 d138 17b7 d138 17b7 d138
000002b0: 17b7 d138 17b7 d138 17b7 d138 17b7 d138
000002c0: 17b7 d138 17b7 d138 17b7 d138 17b7 d138
000002d0: 17b7 d138 17b7 d138 17b7 d138 17b7 d138
000002e0: 17b7 d138 17b7 d138 17b7 d138 17b7 d138
000002f0: 17b7 d138 17b7 d138 17b7 d138 17b7 d138
00000300: 17b7 d138 17b7 d138 17b7 d138 17b7 d138
00000310: 17b7 d138 17b7 d138 17b7 d138 17b7 d138
00000320: 17b7 d138 17b7 d138 17b7 d138 17b7 d138
00000330: 17b7 d138 17b7 d138 17b7 d138 17b7 d138
00000340: 17b7 d138 17b7 d138 17b7 d138 17b7 d138
00000350: 17b7 d138 17b7 d138 17b7 d138 17b7 d138
00000360: 17b7 d138 17b7 d138 17b7 d138 17b7 d138
00000370: 17b7 d138 17b7 d138 17b7 d138 17b7 d138
00000380: 17b7 d138 17b7 d138 17b7 d138 17b7 d138
00000390: 17b7 d138 17b7 d138 17b7 d138 17b7 d138
000003a0: 17b7 d138 17b7 d138 17b7 d138 17b7 d138
000003b0: 17b7 d138 17b7 d138 17b7 d138 17b7 d138
000003c0: 17b7 d138 17b7 d138 17b7 d138 17b7 d138
000003d0: 17b7 d138 17b7 d138 17b7 d138 17b7 d138
000003e0: 17b7 d138 17b7 d138 17b7 d138 17b7 d138
000003f0: 17b7 d138 17b7 d138 17b7 d138 17b7 d138
1e-04 1e-04 1e-04 1e-04 1e-04 1e-04 1e-04 1e-04
1e-04 1e-04 1e-04 1e-04 1e-04 1e-04 1e-04 1e-04
1e-04 1e-04 1e-04 1e-04 1e-04 1e-04 1e-04 1e-04
1e-04 1e-04 1e-04 1e-04 1e-04 1e-04 1e-04 1e-04
1e-04 1e-04 1e-04 1e-04 1e-04 1e-04 1e-04 1e-04
1e-04 1e-04 1e-04 1e-04 1e-04 1e-04 1e-04 1e-04
1e-04 1e-04 1e-04 1e-04 1e-04 1e-04 1e-04 1e-04
1e-04 1e-04 1e-04 1e-04 1e-04 1e-04 1e-04 1e-04
1e-04 1e-04 1e-04 1e-04 1e-04 1e-04 1e-04 1e-04
1e-04 1e-04 1e-04 1e-04 1e-04 1e-04 1e-04 1e-04
1e-04 1e-04 1e-04 1e-04 1e-04 1e-04 1e-04 1e-04
1e-04 1e-04 1e-04 1e-04 1e-04 1e-04 1e-04 1e-04
1e-04 1e-04 1e-04 1e-04 1e-04 1e-04 1e-04 1e-04
1e-04 1e-04 1e-04 1e-04 1e-04 1e-04 1e-04 1e-04
1e-04 1e-04 1e-04 1e-04 1e-04 1e-04 1e-04 1e-04
1e-04 1e-04 1e-04 1e-04 1e-04 1e-04 1e-04 1e-04
1e-04 1e-04 1e-04 1e-04 1e-04 1e-04 1e-04 1e-04
1e-04 1e-04 1e-04 1e-04 1e-04 1e-04 1e-04 1e-04
1e-04 1e-04 1e-04 1e-04 1e-04 1e-04 1e-04 1e-04
1e-04 1e-04 1e-04 1e-04 1e-04 1e-04 1e-04 1e-04
1e-04 1e-04 1e-04 1e-04 1e-04 1e-04 1e-04 1e-04
1e-04 1e-04 1e-04 1e-04 1e-04 1e-04 1e-04 1e-04
1e-04 1e-04 1e-04 1e-04 1e-04 1e-04 1e-04 1e-04
1e-04 1e-04 1e-04 1e-04 1e-04 1e-04 1e-04 1e-04
1e-04 1e-04 1e-04 1e-04 1e-04 1e-04 1e-04 1e-04
1e-04 1e-04 1e-04 1e-04 1e-04 1e-04 1e-04 1e-04
1e-04 1e-04 1e-04 1e-04 1e-04 1e-04 1e-04 1e-04
1e-04 1e-04 1e-04 1e-04 1e-04 1e-04 1e-04 1e-04
1e-04 1e-04 1e-04 1e-04 1e-04 1e-04 1e-04 1e-04
1e-04 1e-04 1e-04 1e-04 1e-04 1e-04 1e-04 1e-04
1e-04 1e-04 1e-04 1e-04 1e-04 1e-04 1e-04 1e-04
1e-04 1e-04 1e-04 1e-04 1e-04 1e-04 1e-04 1e-04

encoder1.0.weight f4 [15, 1, 5, 1]
00000000: ca1a c3bd 46a4 abbe dfb6 b0be 52ad 383e
00000010: 9c8c 81be 64d3 3cbe 8575 d73e f888 2cbe
00000020: de5e b43e f10a cb3e 74c6 c13c 1927 a83d
00000030: 1ffe f43e a4f2 2f3e fcf0 84be 5661 693e
00000040: 82a7 14be addd bc3e 9dfd 6e3e daa7 a53e
00000050: 8ad4 953e 45a6 c33d b43a c53e 8eb1 ea3b
00000060: 2a88 cd3e b12d a0be 1865 96be ddb7 32be
00000070: bebc 86be 930b b4bc 9f24 ac3e 3e79 8c3e
00000080: 558e 0f3e 1ea0 efbe 2b67 5fbe a4f7 983d
00000090: ee4c 27be 7ab8 9dbe 75de 023e 5dcb 403d
000000a0: 7b55 8cbe 7075 e43e 604e b53e 8166 bcbe
000000b0: 1399 873e fcee 833e 6d5f b33e baaf 90be
000000c0: 377a 07be d68b 35be f1c1 20be 4349 98be
000000d0: 9068 d13e e30e 98be 42c2 eabb 86f9 7abd
000000e0: c68d c03e 027e b83d 9bb6 433e a5d6 56bd
000000f0: b4f3 92be 7eb4 a3bd a783 bd3e 675c bd3a
00000100: e026 e3be df21 6c3e 9edc 573e ffa5 8abc
00000110: 765f 2ebe d37b 03be 7ce1 923e 935a 5ebe
00000120: 439b 33bc c1f5 08bd 5d82 893d
-0.09526594 -0.33523768 -0.3451452 0.18034866 -0.2530259 -0.18440014 0.42081848 -0.16849124
0.35228628 0.39656785 0.0236542 0.08210582 0.4785013 0.17182404 -0.25965106 0.22791037
-0.14517024 0.36887875 0.23338933 0.32354623 0.29263717 0.09553198 0.3852135 0.0071622794
0.40142947 -0.3128486 -0.29374003 -0.17452951 -0.26315874 -0.021978175 0.3362169 0.2743625
0.14019139 -0.46801847 -0.21816699 0.07469109 -0.1633794 -0.30804807 0.12780173 0.047068942
-0.27408966 0.44620848 0.35411358 -0.36796954 0.26483974 0.25768268 0.35033742 -0.2825907
-0.13230215 -0.17729124 -0.15698983 -0.29743394 0.40900087 -0.29698858 -0.0071642706 -0.06127312
0.37608165 0.09008409 0.19112627 -0.052450795 -0.28701556 -0.079934105 0.37014505 0.0014447094
-0.44365597 0.23059796 0.21080253 -0.016924856 -0.17028603 -0.12840204 0.28687656 -0.21714239
-0.01096231 -0.033437494 0.06714318

encoder1.0.bias f4 [15]
00000000: 6c4c 4fbe 5a4c cbbe a0b0 ef3d 6b8c 07bd
00000010: 555e 27be 43e4 ddbd 3930 133c ac88 eabe
00000020: 4c6f ca3e 3529 783e c308 5fbd 5117 b0be
00000030: de62 233e 351e 2abe c21c 3b3e
-0.20243996 -0.3970669 0.117036104 -0.033092897 -0.16344579 -0.10834553 0.008983665 -0.45807397
0.39538038 0.24234469 -0.054451715 -0.3439279 0.15955684 -0.16613086 0.18272689

decoder1.0.weight f4 [15, 1, 5, 1]
00000000: 12b1 5abd 6c89 41be 008b 42be ceaf da3d
00000010: f825 bfbe 31db abbe e709 9d3e e90c f7bd
00000020: 9d1d 8b3d 935b 6c3e 9faf 52be 8dc9 8c3d
00000030: c641 6fbe 4703 9f3e b6d8 efbe 21b4 f03e
00000040: cc65 9bbe dce3 c6bd 441a a43c 873f bc3c
00000050: c411 8fbd 7d59 9b3e 267c c33d 7f41 193e
00000060: 6e0a afbe 0252 113e 29f2 52be 5fcc b93e
00000070: 874c a9bd 1292 aabd bc89 a4bd 93a9 7d3e
00000080: fbad f4be 4d88 22be 294a 743e bfa0 2d3e
00000090: a287 a93e 5eb6 1f3e 3965 d33e d41e 72bb
000000a0: aaba b03c 0838 983e dbc5 613b 9d65 bcbe
000000b0: 675d 233d 4de8 ee3b 3556 8f3e 7dbb 7bbe
000000c0: 9f36 90bd 2770 8e3e 94c3 dabb 7e78 85be
000000d0: a8d4 a53d 9ca2 d3bd 1e48 e43c 05d7 c63e
000000e0: b32f 613d 64eb 3dbd aed3 dd3e 8a24 fe3c
000000f0: e348 8bbe 7670 34bd 9e07 b2bd 5269 5a3e
00000100: 5153 fbbe d807 90be 4eba 4fbd 5986 b03d
00000110: 1e60 9fbd 9bbe dbbe 9f25 ddbd de89 97be
00000120: f113 363d c65e bfbd 0c2d e8be
-0.053391524 -0.18900079 -0.18998337 0.10678063 -0.37333655 -0.33565667 0.30671617 -0.12063009
0.06792758 0.23081808 -0.20574807 0.0687438 -0.23364934 0.31057188 -0.46845025 0.47012427
-0.30351102 -0.097114295 0.020032056 0.022979511 -0.069858104 0.30341712 0.09545164 0.14966391
-0.34187645 0.1419144 -0.2060019 0.36288735 -0.082665496 -0.08328642 -0.08034083 0.24771719
-0.47788987 -0.15872307 0.23856415 0.16955851 0.33111292 0.15596911 0.41288164 -0.0036944645
0.021573383 0.29730248 0.0034450206 -0.36796275 0.039883997 0.007290876 0.27995458 -0.2458324
-0.07041668 0.2781994 -0.0066761468 -0.2606849 0.080972016 -0.1033375 0.02786642 0.38835922
0.05497713 -0.046367064 0.4332556 0.031023283 -0.27204046 -0.044052564 -0.08692859 0.21329239
-0.49087003 -0.28130984 -0.050714783 0.08619375 -0.07782005 -0.42918858 -0.10798191 -0.29597372
0.04445261 -0.093442485 -0.45346868

encoder2.0.weight f4 [15, 1, 5, 1]
00000000: 927d 70be 0bc7 af3e 2317 aebe 20a1 173e
00000010: b9fd 013e da1a 80be 9bd4 d93e 02e7 79be
00000020: 8425 023e d3b9 0f3e a988 8dbe 327b 56bc
00000030: 2d43 803e a679 38be 76ec 69be ebc4 7a3e
00000040: d6e1 73be bc5c 873e 35a8 983e af56 6abe
00000050: 4073 5d3e e6bc babe 8bf5 843d db5d 13be
00000060: 1f34 023e cfb3 e73e f8d1 e23e e748 763e
00000070: ba1b fb3d 29c7 8dbe ad9c 7fbe ea5b af3e
00000080: c006 013f b5d3 87bd fc8f 2dbe cde9 aebe
00000090: 8fa7 93be c757 d53e 53be a93e 5cf1 b4be
000000a0: cc85 293e e24e 8c3c b72d da3e cb85 6a3e
000000b0: 4783 a7be a802 d2be ea67 dcbd a092 91bd
000000c0: fb40 aa3e de83 c93e cc44 ccbd 0866 ac3e
000000d0: 8a92 a53e 4ad5 753e 015d efbe 3d43 0fbd
000000e0: bde4 873b 35de b23e 7fa4 f1be b34d 103e
000000f0: c15d 75be b275 8d3e ce70 703d a00f b83e
00000100: 28fc 4c3e 88ea c9be b209 9abc 5708 df3d
00000110: 2605 e8bd 4248 0ebd 497b 9c3e d1eb 653e
00000120: 006e b03e 551a 983e cf08 c73e
-0.23485401 0.34331545 -0.34002027 0.14807558 0.12694444 -0.25020486 0.42545018 -0.24404529
0.12709624 0.1403573 -0.27643326 -0.0130908955 0.2505125 -0.18015155 -0.22844109 0.2448918
-0.23816618 0.26437938 0.29815832 -0.2288463 0.21625996 -0.36472243 0.06492146 -0.14391272
0.12715195 0.4525437 0.44300818 0.24051248 0.12261148 -0.2769101 -0.24962111 0.34249812
0.50400925 -0.06632177 -0.16949457 -0.3416275 -0.28838775 0.4166853 0.33153018 -0.35340393
0.16554946 0.017127458 0.42613003 0.229026 -0.32717344 -0.41017652 -0.107620075 -0.071080446
0.332527 0.3935842 -0.099740595 0.33671594 0.32338363 0.24007145 -0.46750644 -0.034976233
0.004147141 0.34935156 -0.47195813 0.1409214 -0.23961546 0.27628857 0.05870133 0.3594942
0.20018065 -0.39436746 -0.018803451 0.108902626 -0.11329107 -0.03473688 0.3056281 0.22453238
0.34458923 0.2970759 0.38873908

encoder2.0.bias f4 [15]
00000000: 269f 463e 538b cb3e 0cd7 ba3e 5e06 363e
00000010: 20f9 65be fa9a babe 94ff 00be f15e e1be
00000020: 9d41 d13e 83cb 48bd 5fca bebe 3255 843e
00000030: d75d 5f3e 5a90 7b3d c07f 853d
0.19396648 0.39754733 0.36492193 0.17775866 -0.22458315 -0.36446363 -0.12597495 -0.44017747
0.4087037 -0.04902221 -0.37263772 0.2584625 0.21813141 0.06141696 0.06518507

decoder2.0.weight f4 [15, 1, 5, 1]
00000000: 66c6 a63e b6e9 bdbe 6fe3 88bd a71c c9be
00000010: ea21 abbe f8b2 ecbe de4a 453e 4291 723c
00000020: f668 2bbe f18b b73e 041e 6f3e 8463 bc3e
00000030: af88 7fbe e93d c7be c23d 5abe 4785 c3be
00000040: ee53 8c3e 4d5e 2e3e a45a b13e 3bb8 cb3d
00000050: fe72 f2bd e894 923e 3b02 223c d84a 103e
00000060: 57de dbbd 114c 3abd c1b0 283c f2d1 d23e
00000070: 6a79 b83e 5a5e d03e f18f 953e cbce 0f3e
00000080: fa2a 813e d477 1f3e 6917 b0bd a455 b43d
00000090: 8a56 c83e 2622 bc3d 9a60 a83d 2e4c 58be
000000a0: 037c 8ebe 45f6 70be e155 1e3e 2a9d 64be
000000b0: 90aa 81be 8f38 e73d 2315 e8be 0089 f73d
000000c0: 6b02 193e f5e3 72bd 98e8 713b ee41 87bd
000000d0: 716b 15be 39f4 b83d 3bdb 19be d2b1 c3be
000000e0: 4bf3 1cbe 1096 843c f80b 05bc 3996 833e
000000f0: 8b90 2abd 02df a43e 3685 933e 209e 60bd
00000100: fa28 9ebe 83cb 00bd f6de 36be 9e0f bf3e
00000110: bd58 0d3e bd10 ff3d d743 963c cdb1 44bc
00000120: 4eb5 89be a482 c73e abc0 b13d
0.3257324 -0.3709237 -0.066840045 -0.39279673 -0.33424312 -0.46230292 0.19266841 0.01480514
-0.16739258 0.35848954 0.23351294 0.36794674 -0.24954484 -0.3891442 -0.21312621 -0.3818762
0.27407783 0.1702816 0.34639466 0.099472485 -0.11838339 0.2862923 0.009888227 0.1409105
-0.10735767 -0.0454827 0.010296048 0.411758 0.36030132 0.40696985 0.2921138 0.14043729
0.252281 0.15573055 -0.08598215 0.08805397 0.39128524 0.09186201 0.0822155 -0.2112281
-0.27828988 -0.23531444 0.15462448 -0.22325578 -0.2532544 0.112900846 -0.45328626 0.120866776
0.14942329 -0.059299428 0.0036912318 -0.06604372 -0.14591767 0.09030957 -0.15025036 -0.38221604
-0.15327184 0.016184837 -0.008120529 0.25700548 -0.041641753 0.3220139 0.2881257 -0.0548383
-0.30890638 -0.031444084 -0.1785849 0.37316602 0.13803382 0.124543644 0.018342895 -0.012005282
-0.26896137 0.38966858 0.086793266

encoder3.0.weight f4 [15, 1, 5, 1]
00000000: f5af c33e 7812 8c3d 7d33 4dbd 5c7e 50be
00000010: 9b2a 113e 59a5 f83d 146c cf3d e2e5 ddbe
00000020: 4fbc 27bd 509c 813e 5c1a 9abc 67b8 c23e
00000030: 98ed 193e 8216 20be 7a68 b6bc 147f 9bbd
00000040: 2009 27bd 6557 97be 7e8b 4fbe 25b1 463e
00000050: ef96 cebd dd4a bb3e ccc9 923e 001e 8ebe
00000060: a4fc 6ebe 547f 2f3e 1297 bd3e 4bb6 edbc
00000070: 8ef0 513e 2d65 e9be 9d08 c3be f77e 243e
00000080: 61a5 a8be 44a4 9c3e 7712 b63e 0f13 edbe
00000090: 72b8 7ebe f807 af3e f210 4dbd a7e5 0cbe
000000a0: 3ca4 863e 2ddb 56be 98fa fe3d 33bb c13e
000000b0: 3c72 d33e 2555 85be c46c b2be 9f15 b6be
000000c0: 8692 d8be 7308 963e 37a0 1f3c d143 cb3e
000000d0: 0d9f 82be 4645 b03e 6c77 2b3e ed37 0d3e
000000e0: d8a4 9d3e 639e 39be 0544 86bd 8242 103e
000000f0: 8991 5ebe d4a7 10be 39c5 523e 9717 b23e
00000100: de91 aa3e 904c c9bc bba2 c23e d5bc 4b3e
00000110: 7e39 94be cbfe b23e 8f80 58be ef74 273e
00000120: 5b9a 6dbe 27af 893e b2b1 bb3e
0.38220182 0.0683946 -0.05009793 -0.20360702 0.14176409 0.121409126 0.10128036 -0.4333945
-0.04095107 0.2531457 -0.018811397 0.38031313 0.15032041 -0.15633586 -0.022266615 -0.075925976
-0.040780187 -0.29558864 -0.20268056 0.19403513 -0.10087382 0.36580554 0.28669584 -0.27757263
-0.23338562 0.17138416 0.3702932 -0.029017588 0.2050192 -0.45585003 -0.3809251 0.16064058
-0.32938674 0.30594075 0.35560963 -0.46303603 -0.24875048 0.34185767 -0.05006499 -0.1375948
0.26297176 -0.20982046 0.12450141 0.37838134 0.4129809 -0.26041523 -0.34848607 -0.3556337
-0.4229929 0.2930332 0.009742788 0.39700177 -0.2551197 0.3442785 0.16744775 0.13790865
0.30789828 -0.18126826 -0.065559424 0.1408787 -0.21735205 -0.14126521 0.20583047 0.34783623
0.33314413 -0.02457264 0.38014778 0.19896252 -0.28950113 0.34960017 -0.21142791 0.163532
-0.23203413 0.26891443 0.36659008

decoder3.0.weight f4 [15, 1, 5, 1]
00000000: 27c6 db3e 0100 c7bd f055 4ebd 3263 9d3e
00000010: e764 d73d 7df4 d0be 5eff a83e e17b a1bc
00000020: b802 e7be df44 a93e cf2e 6fbe 7355 f93e
00000030: dd9b c93e 2203 8abe 1403 90be d31e b63e
00000040: 86ab a6be 7a58 ac3e a576 d7bd 3d5c d23e
00000050: 3a70 153e 9594 743d 4fd5 7f3e d26f b9be
00000060: 66fe a1be 8c13 8dbd 6ed4 c8be 762c 233e
00000070: e6e1 fb3e 14ff cfbe e1ee 69bc 2513 8a3e
00000080: ae97 683d 5d35 13be 7969 27bd 0ae3 acbe
00000090: fcad 013e 898a d23d 1133 70be 1672 823e
000000a0: efce bcbe b935 843e 853f 923e 576f e93e
000000b0: 2e46 e63d c9d3 313d e21d a1be 309f 38be
000000c0: 4de7 e7bc e3d4 c5be 62f3 1cbe 9ae5 31bc
000000d0: c98f 90be a1c1 2e3d 8139 bb3e 5144 953e
000000e0: e904 cdbd ff16 d0be bde1 5fbe 1261 de3e
000000f0: 162b 193c d265 babe 39e5 c9be 91d5 813e
00000100: 902f 8ebe aa49 bb3e 2f4d 963e 80f5 9e3e
00000110: 9f79 283e 3212 72be 34c9 c4be e36e a53e
00000120: d2b5 34be 375c 5bbe 8a99 733e
0.42924616 -0.097167976 -0.050374925 0.30739743 0.105172925 -0.4081153 0.3300733 -0.01971239
-0.45119262 0.33060357 -0.233577 0.48698005 0.39376727 -0.26955515 -0.28127348 0.35570392
-0.32552737 0.33661252 -0.105206765 0.41085997 0.14593592 0.05971201 0.24983715 -0.36218125
-0.31639403 -0.06888494 -0.3922457 0.15934929 0.49195784 -0.40624297 -0.014278145 0.2696773
0.056785278 -0.14375825 -0.04087207 -0.33766967 0.12664026 0.1028033 -0.2345698 0.25477666
-0.36876628 0.25822237 0.28564087 0.45592758 0.112438545 0.043414865 -0.3146811 -0.18029475
-0.028308535 -0.38638982 -0.15327218 -0.010857964 -0.282347 0.042665128 0.3656731 0.29153684
-0.10010702 -0.40642545 -0.21863456 0.43433434 0.009348651 -0.36405808 -0.39432696 0.2535825
-0.27770662 0.3657964 0.2935576 0.31046677 0.16452645 -0.23639753 -0.38434756 0.32311162
-0.17647484 -0.21421896 0.23789039
