pre_train_models/GBM.pth (torch, 305227 bytes, 9 tensors)

weight f4 [274, 274]
000000 17 b7 d1 38 17 b7 d1 38 17 b7 d1 38 17 b7 d1 38
       1e-04 1e-04 1e-04 1e-04
000010 17 b7 d1 38 17 b7 d1 38 17 b7 d1 38 17 b7 d1 38
       1e-04 1e-04 1e-04 1e-04
000020 17 b7 d1 38 17 b7 d1 38 17 b7 d1 38 17 b7 d1 38
       1e-04 1e-04 1e-04 1e-04
000030 17 b7 d1 38 17 b7 d1 38 17 b7 d1 38 17 b7 d1 38
       1e-04 1e-04 1e-04 1e-04
000040 17 b7 d1 38 17 b7 d1 38 17 b7 d1 38 17 b7 d1 38
       1e-04 1e-04 1e-04 1e-04
000050 17 b7 d1 38 17 b7 d1 38 17 b7 d1 38 17 b7 d1 38
       1e-04 1e-04 1e-04 1e-04
000060 17 b7 d1 38 17 b7 d1 38 17 b7 d1 38 17 b7 d1 38
       1e-04 1e-04 1e-04 1e-04
000070 17 b7 d1 38 17 b7 d1 38 17 b7 d1 38 17 b7 d1 38
       1e-04 1e-04 1e-04 1e-04
000080 17 b7 d1 38 17 b7 d1 38 17 b7 d1 38 17 b7 d1 38
       1e-04 1e-04 1e-04 1e-04
000090 17 b7 d1 38 17 b7 d1 38 17 b7 d1 38 17 b7 d1 38
       1e-04 1e-04 1e-04 1e-04
0000a0 17 b7 d1 38 17 b7 d1 38 17 b7 d1 38 17 b7 d1 38
       1e-04 1e-04 1e-04 1e-04
0000b0 17 b7 d1 38 17 b7 d1 38 17 b7 d1 38 17 b7 d1 38
       1e-04 1e-04 1e-04 1e-04
0000c0 17 b7 d1 38 17 b7 d1 38 17 b7 d1 38 17 b7 d1 38
       1e-04 1e-04 1e-04 1e-04
0000d0 17 b7 d1 38 17 b7 d1 38 17 b7 d1 38 17 b7 d1 38
       1e-04 1e-04 1e-04 1e-04
0000e0 17 b7 d1 38 17 b7 d1 38 17 b7 d1 38 17 b7 d1 38
       1e-04 1e-04 1e-04 1e-04
0000f0 17 b7 d1 38 17 b7 d1 38 17 b7 d1 38 17 b7 d1 38
       1e-04 1e-04 1e-04 1e-04
000100 17 b7 d1 38 17 b7 d1 38 17 b7 d1 38 17 b7 d1 38
       1e-04 1e-04 1e-04 1e-04
000110 17 b7 d1 38 17 b7 d1 38 17 b7 d1 38 17 b7 d1 38
       1e-04 1e-04 1e-04 1e-04
000120 17 b7 d1 38 17 b7 d1 38 17 b7 d1 38 17 b7 d1 38
       1e-04 1e-04 1e-04 1e-04
000130 17 b7 d1 38 17 b7 d1 38 17 b7 d1 38 17 b7 d1 38
       1e-04 1e-04 1e-04 1e-04
000140 17 b7 d1 38 17 b7 d1 38 17 b7 d1 38 17 b7 d1 38
       1e-04 1e-04 1e-04 1e-04
000150 17 b7 d1 38 17 b7 d1 38 17 b7 d1 38 17 b7 d1 38
       1e-04 1e-04 1e-04 1e-04
000160 17 b7 d1 38 17 b7 d1 38 17 b7 d1 38 17 b7 d1 38
       1e-04 1e-04 1e-04 1e-04
000170 17 b7 d1 38 17 b7 d1 38 17 b7 d1 38 17 b7 d1 38
       1e-04 1e-04 1e-04 1e-04
000180 17 b7 d1 38 17 b7 d1 38 17 b7 d1 38 17 b7 d1 38
       1e-04 1e-04 1e-04 1e-04
000190 17 b7 d1 38 17 b7 d1 38 17 b7 d1 38 17 b7 d1 38
       1e-04 1e-04 1e-04 1e-04
0001a0 17 b7 d1 38 17 b7 d1 38 17 b7 d1 38 17 b7 d1 38
       1e-04 1e-04 1e-04 1e-04
0001b0 17 b7 d1 38 17 b7 d1 38 17 b7 d1 38 17 b7 d1 38
       1e-04 1e-04 1e-04 1e-04
0001c0 17 b7 d1 38 17 b7 d1 38 17 b7 d1 38 17 b7 d1 38
       1e-04 1e-04 1e-04 1e-04
0001d0 17 b7 d1 38 17 b7 d1 38 17 b7 d1 38 17 b7 d1 38
       1e-04 1e-04 1e-04 1e-04
0001e0 17 b7 d1 38 17 b7 d1 38 17 b7 d1 38 17 b7 d1 38
       1e-04 1e-04 1e-04 1e-04
0001f0 17 b7 d1 38 17 b7 d1 38 17 b7 d1 38 17 b7 d1 38
       1e-04 1e-04 1e-04 1e-04
000200 17 b7 d1 38 17 b7 d1 38 17 b7 d1 38 17 b7 d1 38
       1e-04 1e-04 1e-04 1e-04
000210 17 b7 d1 38 17 b7 d1 38 17 b7 d1 38 17 b7 d1 38
       1e-04 1e-04 1e-04 1e-04
000220 17 b7 d1 38 17 b7 d1 38 17 b7 d1 38 17 b7 d1 38
       1e-04 1e-04 1e-04 1e-04
000230 17 b7 d1 38 17 b7 d1 38 17 b7 d1 38 17 b7 d1 38
       1e-04 1e-04 1e-04 1e-04
000240 17 b7 d1 38 17 b7 d1 38 17 b7 d1 38 17 b7 d1 38
       1e-04 1e-04 1e-04 1e-04
000250 17 b7 d1 38 17 b7 d1 38 17 b7 d1 38 17 b7 d1 38
       1e-04 1e-04 1e-04 1e-04
000260 17 b7 d1 38 17 b7 d1 38 17 b7 d1 38 17 b7 d1 38
       1e-04 1e-04 1e-04 1e-04
000270 17 b7 d1 38 17 b7 d1 38 17 b7 d1 38 17 b7 d1 38
       1e-04 1e-04 1e-04 1e-04
000280 17 b7 d1 38 17 b7 d1 38 17 b7 d1 38 17 b7 d1 38
       1e-04 1e-04 1e-04 1e-04
000290 17 b7 d1 38 17 b7 d1 38 17 b7 d1 38 17 b7 d1 38
       1e-04 1e-04 1e-04 1e-04
0002a0 17 b7 d1 38 17 b7 d1 38 17 b7 d1 38 17 b7 d1 38
       1e-04 1e-04 1e-04 1e-04
0002b0 17 b7 d1 38 17 b7 d1 38 17 b7 d1 38 17 b7 d1 38
       1e-04 1e-04 1e-04 1e-04
0002c0 17 b7 d1 38 17 b7 d1 38 17 b7 d1 38 17 b7 d1 38
       1e-04 1e-04 1e-04 1e-04
0002d0 17 b7 d1 38 17 b7 d1 38 17 b7 d1 38 17 b7 d1 38
       1e-04 1e-04 1e-04 1e-04
0002e0 17 b7 d1 38 17 b7 d1 38 17 b7 d1 38 17 b7 d1 38
       1e-04 1e-04 1e-04 1e-04
0002f0 17 b7 d1 38 17 b7 d1 38 17 b7 d1 38 17 b7 d1 38
       1e-04 1e-04 1e-04 1e-04
000300 17 b7 d1 38 17 b7 d1 38 17 b7 d1 38 17 b7 d1 38
       1e-04 1e-04 1e-04 1e-04
000310 17 b7 d1 38 17 b7 d1 38 17 b7 d1 38 17 b7 d1 38
       1e-04 1e-04 1e-04 1e-04
000320 17 b7 d1 38 17 b7 d1 38 17 b7 d1 38 17 b7 d1 38
       1e-04 1e-04 1e-04 1e-04
000330 17 b7 d1 38 17 b7 d1 38 17 b7 d1 38 17 b7 d1 38
       1e-04 1e-04 1e-04 1e-04
000340 17 b7 d1 38 17 b7 d1 38 17 b7 d1 38 17 b7 d1 38
       1e-04 1e-04 1e-04 1e-04
000350 17 b7 d1 38 17 b7 d1 38 17 b7 d1 38 17 b7 d1 38
       1e-04 1e-04 1e-04 1e-04
000360 17 b7 d1 38 17 b7 d1 38 17 b7 d1 38 17 b7 d1 38
       1e-04 1e-04 1e-04 1e-04
000370 17 b7 d1 38 17 b7 d1 38 17 b7 d1 38 17 b7 d1 38
       1e-04 1e-04 1e-04 1e-04
000380 17 b7 d1 38 17 b7 d1 38 17 b7 d1 38 17 b7 d1 38
       1e-04 1e-04 1e-04 1e-04
000390 17 b7 d1 38 17 b7 d1 38 17 b7 d1 38 17 b7 d1 38
       1e-04 1e-04 1e-04 1e-04
0003a0 17 b7 d1 38 17 b7 d1 38 17 b7 d1 38 17 b7 d1 38
       1e-04 1e-04 1e-04 1e-04
0003b0 17 b7 d1 38 17 b7 d1 38 17 b7 d1 38 17 b7 d1 38
       1e-04 1e-04 1e-04 1e-04
0003c0 17 b7 d1 38 17 b7 d1 38 17 b7 d1 38 17 b7 d1 38
       1e-04 1e-04 1e-04 1e-04
0003d0 17 b7 d1 38 17 b7 d1 38 17 b7 d1 38 17 b7 d1 38
       1e-04 1e-04 1e-04 1e-04
0003e0 17 b7 d1 38 17 b7 d1 38 17 b7 d1 38 17 b7 d1 38
       1e-04 1e-04 1e-04 1e-04
0003f0 17 b7 d1 38 17 b7 d1 38 17 b7 d1 38 17 b7 d1 38
       1e-04 1e-04 1e-04 1e-04

encoder1.0.weight f4 [15, 1, 5, 1]
000000 d6 8f 21 be 00 96 ce be aa 4c 1a be 56 23 a9 bb
       -0.15777525 -0.40348816 -0.15068308 -0.005161683
000010 7c 4f a6 3e c5 56 e0 3e 64 30 9f be 0e 6e 95 be
       0.32482517 0.438162 -0.31091607 -0.29185528
000020 ca f2 66 3e 88 45 b9 be 3f 75 dd 3e e2 5e 6b 3c
       0.22553554 -0.3618586 0.43253514 0.014365884
000030 e0 d7 ee 3d 0c 94 a4 3e 45 7e 9c bd b1 e3 71 bd
       0.11662269 0.321442 -0.076412715 -0.059055034
000040 ff 68 b2 3e 7e 3d a4 be 11 6b 15 3e 31 ed cf 3e
       0.3484573 -0.32078165 0.14591624 0.4061065
000050 67 d9 e4 3e f9 e9 c0 3e 3a 9f 97 3e 58 92 c0 bd
       0.44697115 0.37678507 0.29613668 -0.09402913
000060 f7 c8 0d 3e 89 f9 78 3e fc c3 87 be f9 cb 6c be
       0.13846193 0.2431394 -0.26516712 -0.23124684
000070 45 41 ba be ca 8d a4 3e d2 ef e4 be 81 d7 c6 be
       -0.36377922 0.32139426 -0.44714218 -0.3883629
000080 31 39 8c be 06 d8 99 be 67 45 0e 3e 18 d3 dc 3e
       -0.27387384 -0.30047625 0.13893662 0.43129802
000090 1e 80 b5 bd fe 53 86 be 43 00 c0 3e ba 01 e0 bd
       -0.08862327 -0.26235956 0.375002 -0.10937829
0000a0 c4 7e 1d 3e 6c bd 4a 3e ae ef 3b 3d 18 d0 8f 3e
       0.15380388 0.19798821 0.045882873 0.2808845
0000b0 8c fc c2 3d 6f 9f 91 be 72 13 37 3a 9d b4 2e be
       0.09520826 -0.2844195 0.00069837936 -0.17061086
0000c0 b6 81 86 be 62 42 c4 be cb d3 f9 3e 19 68 ac 3d
       -0.26270837 -0.38331896 0.48794398 0.084182926
0000d0 a8 5e a9 bb 4c 2e 4d bd b2 8d 28 be d0 ad 09 be
       -0.0051687546 -0.05009298 -0.16460302 -0.1344521
0000e0 91 d5 86 3e 90 cd 4d bd 8b b0 23 3e 0b e9 a7 bd
       0.26334813 -0.050244868 0.15985315 -0.08198746
0000f0 07 49 af 3e 3d 59 6b 3c 11 c5 64 be c4 06 a7 bd
       0.34235403 0.014364538 -0.223408 -0.08155587
000100 5d 9b 8f 3d ef 5c bc 3c 10 62 af bd bb c8 cd be
       0.07012055 0.022993533 -0.08563626 -0.40192208
000110 be 3b 7d bd aa 29 7d be 52 01 f6 bd 51 53 a4 3e
       -0.061824553 -0.24722925 -0.120119706 0.32094815
000120 a5 e5 3b 3c c4 04 34 be e6 ca bd bd
       0.011468326 -0.17579943 -0.092672154

encoder1.0.bias f4 [15]
000000 7a 65 ca bc 4b 84 cb be f0 03 4d be 34 d7 25 be
       -0.02470659 -0.3974937 -0.20021033 -0.16195375
000010 f3 03 ef 3e 22 1f b2 3e 08 69 03 be db 81 22 be
       0.466827 0.34789377 -0.12833035 -0.15869848
000020 50 c4 79 3e f0 08 e7 be 69 0d ca 3e 1d 82 da be
       0.24391294 -0.45124006 0.39463356 -0.42677394
000030 f0 cd c7 3e 71 00 1f be 6b 2c a1 be
       0.39024305 -0.15527512 -0.314792

decoder1.0.weight f4 [15, 1, 5, 1]
000000 5a da 8b bd 21 69 cf be ac e0 73 be 1f b8 e5 3d
       -0.06828757 -0.40509894 -0.23816174 0.11216759
000010 8b c4 f3 3d 16 7e 1f bc e9 56 93 bd fc 32 96 be
       0.11902722 -0.009734651 -0.07194311 -0.29335773
000020 e8 12 4c bd 2f ae dc be e9 78 e6 3e 92 dc e9 3b
       -0.049822718 -0.43101642 0.45014122 0.0071368897
000030 94 6e 44 be 0e 1f 17 be cf ce 51 be ad c0 7d 3e
       -0.19182807 -0.1475794 -0.20489047 0.24780531
000040 e7 9c 2c 3e bb 08 0b be 0b a0 d0 3d 9d d9 a1 3e
       0.16856728 -0.13577549 0.10186776 0.31611338
000050 42 b7 82 3e c9 e5 c0 3e 69 7d 47 3e c4 29 af be
       0.2553044 0.37675312 0.19481434 -0.34211552
000060 be af b8 3d 7c 17 50 3e 71 b9 4b bc 6b ea a9 3e
       0.09017895 0.20321459 -0.012434349 0.3318666
000070 b8 5a 13 3e 71 58 8b bd 89 a7 5c be c7 5d 4a bd
       0.14390075 -0.06803978 -0.21548285 -0.04940584
000080 29 db e9 be 57 68 fb 3d b4 e1 5b bd b6 41 c9 3e
       -0.45675018 0.122757606 -0.053682044 0.39307946
000090 90 de 6c be a7 67 86 3e b2 28 c0 be 85 6a c0 3e
       -0.23131776 0.26250955 -0.37531048 0.37581268
0000a0 d0 dc 54 be d5 44 d4 3e 63 db 88 3e 9e dc c3 3e
       -0.20787358 0.41458765 0.2672988 0.38254255
0000b0 14 bf 0b 3d 51 1b 53 be 88 a8 44 bd d7 39 b5 be
       0.034117773 -0.20615889 -0.048012286 -0.3539569
0000c0 cc 6b e6 3d 5a c5 bb 3d 8d 68 ed 3e a1 d0 a3 be
       0.11251029 0.09168501 0.46368828 -0.3199511
0000d0 f7 be 64 be 3b 28 a9 bc 60 fc ae be e7 fb c6 3d
       -0.22338472 -0.020649066 -0.34176922 0.09716015
0000e0 ca 7b 88 3e b2 4d 60 3e aa c1 67 be 94 b1 55 be
       0.26656944 0.21904638 -0.2263247 -0.20868522
0000f0 79 05 8e be 11 76 82 3e e5 d9 8d bc 5f d9 b8 3e
       -0.2773855 0.25480703 -0.017315814 0.3610334
000100 cc f6 d6 3e ec 73 bf 3e 5d 4f 9b be ea 2e df bd
       0.41985166 0.3739313 -0.30333987 -0.1089762
000110 ea 9a ee be 9d 84 8d bc 6b 64 0c 3e e1 ab 62 3e
       -0.46602565 -0.017275149 0.13710181 0.22135879
000120 9c be 93 bd ea 85 15 3e d5 d7 23 bd
       -0.0721409 0.14601865 -0.040000755

encoder2.0.weight f4 [15, 1, 5, 1]
000000 29 05 3d be 64 95 93 bd 7f be 89 3d 10 05 df bd
       -0.18459 -0.072062284 0.06725787 -0.108896375
000010 29 e7 c5 3e d8 00 b9 be 53 af 52 3d 9e 18 04 be
       0.38652924 -0.36133456 0.051436733 -0.12900016
000020 05 70 9b bd 27 d9 c8 3e 3d 3b 59 be 51 65 6e 3e
       -0.075897254 0.39228174 -0.21214004 0.23280837
000030 40 f1 83 bd 3b 75 97 3e af 9c a8 be 6c 77 bd be
       -0.06442499 0.29581627 -0.3293204 -0.37005174
000040 93 4e 03 bc 27 d8 1b 3e e1 e5 84 3d da f3 5c 3e
       -0.008014339 0.15219174 0.064891584 0.21577397
000050 ed 4a 25 3e 9c b6 1d 3c bc 9c f8 3d 25 6c 9d be
       0.16141863 0.009626057 0.1213927 -0.3074657
000060 ee 3b 08 3e 04 63 15 ba 3b d0 c7 be 1d cb ab 3e
       0.13304111 -0.00056986534 -0.39026055 0.335534
000070 e6 b6 c6 be c4 d8 20 3e 11 d4 29 bd ac dc 83 3e
       -0.38811415 0.1570769 -0.041462008 0.25754297
000080 8c c7 0b be 5b 4c 85 be cb 88 ac be 5c 13 15 be
       -0.1365034 -0.26034817 -0.33698115 -0.14558166
000090 4c b8 57 be 49 9c cd be 84 4f f7 3c 2a 95 a9 3c
       -0.21066397 -0.401583 0.030189283 0.02070101
0000a0 d4 e4 49 3e ad 52 60 3e 2e 56 97 3e 02 23 e8 3d
       0.19716197 0.21906538 0.29557937 0.11334802
0000b0 5d 35 c3 be 19 c6 6c 3e 06 25 7c 3e f4 28 35 3d
       -0.3812665 0.23122443 0.24623498 0.04422851
0000c0 99 7b 4e bc f9 63 5b be 7c 91 48 3c 34 02 0d 3e
       -0.01260271 -0.21424855 0.012241717 0.13770372
0000d0 ba ab a7 3d f5 29 5f 3e be 94 93 3d cc e0 97 3e
       0.08187051 0.21793349 0.07206105 0.29663694
0000e0 62 22 db 3d f7 c1 f2 be 71 12 09 bd 1e 82 d0 bd
       0.106999174 -0.47413608 -0.033464853 -0.10181068
0000f0 55 aa 30 bc a7 f5 46 be 58 1b 80 3e c9 47 f9 3e
       -0.010782798 -0.19429646 0.25020862 0.4868758
000100 99 c6 46 3e d5 91 b8 be 3f 47 ee be 01 8d 70 3d
       0.19411696 -0.3604876 -0.4653873 0.05872822
000110 1d a1 c1 3e 97 30 36 be 11 3d a0 be d8 c9 56 3e
       0.37818232 -0.17791973 -0.3129659 0.20975435
000120 4d d2 4c be ae 92 4d 3e f2 db f6 3e
       -0.20002098 0.20075485 0.4821468

encoder2.0.bias f4 [15]
000000 dd 8b cc be ed 18 a2 be e7 44 38 3e 03 ef b6 3e
       -0.39950457 -0.31659642 0.17995034 0.35729226
000010 c9 7b 8a 3d 1d f1 ec be 66 94 6c be 89 59 81 3e
       0.067618914 -0.46277705 -0.23103485 0.25263622
000020 76 47 b3 3e 9d 37 8e be 89 e6 93 be 36 fc a6 3e
       0.35015458 -0.27776805 -0.28886822 0.32614297
000030 c2 62 08 3d 08 a1 db bc 41 d3 ec 3d
       0.033297308 -0.026810184 0.11563731

decoder2.0.weight f4 [15, 1, 5, 1]
000000 3f 49 8e 3c 3a 4d 29 3e 5f 40 fd bd 68 47 5e 3e
       0.01736891 0.16533366 -0.123657934 0.21706927
000010 50 57 3d 3d c2 bb f5 be 0b 54 ad be 28 02 11 be
       0.046225846 -0.4799481 -0.33853182 -0.14160979
000020 0e 40 8f 3e 78 60 85 3d a7 eb 65 bd 2e 0c c2 3e
       0.27978557 0.065125406 -0.05613294 0.37899917
000030 57 51 cc 3e d4 94 2f 3e 02 f0 33 3e 13 08 1b be
       0.39905807 0.17146617 0.17572024 -0.15139799
000040 02 b1 9d 3e aa 5f 0a be 21 bc be 3e ef 3e 6a 3c
       0.3079911 -0.13513055 0.37252906 0.014297231
000050 f9 ea 3c be af a1 86 bd 7f 0b be be 49 1a da 3c
       -0.1844901 -0.065738074 -0.37118146 0.026623862
000060 6c 9e 58 3e b0 c2 bd be 9f fe ea bb e1 59 ad 3e
       0.21154183 -0.37062597 -0.0071714665 0.33857635
000070 17 10 37 3e 1d 41 a1 3e da 4d 89 3e 7f 37 91 3e
       0.17877232 0.3149499 0.2681721 0.28362653
000080 9a 22 84 3e 3e 08 a6 3e 62 f5 a1 3e 58 96 13 be
       0.2580765 0.32428163 0.31632525 -0.1441282
000090 45 76 21 3e 34 4c 06 be 44 ec 8e 3e b5 0f 0b 3e
       0.15767772 -0.13115007 0.2791463 0.1358021
0000a0 5e b0 8f be 5f ad 66 be 8f a1 40 3d 0a 2c 87 3e
       -0.28064245 -0.22527073 0.047029074 0.26400787
0000b0 09 a8 9e 3e b8 b1 c0 3d 6b ec 0f 3e 08 39 c7 be
       0.30987576 0.09408897 0.1405503 -0.389107
0000c0 3b 53 83 be 24 73 7c be 6b 33 84 3e e3 90 d6 3e
       -0.25649437 -0.24653298 0.2582048 0.41907415
0000d0 4e f2 f6 3e 71 f8 c3 3d a7 2d 97 be 5d 1b 9e be
       0.4823174 0.09568871 -0.29527017 -0.30880252
0000e0 c6 00 d0 be bb 0d dc be 44 18 31 be ef 90 ae be
       -0.4062559 -0.42979226 -0.17294413 -0.3409495
0000f0 36 b8 8c 3e 9b 35 8a 3d 29 1c d8 3e a7 24 55 3e
       0.27484292 0.06748506 0.42208984 0.20814763
000100 c3 49 1f bd ed 70 66 be 49 35 97 be b7 23 8d bd
       -0.038888704 -0.22504015 -0.2953284 -0.06891578
000110 c6 ec 24 3e de 35 e5 be ae 39 36 3e de e9 b9 3e
       0.16105947 -0.4476766 0.1779544 0.3631124
000120 d1 ad 91 3e a0 81 7e bc dc f5 a6 3d
       0.28452924 -0.015533835 0.08152363

encoder3.0.weight f4 [15, 1, 5, 1]
000000 76 fb 1d 3e 3d 3f cd bd 98 64 7e 3e 59 e3 4a 3e
       0.15427956 -0.10021827 0.24843061 0.19813289
000010 ae b0 7b 3e f5 56 32 be f7 06 5b 3e 41 df b3 be
       0.24579117 -0.17415984 0.21389376 -0.35131267
000020 2f 4f cb be 46 fd e0 3b af 7f 8c be 20 ca 98 3e
       -0.3970885 0.00686613 -0.27441165 0.2984171
000030 0c 14 8d 3c e0 bd 21 3e 75 24 a8 bd 1c 56 ef 3e
       0.017221473 0.15795088 -0.082100786 0.46745384
000040 98 fe 15 be 34 70 43 3e 58 78 80 bd b7 15 40 3e
       -0.14647901 0.19085771 -0.06272954 0.18758284
000050 d2 07 d1 be 4c a5 cb be 5a df 39 be b2 ec c2 be
       -0.4082628 -0.3977455 -0.18151608 -0.3807121
000060 a4 f7 22 bd f4 72 54 be ed e1 d8 3e 59 1b d7 3c
       -0.03978695 -0.20746976 0.42359868 0.026258158
000070 97 fb 0d be eb 3c 8d be cb 1c e0 3e a8 d6 67 be
       -0.13865505 -0.2758554 0.43771967 -0.22640479
000080 73 72 a6 3e 63 91 81 be 74 a7 10 3e b7 6a 98 be
       0.32509193 -0.25306234 0.14126378 -0.29768917
000090 6b 1f d0 be dc 8b c5 3e d7 28 9d be 89 f2 7a be
       -0.4064897 0.38583267 -0.3069522 -0.24506582
0000a0 3a db da 3e d9 1c b8 bd 63 0b ba be 5f 75 c4 be
       0.42745382 -0.08989877 -0.36336812 -0.38370797
0000b0 db 62 12 be af 58 13 be 2c ee a1 be 4b 65 46 3e
       -0.14295523 -0.14389299 -0.31627023 0.19374578
0000c0 13 47 6d 3d bf 73 f1 bd b5 af b5 be 1e ee 15 3e
       0.05792911 -0.11789655 -0.35485616 0.14641616
0000d0 28 a7 8d 3e 0b a7 30 be 39 1d 8a be f1 f6 5e 3e
       0.27666593 -0.17251222 -0.2697542 0.21773888
0000e0 fb d0 76 be 1f 7b e1 3e b9 9b 07 be 12 6d e4 bd
       -0.24103157 0.44039246 -0.13242997 -0.11153616
0000f0 bb d0 a1 3e a9 07 b5 3d 81 27 14 be eb bd d4 be
       0.3160456 0.08839352 -0.14468195 -0.41551146
000100 38 35 27 3d 34 bd 85 be 03 6d ae 3e c0 4d 9f bc
       0.040822238 -0.26120913 0.34067544 -0.019446254
000110 6e f5 88 3e 10 e4 2d be ef 74 b4 bd 13 42 51 be
       0.26749748 -0.1698153 -0.08811366 -0.20435362
000120 2b 2b 88 be ad 05 a2 be f8 f8 1e 3e
       -0.26595435 -0.31644955 0.15524662

decoder3.0.weight f4 [15, 1, 5, 1]
000000 b4 c2 92 3e 99 d5 cd 3e f5 dc f4 3e e1 95 e7 3e
       0.28664172 0.40202025 0.47824827 0.45231536
000010 75 1e ab bc e3 c8 e0 be 24 9d ba 3e 30 13 46 be
       -0.020888546 -0.43903264 0.36448014 -0.19343257
000020 51 82 4b 3d 48 17 39 3e 1a f1 e7 bd bf 39 11 bd
       0.049684826 0.18075287 -0.11325283 -0.03545546
000030 c5 b0 1a 3e 1b 65 7d 3e 50 28 cf be 23 a4 fe 3d
       0.15106495 0.247456 -0.40460443 0.1243365
000040 c4 76 b8 3e 08 0d a3 3c 20 f6 fb bd 95 86 eb 3e
       0.3602811 0.019903675 -0.12302804 0.46001115
000050 b2 32 42 3d a8 1e 10 be 5a d6 b2 3d 88 4e cc be
       0.047411628 -0.14074194 0.087322906 -0.39903665
000060 46 64 80 bd 07 7d c0 be 88 f3 31 3e bf a7 04 be
       -0.06269126 -0.37595388 0.17378056 -0.12954615
000070 af c0 c0 be 5b fe 07 3e 65 7f 3b 3e 2a e4 9b be
       -0.37647006 0.13280623 0.18310316 -0.30447513
000080 b2 63 39 bd d7 92 ef 3d e7 eb e0 3d 91 f9 84 be
       -0.045261092 0.11697929 0.10982495 -0.25971654
000090 cf 93 17 be ed 27 8e be 5e 7d 2a 3e 70 42 2c bd
       -0.14802478 -0.27764836 0.16649386 -0.042055547
0000a0 9e f5 42 3e 97 a0 8d bc 93 fc 97 3e cf 26 4b be
       0.19039008 -0.01728849 0.29684886 -0.19839023
0000b0 de 24 ef 3c 3c 93 ca 3d 18 61 81 be 05 47 14 3e
       0.029192384 0.09891364 -0.2526939 0.14480217
0000c0 a7 3c 19 be ad 0e b0 3c b7 3d b6 be 83 0f c1 3e
       -0.14964543 0.021491373 -0.3559396 0.37707147
0000d0 99 4c 53 be 83 62 f0 be bf 68 ef be 12 2f ee 3d
       -0.20634688 -0.46950158 -0.46759602 0.11630072
0000e0 e1 c1 aa be 27 54 1b 3e fa cd 85 3e 3f e4 b5 bc
       -0.33351043 0.1516882 0.2613371 -0.022203563
0000f0 60 9e af be ee 04 a3 be 68 4b a1 bc 61 b2 42 be
       -0.34300518 -0.318397 -0.019689277 -0.19013359
000100 d0 0e c6 be a5 14 83 be b7 d2 9b 3e 7d 8b 20 be
       -0.38683176 -0.25601688 0.304342 -0.1567821
000110 58 1b c6 be 70 0d b8 3e df 4b 5f 3e 8b c1 83 3e
       -0.38692737 0.35947752 0.21806286 0.257336
000120 be fe 9d be 0f c8 aa be f5 2a b9 3c
       -0.30858415 -0.33355758 0.022603491
