pre_train_models/KIRC.pth (torch, 140299 bytes, 9 tensors)

weight f4 [184, 184]
00000000: 17b7 d138 17b7 d138 17b7 d138 17b7 d138
00000010: 17b7 d138 17b7 d138 17b7 d138 17b7 d138
00000020: 17b7 d138 17b7 d138 17b7 d138 17b7 d138
00000030: 17b7 d138 17b7 d138 17b7 d138 17b7 d138
00000040: 17b7 d138 17b7 d138 17b7 d138 17b7 d138
00000050: 17b7 d138 17b7 d138 17b7 d138 17b7 d138
00000060: 17b7 d138 17b7 d138 17b7 d138 17b7 d138
00000070: 17b7 d138 17b7 d138 17b7 d138 17b7 d138
00000080: 17b7 d138 17b7 d138 17b7 d138 17b7 d138
00000090: 17b7 d138 17b7 d138 17b7 d138 17b7 d138
000000a0: 17b7 d138 17b7 d138 17b7 d138 17b7 d138
000000b0: 17b7 d138 17b7 d138 17b7 d138 17b7 d138
000000c0: 17b7 d138 17b7 d138 17b7 d138 17b7 d138
000000d0: 17b7 d138 17b7 d138 17b7 d138 17b7 d138
000000e0: 17b7 d138 17b7 d138 17b7 d138 17b7 d138
000000f0: 17b7 d138 17b7 d138 17b7 d138 17b7 d138
00000100: 17b7 d138 17b7 d138 17b7 d138 17b7 d138
00000110: 17b7 d138 17b7 d138 17b7 d138 17b7 d138
00000120: 17b7 d138 17b7 d138 17b7 d138 17b7 d138
00000130: 17b7 d138 17b7 d138 17b7 d138 17b7 d138
00000140: 17b7 d138 17b7 d138 17b7 d138 17b7 d138
00000150: 17b7 d138 17b7 d138 17b7 d138 17b7 d138
00000160: 17b7 d138 17b7 d138 17b7 d138 17b7 d138
00000170: 17b7 d138 17b7 d138 17b7 d138 17b7 d138
00000180: 17b7 d138 17b7 d138 17b7 d138 17b7 d138
00000190: 17b7 d138 17b7 d138 17b7 d138 17b7 d138
000001a0: 17b7 d138 17b7 d138 17b7 d138 17b7 d138
000001b0: 17b7 d138 17b7 d138 17b7 d138 17b7 d138
000001c0: 17b7 d138 17b7 d138 17b7 d138 17b7 d138
000001d0: 17b7 d138 17b7 d138 17b7 d138 17b7 d138
000001e0: 17b7 d138 17b7 d138 17b7 d138 17b7 d138
000001f0: 17b7 d138 17b7 d138 17b7 d138 17b7 d138
00000200: 17b7 d138 17b7 d138 17b7 d138 17b7 d138
00000210: 17b7 d138 17b7 d138 17b7 d138 17b7 d138
00000220: 17b7 d138 17b7 d138 17b7 d138 17b7 d138
00000230: 17b7 d138 17b7 d138 17b7 d138 17b7 d138
00000240: 17b7 d138 17b7 d138 17b7 d138 17b7 d138
00000250: 17b7 d138 17b7 d138 17b7 d138 17b7 d138
00000260: 17b7 d138 17b7 d138 17b7 d138 17b7 d138
00000270: 17b7 d138 17b7 d138 17b7 d138 17b7 d138
00000280: 17b7 d138 17b7 d138 17b7 d138 17b7 d138
00000290: 17b7 d138 17b7 d138 17b7 d138 17b7 d138
000002a0: 17b7 d138 17b7 d138 17b7 d138 17b7 d138
000002b0: 17b7 d138 17b7 d138 17b7 d138 17b7 d138
000002c0: 17b7 d138 17b7 d138 17b7 d138 17b7 d138
000002d0: 17b7 d138 17b7 d138 17b7 d138 17b7 d138
000002e0: 17b7 d138 17b7 d138 17b7 d138 17b7 d138
000002f0: 17b7 d138 17b7 d138 17b7 d138 17b7 d138
00000300: 17b7 d138 17b7 d138 17b7 d138 17b7 d138
00000310: 17b7 d138 17b7 d138 17b7 d138 17b7 d138
00000320: 17b7 d138 17b7 d138 17b7 d138 17b7 d138
00000330: 17b7 d138 17b7 d138 17b7 d138 17b7 d138
00000340: 17b7 d138 17b7 d138 17b7 d138 17b7 d138
00000350: 17b7 d138 17b7 d138 17b7 d138 17b7 d138
00000360: 17b7 d138 17b7 d138 17b7 d138 17b7 d138
00000370: 17b7 d138 17b7 d138 17b7 d138 17b7 d138
00000380: 17b7 d138 17b7 d138 17b7 d138 17b7 d138
00000390: 17b7 d138 17b7 d138 17b7 d138 17b7 d138
000003a0: 17b7 d138 17b7 d138 17b7 d138 17b7 d138
000003b0: 17b7 d138 17b7 d138 17b7 d138 17b7 d138
000003c0: 17b7 d138 17b7 d138 17b7 d138 17b7 d138
000003d0: 17b7 d138 17b7 d138 17b7 d138 17b7 d138
000003e0: 17b7 d138 17b7 d138 17b7 d138 17b7 d138
000003f0: 17b7 d138 17b7 d138 17b7 d138 17b7 d138
1e-04 1e-04 1e-04 1e-04 1e-04 1e-04 1e-04 1e-04
1e-04 1e-04 1e-04 1e-04 1e-04 1e-04 1e-04 1e-04
1e-04 1e-04 1e-04 1e-04 1e-04 1e-04 1e-04 1e-04
1e-04 1e-04 1e-04 1e-04 1e-04 1e-04 1e-04 1e-04
1e-04 1e-04 1e-04 1e-04 1e-04 1e-04 1e-04 1e-04
1e-04 1e-04 1e-04 1e-04 1e-04 1e-04 1e-04 1e-04
1e-04 1e-04 1e-04 1e-04 1e-04 1e-04 1e-04 1e-04
1e-04 1e-04 1e-04 1e-04 1e-04 1e-04 1e-04 1e-04
1e-04 1e-04 1e-04 1e-04 1e-04 1e-04 1e-04 1e-04
1e-04 1e-04 1e-04 1e-04 1e-04 1e-04 1e-04 1e-04
1e-04 1e-04 1e-04 1e-04 1e-04 1e-04 1e-04 1e-04
1e-04 1e-04 1e-04 1e-04 1e-04 1e-04 1e-04 1e-04
1e-04 1e-04 1e-04 1e-04 1e-04 1e-04 1e-04 1e-04
1e-04 1e-04 1e-04 1e-04 1e-04 1e-04 1e-04 1e-04
1e-04 1e-04 1e-04 1e-04 1e-04 1e-04 1e-04 1e-04
1e-04 1e-04 1e-04 1e-04 1e-04 1e-04 1e-04 1e-04
1e-04 1e-04 1e-04 1e-04 1e-04 1e-04 1e-04 1e-04
1e-04 1e-04 1e-04 1e-04 1e-04 1e-04 1e-04 1e-04
1e-04 1e-04 1e-04 1e-04 1e-04 1e-04 1e-04 1e-04
1e-04 1e-04 1e-04 1e-04 1e-04 1e-04 1e-04 1e-04
1e-04 1e-04 1e-04 1e-04 1e-04 1e-04 1e-04 1e-04
1e-04 1e-04 1e-04 1e-04 1e-04 1e-04 1e-04 1e-04
1e-04 1e-04 1e-04 1e-04 1e-04 1e-04 1e-04 1e-04
1e-04 1e-04 1e-04 1e-04 1e-04 1e-04 1e-04 1e-04
1e-04 1e-04 1e-04 1e-04 1e-04 1e-04 1e-04 1e-04
1e-04 1e-04 1e-04 1e-04 1e-04 1e-04 1e-04 1e-04
1e-04 1e-04 1e-04 1e-04 1e-04 1e-04 1e-04 1e-04
1e-04 1e-04 1e-04 1e-04 1e-04 1e-04 1e-04 1e-04
1e-04 1e-04 1e-04 1e-04 1e-04 1e-04 1e-04 1e-04
1e-04 1e-04 1e-04 1e-04 1e-04 1e-04 1e-04 1e-04
1e-04 1e-04 1e-04 1e-04 1e-04 1e-04 1e-04 1e-04
1e-04 1e-04 1e-04 1e-04 1e-04 1e-04 1e-04 1e-04

encoder1.0.weight f4 [15, 1, 5, 1]
00000000: c8f1 02be 855f aebd 6bf0 68bc 12a3 80bd
00000010: b532 c6bd 7463 4dbd e188 c13d a23c 56be
00000020: e877 b1be 36dd e8be 351d b6be 6cf5 c03e
00000030: 71a3 c13e 9609 cdbe 1293 c4bd cd04 e4be
00000040: ee06 d13b 71d6 0abe b063 b2be bf9b 0cbe
00000050: 559a 413d 7a80 babe a1f7 a23e 9104 afbe
00000060: 01bd abbd d86c 84be af51 c83e 0c1f de3e
00000070: 1fd4 623e 824c a63e 92d1 24be fbab 52be
00000080: 9b53 bb3e ad5d 983e cc5c 0c3e 2e61 06be
00000090: ab1d d53d b8fc e03c dd50 fdbe 80bf e6bd
000000a0: 4df4 86bd dd33 243d 8654 39be ec22 79bd
000000b0: 4d89 cbbe 503d 513e 7418 f0be 9b16 003d
000000c0: 0832 5cbe 56cf a0bd 490f fcbe 538b c83e
000000d0: 12cd b3be f4f8 c63d 9652 7c3e 422f 093e
000000e0: ecd4 ccbe 1345 72be 6b8c 1a3d 28a8 3bbe
000000f0: 2e1e 373d 3886 b0be a9ac 92bc 13e4 6f3e
00000100: 8638 d1bd 98c5 bc3e 27ea 903e fca9 b43d
00000110: 97dd c83e f124 aebb 79bc 1f3e 82e1 ae3e
00000120: d911 b53e fe80 be3e ca38 17be
-0.12787545 -0.08514313 -0.014217476 -0.06281103 -0.0967764 -0.050143674 0.09449936 -0.20921567
-0.34661794 -0.4548127 -0.35569158 0.37687242 0.37820008 -0.40046376 -0.09598364 -0.44534913
0.006379 -0.13558365 -0.3484168 -0.13731287 0.047266323 -0.36426145 0.3182955 -0.3418317
-0.08385659 -0.2586429 0.3912482 0.43383062 0.2215123 0.32480246 -0.1609557 -0.20573418
0.36587223 0.2975897 0.13707274 -0.13123009 0.10406049 0.027464256 -0.49475756 -0.112669945
-0.065895654 0.040088523 -0.1809865 -0.06082432 -0.3975319 0.20433545 -0.46893656 0.03127156
-0.2150346 -0.07852046 -0.49230412 0.39168796 -0.35117394 0.09715453 0.24640879 0.13396934
-0.40006196 -0.23659162 0.03773157 -0.18325865 0.044706516 -0.344774 -0.017904596 0.23426847
-0.10215859 0.36869502 0.28303644 0.088214844 0.3923156 -0.0053144624 0.1559924 0.34156424
0.3536518 0.37207788 -0.14767757

encoder1.0.bias f4 [15]
00000000: a903 f4bd 2fd8 a7be 4638 84be d812 b3be
00000010: 57bd b73e 0f18 6d3e b123 a3bb 5d4b 183e
00000020: f6b5 423e 6c56 b6bd ae83 bfbd 39a2 5f3d
00000030: 3177 4b3e 7d72 bd3e efbf 14be
-0.119147606 -0.32782122 -0.25824183 -0.34975314 0.35886642 0.23153709 -0.00497862 0.14872499
0.19014725 -0.089032024 -0.09351288 0.054598067 0.19869687 0.3700141 -0.14526342

decoder1.0.weight f4 [15, 1, 5, 1]
00000000: 3743 d7be f259 593d a19a 013c 69da 8d3e
00000010: 0d26 953e d865 ee3d eb69 b1bd 88e1 ebbe
00000020: 30c5 6a3e 20e3 6bbd 9fe8 663e 7304 f43e
00000030: d2f5 b13e 3ff6 3ebe f32b 503e 9cea 21bd
00000040: 1507 abbe 5f3d 2dbd b16b 733e 6376 e5be
00000050: 25fe ecbd 3bd4 acbe 986f b03e 77f8 a9be
00000060: 7f85 0f3d 3bf8 e1be 2376 de3e b078 cb3e
00000070: 8bac a53e 84f4 553e 50bd 933e c297 963e
00000080: dff0 4b3e 6314 31be b416 663e 586b d93d
00000090: a1a0 bebe ae56 fc3c 8fe5 66be a799 a23d
000000a0: f048 bfbe fb90 a0bd a57b 493e 1923 c1bd
000000b0: de7b 28be b854 acbe 0b6c 86be 4997 aabe
000000c0: 9c04 47be e50b 9c3d a9aa 4dbe 61c8 273e
000000d0: 8dc3 3fbe b5f7 f63d 48e5 0c3e 71ac cd3e
000000e0: 2d43 b63e a884 98bd b497 703d 1e23 4f3e
000000f0: a9c6 343e 5e52 d5bd 6fff c3bd a2cb e43d
00000100: 8d25 c9be 27c2 ed3e f7b3 8fbe 82e3 8dbd
00000110: 8008 c63b eea6 2b3e 330d 8f3e 7726 b93e
00000120: e174 9f3e 1390 f93d 278b 103e
-0.42043468 0.053064294 0.007910402 0.27705696 0.29130593 0.11640519 -0.086627804 -0.46070504
0.22926784 -0.05758965 0.22549675 0.47659644 0.3475786 -0.18648623 0.20329265 -0.03953038
-0.3340384 -0.042294856 0.2377155 -0.44816884 -0.11571912 -0.3375567 0.3446014 -0.33197376
0.03503942 -0.44134697 0.43449506 0.39740515 0.32358202 0.20894057 0.2885537 0.29412657
0.19916104 -0.17292933 0.22469598 0.10616177 -0.37231925 0.03080305 -0.22548507 0.07939463
-0.37360334 -0.07840153 0.19676073 -0.094305225 -0.16453502 -0.33658385 -0.26254305 -0.33318546
-0.19435352 0.07619456 -0.20084633 0.16385032 -0.1872694 0.12058965 0.13759339 0.40170625
0.35598126 -0.07447177 0.058738425 0.2022824 0.17653908 -0.10416101 -0.095702045 0.111716524
-0.3928646 0.4643719 -0.2806699 -0.06928159 0.0060434937 0.16762897 0.27939758 0.3616216
0.3114386 0.12185683 0.14115582

encoder2.0.weight f4 [15, 1, 5, 1]
00000000: 8600 c9be 3de6 3b3e 3db0 263e 6a80 a5be
00000010: dcb9 ec3c fafa c53e f3b2 eb3c e4a1 c9be
00000020: ac24 cc3e 4da4 913e aa22 febc 38d2 813e
00000030: 7e7b c3be e34a a9be eb3d 463d 0500 fa3d
00000040: 9e79 b43e 3c58 b6bd 27e1 9b3c eda7 383e
00000050: d182 933e 98b2 983d 7411 303e f757 a63e
00000060: 2959 d5be 2d18 05bd 08b0 223c 3dd4 eebd
00000070: 7149 af3d 21d7 d63e 8f7d aa3e 6065 a63e
00000080: b514 0bbe 45e6 493e e2b3 9ebe 3375 f6be
00000090: bfa8 eabd d5cc bd3e 6176 a6bd d845 6a3e
000000a0: daf3 60be 4e70 853e 7489 6ebe 2f95 b6be
000000b0: 294d 6c3e 93c2 a93d ddef e03e deea 7cbe
000000c0: 5c18 c0be 59ff 9cbd dcf4 c3be 2b0f a33d
000000d0: 99e7 27be e880 903e 801a 73b8 5b18 c7be
000000e0: 4f9e f93d 3277 9fbe 7fcf 86be b6d4 d43c
000000f0: 8380 aebe 3593 c73e 6db9 f33e eeb8 51be
00000100: 8bc6 c6be fd39 dcbe 5f45 ab3e f57c 733e
00000110: f653 91be cab8 69be 7548 7fbd 8042 1fbc
00000120: 2869 f0be 9045 e4be 4abf a4bc
-0.39258212 0.18349548 0.16278167 -0.32324535 0.028897218 0.38668042 0.028771853 -0.39381325
0.39871728 0.28445664 -0.031022388 0.25355697 -0.38180155 -0.33064947 0.048398893 0.12207035
0.35249037 -0.08903548 0.01902826 0.18032809 0.28810742 0.07455939 0.17194158 0.32488987
-0.41669586 -0.03249376 0.009929664 -0.11661575 0.0855893 0.41961005 0.3329892 0.32499218
-0.13582118 0.19716747 -0.30996615 -0.4813629 -0.11457967 0.37070337 -0.08128048 0.22878206
-0.21968022 0.26062244 -0.23294622 -0.35660693 0.2307631 0.08289065 0.43933 -0.2469897
-0.37518585 -0.07665891 -0.3827275 0.079618774 -0.16396941 0.28223348 -5.7960395e-05 -0.3888577
0.12188398 -0.31145626 -0.26330182 0.025980335 -0.34082422 0.38979498 0.47602406 -0.20480701
-0.3882335 -0.43012992 0.33451363 0.23778136 -0.2838437 -0.22824398 -0.06232496 -0.009720445
-0.46955228 -0.44584322 -0.020110745

encoder2.0.bias f4 [15]
00000000: 2fcc bb3e 5812 963e 4953 b53d 29bf 10be
00000010: b37b de3e 0537 06be 2551 413e 8ef1 883e
00000020: c4fa 29be 4459 133d 42fa 183b ec0c a4be
00000030: 886b 51be ba66 c93d 38b9 9d3d
0.36679217 0.2931087 0.08853776 -0.14135422 0.4345375 -0.13106926 0.1887861 0.26746792
-0.16599566 0.035973802 0.0023342525 -0.3204111 -0.20451176 0.09834047 0.07701343

decoder2.0.weight f4 [15, 1, 5, 1]
00000000: a36d cd3d bd83 cd3d c6e8 653e 801e 753e
00000010: afa7 5f3e b300 d33d 80cc c63d 81c5 933e
00000020: 2a9b 76be fecb 733e 9419 b7be 3cdc fa3b
00000030: d27d b6be 1ff4 1abe 3d6b c63e c8d2 fb3e
00000040: 1295 83bd 6694 79be cb06 bd3e ad9e be3e
00000050: 550c 983e 2bf3 ee3d e785 2d3e 1f40 d63e
00000060: 7466 a8be c4b2 b1be a318 413e 0228 253d
00000070: 6935 b03e 39b8 c83e 2073 9c3d 3111 7c3e
00000080: 920a b13e 3010 b9bc f4ac ba3e 7512 19bd
00000090: 60ed a93e b72a b53e 8304 bfbe f0df aebe
000000a0: 5e5c a03d d56d 88be ac30 d0be 108a 513d
000000b0: 899f 33be f44e 88be cd6d 843e cf99 a83e
000000c0: 8b54 08be 2083 41bd eb7e 28bc de1f d2be
000000d0: 515c cbbe 4c64 4b3e 8aaa 783e ed6c 483e
000000e0: b457 8b3e c3c1 e2be e03f 8a3e 22ef 9c3e
000000f0: 91c6 7dbe 060a a1be 2657 ba3e c452 813e
00000100: 38a9 033e b3b6 eebe 84c7 dbbe c70d 8ebe
00000110: 5274 2ebe 8e38 b1be d7f0 04be b9aa ecbe
00000120: 7fd0 48be 4db1 e7bd 044d 96be
0.10030677 0.10034893 0.22452077 0.23937416 0.2184131 0.10302868 0.09706974 0.2886162
-0.24082628 0.23808286 -0.35761702 0.0076556485 -0.35642868 -0.15132187 0.3875369 0.4918425
-0.06424917 -0.24373016 0.36919245 0.37230435 0.2969691 0.11667474 0.16945611 0.41845796
-0.32890666 -0.347067 0.18857054 0.040321358 0.3441575 0.3920305 0.07639146 0.24615933
0.34578377 -0.022590727 0.36460078 -0.037371118 0.33188915 0.3538415 -0.3730813 -0.34155226
0.07830118 -0.26646295 -0.40662134 0.051157057 -0.17541327 -0.26622736 0.2586502 0.32929847
-0.133135 -0.04724419 -0.010284166 -0.41039938 -0.3971887 0.19862479 0.24283805 0.19572802
0.2721535 -0.44288453 0.27001858 0.30651194 -0.24782778 -0.3145296 0.36394614 0.25258458
0.1285752 -0.46623763 -0.42925656 -0.27744886 -0.1703656 -0.3461346 -0.12982498 -0.46224
-0.19610785 -0.11313114 -0.29355633

encoder3.0.weight f4 [15, 1, 5, 1]
00000000: 1c56 51be d0ca e2be efb9 81be 0cae 3f3d
00000010: 5109 bc3e a30d bb3e 5534 763e 61fa 403e
00000020: 5978 d5be 9d52 f83e 1141 833e 42a3 3f3e
00000030: b941 933e 0c90 e9bd 5e53 b53e e831 bbbe
00000040: 0304 57be 0177 c5be d68e c13e 13d6 003d
00000050: fa04 3cbc d640 34bc ea4b 233e af47 613e
00000060: 4b0f 98bd 9315 abbd ef6d 4cbe 2438 29be
00000070: 4257 073c f5fd bfbe 0a3d 613d a895 123c
00000080: 7f5f 15be 6680 fc3d ed91 86be 0a87 ec3e
00000090: 54cd 7cbe 30ad a1be 19ea 0c3d bed8 fe3e
000000a0: 0711 adbe 6e30 fb3b ccb2 b03e b658 a93e
000000b0: 523d 783e 0d98 33bd 09f4 b3be 2a42 f53e
000000c0: 80c7 79be 3a0e fc3d aad4 34bd 19c3 9dbe
000000d0: 6b76 463d bd44 253e dd07 1b3e 8991 20be
000000e0: 9474 84be 4562 c53e d8f5 65bd 6009 ec3e
000000f0: fcd4 c53e 81bc 55be f3cf 8a3e 5628 4c3e
00000100: 1af3 8a3c c6d1 9abe 641e e6bd 5495 87bd
00000110: 4329 fb3e 98ef f23e 24dc 973e e0be c53c
00000120: 9f05 ed3e 0233 ee3e a517 56be
-0.20443004 -0.4429536 -0.2533717 0.046796843 0.36725858 0.36533841 0.240434 0.18845512
-0.4169338 0.4850053 0.2563558 0.18714622 0.2876108 -0.11404428 0.35415167 -0.36561513
-0.20997624 -0.38567355 0.37804288 0.031454157 -0.011475796 -0.011001786 0.15946928 0.22000001
-0.07424792 -0.08353724 -0.19963811 -0.16525322 0.00826055 -0.3749844 0.054989852 0.008946814
-0.1458721 0.123291776 -0.26283208 0.46196777 -0.24687701 -0.31577444 0.03440294 0.49774736
-0.33802053 0.0076656854 0.3451141 0.33075494 0.24242142 -0.04384618 -0.35147122 0.47902042
-0.2439251 0.12307401 -0.044148125 -0.3081291 0.048452776 0.16139503 0.15139718 -0.15680517
-0.25870192 0.38551536 -0.056142658 0.46100903 0.38639057 -0.2087269 0.27111778 0.19937262
0.016961623 -0.3023817 -0.11236265 -0.06620279 0.49054918 0.4744842 0.2966014 0.024138868
0.4629335 0.4652329 -0.20907457

decoder3.0.weight f4 [15, 1, 5, 1]
00000000: d4c5 c5be ece5 c8bd 4842 b6be 944b e13d
00000010: fffc 45be 57ae e4bd e3de 473e d92a a7be
00000020: 43d1 97be 962b 173e a7d9 0abe af30 57be
00000030: b3ca 49bd 40f7 933e 9806 c43d 77d4 61bd
00000040: 0cc8 053e 9b11 94bd 14c9 80be 5995 69be
00000050: 81bc c73e d893 e2be bb3d 9e3e d6d9 86be
00000060: 7ade d83d 09e9 6fbe 16f0 85be 2839 f73c
00000070: 7f88 a8be 3a9a 9f3e 5e36 84be a572 273e
00000080: 1064 cb3e 5982 30be 02ba 3dbe 97de f13e
00000090: 1f23 9a3e 1d20 af3e b845 173e dea6 9a3e
000000a0: 2362 b43e b057 c23e f562 a13e c50e ee3e
000000b0: fd59 cf3e 7979 b3bd 59bb 603e 6c98 d83e
000000c0: c9db 3a3d 6115 8e3e 1283 643e 0e3d 50be
000000d0: af3d 8b3e 051e 043e cf9a ca3e b9c8 aebe
000000e0: f47e 893e 70e9 6ebe 6b69 d7be 2de1 993e
000000f0: a2c3 cd3e 0f47 b03d c5fb c63e 7280 85be
00000100: 72c4 c8be c8de babe eb2d 33be ccd9 903e
00000110: 8ea8 ce3e 5c87 0d3e 7ae7 783e bc1f 22be
00000120: 552d 313e 2131 b93e 8704 a8be
-0.38627493 -0.09809479 -0.35597444 0.110007435 -0.19334792 -0.11166065 0.19518618 -0.32649878
-0.29651842 0.1476272 -0.1355959 -0.21014665 -0.049265575 0.28899574 0.0957157 -0.055134263
0.13064593 -0.072299205 -0.2515341 -0.22810878 0.39011005 -0.4425342 0.30906472 -0.2633807
0.10589309 -0.2342874 -0.26159734 0.030178621 -0.32916638 0.31172353 -0.2582273 0.16352327
0.3972478 -0.17237224 -0.18527988 0.47240135 0.3010492 0.34204188 0.1477269 0.30205435
0.35231122 0.37957525 0.3152081 0.46495643 0.40498343 -0.087634034 0.21946467 0.4230379
0.04561976 0.27750686 0.22315624 -0.2033579 0.27195498 0.12902077 0.39571235 -0.34137514
0.2685467 -0.23331237 -0.42072615 0.30054608 0.40188318 0.08607303 0.3886396 -0.26074558
-0.39212376 -0.36498094 -0.17497985 0.28291166 0.40362972 0.13821167 0.24307051 -0.15832418
0.17302449 0.36170295 -0.32815954
