pre_train_models/LIHC.pth (torch, 543691 bytes, 9 tensors)

weight f4 [367, 367]
0	0x38d1b717	1e-04
1	0x38d1b717	1e-04
2	0x38d1b717	1e-04
3	0x38d1b717	1e-04
4	0x38d1b717	1e-04
5	0x38d1b717	1e-04
6	0x38d1b717	1e-04
7	0x38d1b717	1e-04
8	0x38d1b717	1e-04
9	0x38d1b717	1e-04
10	0x38d1b717	1e-04
11	0x38d1b717	1e-04
12	0x38d1b717	1e-04
13	0x38d1b717	1e-04
14	0x38d1b717	1e-04
15	0x38d1b717	1e-04
16	0x38d1b717	1e-04
17	0x38d1b717	1e-04
18	0x38d1b717	1e-04
19	0x38d1b717	1e-04
20	0x38d1b717	1e-04
21	0x38d1b717	1e-04
22	0x38d1b717	1e-04
23	0x38d1b717	1e-04
24	0x38d1b717	1e-04
25	0x38d1b717	1e-04
26	0x38d1b717	1e-04
27	0x38d1b717	1e-04
28	0x38d1b717	1e-04
29	0x38d1b717	1e-04
30	0x38d1b717	1e-04
31	0x38d1b717	1e-04
32	0x38d1b717	1e-04
33	0x38d1b717	1e-04
34	0x38d1b717	1e-04
35	0x38d1b717	1e-04
36	0x38d1b717	1e-04
37	0x38d1b717	1e-04
38	0x38d1b717	1e-04
39	0x38d1b717	1e-04
40	0x38d1b717	1e-04
41	0x38d1b717	1e-04
42	0x38d1b717	1e-04
43	0x38d1b717	1e-04
44	0x38d1b717	1e-04
45	0x38d1b717	1e-04
46	0x38d1b717	1e-04
47	0x38d1b717	1e-04
48	0x38d1b717	1e-04
49	0x38d1b717	1e-04
50	0x38d1b717	1e-04
51	0x38d1b717	1e-04
52	0x38d1b717	1e-04
53	0x38d1b717	1e-04
54	0x38d1b717	1e-04
55	0x38d1b717	1e-04
56	0x38d1b717	1e-04
57	0x38d1b717	1e-04
58	0x38d1b717	1e-04
59	0x38d1b717	1e-04
60	0x38d1b717	1e-04
61	0x38d1b717	1e-04
62	0x38d1b717	1e-04
63	0x38d1b717	1e-04
64	0x38d1b717	1e-04
65	0x38d1b717	1e-04
66	0x38d1b717	1e-04
67	0x38d1b717	1e-04
68	0x38d1b717	1e-04
69	0x38d1b717	1e-04
70	0x38d1b717	1e-04
71	0x38d1b717	1e-04
72	0x38d1b717	1e-04
73	0x38d1b717	1e-04
74	0x38d1b717	1e-04
75	0x38d1b717	1e-04
76	0x38d1b717	1e-04
77	0x38d1b717	1e-04
78	0x38d1b717	1e-04
79	0x38d1b717	1e-04
80	0x38d1b717	1e-04
81	0x38d1b717	1e-04
82	0x38d1b717	1e-04
83	0x38d1b717	1e-04
84	0x38d1b717	1e-04
85	0x38d1b717	1e-04
86	0x38d1b717	1e-04
87	0x38d1b717	1e-04
88	0x38d1b717	1e-04
89	0x38d1b717	1e-04
90	0x38d1b717	1e-04
91	0x38d1b717	1e-04
92	0x38d1b717	1e-04
93	0x38d1b717	1e-04
94	0x38d1b717	1e-04
95	0x38d1b717	1e-04
96	0x38d1b717	1e-04
97	0x38d1b717	1e-04
98	0x38d1b717	1e-04
99	0x38d1b717	1e-04
100	0x38d1b717	1e-04
101	0x38d1b717	1e-04
102	0x38d1b717	1e-04
103	0x38d1b717	1e-04
104	0x38d1b717	1e-04
105	0x38d1b717	1e-04
106	0x38d1b717	1e-04
107	0x38d1b717	1e-04
108	0x38d1b717	1e-04
109	0x38d1b717	1e-04
110	0x38d1b717	1e-04
111	0x38d1b717	1e-04
112	0x38d1b717	1e-04
113	0x38d1b717	1e-04
114	0x38d1b717	1e-04
115	0x38d1b717	1e-04
116	0x38d1b717	1e-04
117	0x38d1b717	1e-04
118	0x38d1b717	1e-04
119	0x38d1b717	1e-04
120	0x38d1b717	1e-04
121	0x38d1b717	1e-04
122	0x38d1b717	1e-04
123	0x38d1b717	1e-04
124	0x38d1b717	1e-04
125	0x38d1b717	1e-04
126	0x38d1b717	1e-04
127	0x38d1b717	1e-04
128	0x38d1b717	1e-04
129	0x38d1b717	1e-04
130	0x38d1b717	1e-04
131	0x38d1b717	1e-04
132	0x38d1b717	1e-04
133	0x38d1b717	1e-04
134	0x38d1b717	1e-04
135	0x38d1b717	1e-04
136	0x38d1b717	1e-04
137	0x38d1b717	1e-04
138	0x38d1b717	1e-04
139	0x38d1b717	1e-04
140	0x38d1b717	1e-04
141	0x38d1b717	1e-04
142	0x38d1b717	1e-04
143	0x38d1b717	1e-04
144	0x38d1b717	1e-04
145	0x38d1b717	1e-04
146	0x38d1b717	1e-04
147	0x38d1b717	1e-04
148	0x38d1b717	1e-04
149	0x38d1b717	1e-04
150	0x38d1b717	1e-04
151	0x38d1b717	1e-04
152	0x38d1b717	1e-04
153	0x38d1b717	1e-04
154	0x38d1b717	1e-04
155	0x38d1b717	1e-04
156	0x38d1b717	1e-04
157	0x38d1b717	1e-04
158	0x38d1b717	1e-04
159	0x38d1b717	1e-04
160	0x38d1b717	1e-04
161	0x38d1b717	1e-04
162	0x38d1b717	1e-04
163	0x38d1b717	1e-04
164	0x38d1b717	1e-04
165	0x38d1b717	1e-04
166	0x38d1b717	1e-04
167	0x38d1b717	1e-04
168	0x38d1b717	1e-04
169	0x38d1b717	1e-04
170	0x38d1b717	1e-04
171	0x38d1b717	1e-04
172	0x38d1b717	1e-04
173	0x38d1b717	1e-04
174	0x38d1b717	1e-04
175	0x38d1b717	1e-04
176	0x38d1b717	1e-04
177	0x38d1b717	1e-04
178	0x38d1b717	1e-04
179	0x38d1b717	1e-04
180	0x38d1b717	1e-04
181	0x38d1b717	1e-04
182	0x38d1b717	1e-04
183	0x38d1b717	1e-04
184	0x38d1b717	1e-04
185	0x38d1b717	1e-04
186	0x38d1b717	1e-04
187	0x38d1b717	1e-04
188	0x38d1b717	1e-04
189	0x38d1b717	1e-04
190	0x38d1b717	1e-04
191	0x38d1b717	1e-04
192	0x38d1b717	1e-04
193	0x38d1b717	1e-04
194	0x38d1b717	1e-04
195	0x38d1b717	1e-04
196	0x38d1b717	1e-04
197	0x38d1b717	1e-04
198	0x38d1b717	1e-04
199	0x38d1b717	1e-04
200	0x38d1b717	1e-04
201	0x38d1b717	1e-04
202	0x38d1b717	1e-04
203	0x38d1b717	1e-04
204	0x38d1b717	1e-04
205	0x38d1b717	1e-04
206	0x38d1b717	1e-04
207	0x38d1b717	1e-04
208	0x38d1b717	1e-04
209	0x38d1b717	1e-04
210	0x38d1b717	1e-04
211	0x38d1b717	1e-04
212	0x38d1b717	1e-04
213	0x38d1b717	1e-04
214	0x38d1b717	1e-04
215	0x38d1b717	1e-04
216	0x38d1b717	1e-04
217	0x38d1b717	1e-04
218	0x38d1b717	1e-04
219	0x38d1b717	1e-04
220	0x38d1b717	1e-04
221	0x38d1b717	1e-04
222	0x38d1b717	1e-04
223	0x38d1b717	1e-04
224	0x38d1b717	1e-04
225	0x38d1b717	1e-04
226	0x38d1b717	1e-04
227	0x38d1b717	1e-04
228	0x38d1b717	1e-04
229	0x38d1b717	1e-04
230	0x38d1b717	1e-04
231	0x38d1b717	1e-04
232	0x38d1b717	1e-04
233	0x38d1b717	1e-04
234	0x38d1b717	1e-04
235	0x38d1b717	1e-04
236	0x38d1b717	1e-04
237	0x38d1b717	1e-04
238	0x38d1b717	1e-04
239	0x38d1b717	1e-04
240	0x38d1b717	1e-04
241	0x38d1b717	1e-04
242	0x38d1b717	1e-04
243	0x38d1b717	1e-04
244	0x38d1b717	1e-04
245	0x38d1b717	1e-04
246	0x38d1b717	1e-04
247	0x38d1b717	1e-04
248	0x38d1b717	1e-04
249	0x38d1b717	1e-04
250	0x38d1b717	1e-04
251	0x38d1b717	1e-04
252	0x38d1b717	1e-04
253	0x38d1b717	1e-04
254	0x38d1b717	1e-04
255	0x38d1b717	1e-04

encoder1.0.weight f4 [15, 1, 5, 1]
0	0x3d0d4b2f	0.03449553
1	0xbde13cbe	-0.10997914
2	0xbe194250	-0.14966702
3	0xbd27c82d	-0.040962387
4	0xbeec5d9e	-0.46165174
5	0x3e4aef62	0.1981788
6	0x3ec7cd47	0.39023802
7	0x3cbe79c8	0.02325143
8	0xbe88c62d	-0.26713696
9	0xbebb3b3b	-0.36568627
10	0x3d8ca741	0.06867839
11	0xbee171dd	-0.44032183
12	0x3e560c4e	0.20903131
13	0xbea44468	-0.3208344
14	0xbd1c556f	-0.038167413
15	0xbe5ad09b	-0.21368639
16	0xbe8a95fb	-0.2706755
17	0xbce1513c	-0.027504556
18	0xbe95d109	-0.29261044
19	0x3ec0c373	0.37649116
20	0x3d8255ac	0.06363997
21	0x3e3484a3	0.17628722
22	0x3e5e936e	0.21735927
23	0x3ef8c966	0.48591155
24	0x3d3d1afb	0.04616831
25	0xbee3688a	-0.44415694
26	0xbe556946	-0.2084094
27	0xbe597c42	-0.21238807
28	0x3c204693	0.009782451
29	0xbe6f97d3	-0.2339776
30	0xbe1795ae	-0.14803192
31	0xbef2efd6	-0.47448605
32	0xbe0fcd35	-0.14043124
33	0xbe848ffa	-0.25891095
34	0x3d4550f5	0.04817291
35	0x3de0d3f8	0.1097793
36	0xbe8118c6	-0.25214213
37	0xbdb52acc	-0.088460535
38	0xbe086ffb	-0.13323967
39	0x3e8763fd	0.26443473
40	0x3efbf199	0.49207762
41	0x3df66505	0.12030987
42	0x3e99bade	0.3002538
43	0xbe8ba827	-0.27276728
44	0x3e72e751	0.23721053
45	0xbd77ea68	-0.06052628
46	0xbe48e389	-0.19618048
47	0xbea87be5	-0.32907024
48	0x3e73699e	0.23770759
49	0xbebfd995	-0.3747069
50	0x3e96c0a7	0.29443857
51	0x3ed2e019	0.41186598
52	0x3e0736f5	0.13204558
53	0x3e21128a	0.15729728
54	0xbd716997	-0.05893859
55	0x3dd06e0a	0.10177238
56	0xbd3380c9	-0.04382399
57	0xbe304d64	-0.17217022
58	0x3e97a51b	0.29618153
59	0x3e45515c	0.19269317
60	0xbe1d64a6	-0.15370426
61	0xbd55878e	-0.05213123
62	0x3ed1b35a	0.40957147
63	0x3bee2938	0.0072680973
64	0x3e6a7f1f	0.22900055
65	0xbeb45eb5	-0.35228506
66	0x3ec34ce2	0.38144594
67	0x3ba148d1	0.0049220105
68	0xbee09178	-0.43860984
69	0xbcdd1ed8	-0.026992247
70	0xbeb05ad9	-0.3444431
71	0xbec30db7	-0.380964
72	0x3e9bf723	0.30461988
73	0xbef78ff9	-0.4835203
74	0xbe7cfa41	-0.2470484

encoder1.0.bias f4 [15]
0	0x3de97f7d	0.114012696
1	0x3e95ffb2	0.29296643
2	0x3eef4b01	0.4673691
3	0x3ea78523	0.32718763
4	0x3d679063	0.056534182
5	0x3e9e868a	0.3096202
6	0xbe6dd530	-0.23225856
7	0xbe7d8709	-0.24758543
8	0xbe6f60b4	-0.23376733
9	0x3e2c4d28	0.16826308
10	0x3cfa0fdc	0.03052514
11	0xbe85dfe3	-0.26147375
12	0xbd409457	-0.047016468
13	0x3e875377	0.26430866
14	0x3e747b96	0.2387527

decoder1.0.weight f4 [15, 1, 5, 1]
0	0xbe9ba8f6	-0.30402344
1	0xbe298613	-0.16555052
2	0x3df5b19f	0.11996769
3	0x3eb865ea	0.36015254
4	0xbdf2e4df	-0.1186006
5	0x3e66c012	0.22534207
6	0x3ecc5f42	0.39916426
7	0x3ebf2a37	0.37336895
8	0xbecd7ede	-0.40135854
9	0xbe083f88	-0.13305485
10	0x3eb8a318	0.3606193
11	0xbde871d6	-0.113498375
12	0xbba8f78e	-0.005156464
13	0x3e586460	0.2113204
14	0xbea7d33e	-0.32778352
15	0xbe243ced	-0.16038866
16	0x3d1bf93d	0.03807949
17	0xbdd6a3dd	-0.10480473
18	0x3e2e9780	0.1704998
19	0x3eca93fd	0.3956603
20	0x3e6fb1d2	0.23407677
21	0xbdb502ef	-0.0883845
22	0x3e5d0bc9	0.21586527
23	0x3e26d8ee	0.1629369
24	0x3ebabc25	0.36471668
25	0xbec920ac	-0.3928274
26	0x3e1e2697	0.15444408
27	0xbe69ba97	-0.22825085
28	0x3dd68a14	0.10475555
29	0x3ddfec55	0.10933749
30	0x3de80ebe	0.11330937
31	0xbe55922f	-0.20856546
32	0xbd3b9a78	-0.04580161
33	0xbea9ef0f	-0.331902
34	0xbe2d4c2a	-0.16923586
35	0x3da2606c	0.07928547
36	0x3ca4cee5	0.020118186
37	0x3e812805	0.25225845
38	0x3d6cb310	0.057787955
39	0xbeb343d5	-0.3501269
40	0x3eec4144	0.46143544
41	0x3a2664ee	0.0006347437
42	0xbdac3112	-0.08407797
43	0x3e8a7547	0.270426
44	0x3e2c5da2	0.16832593
45	0x3c819058	0.015815899
46	0x3e0cf347	0.13764678
47	0xbd17bf02	-0.037047394
48	0x3d053911	0.032525126
49	0xbecf577c	-0.40496433
50	0x3e42608f	0.18982147
51	0x3eaee243	0.34157
52	0x3e8e5705	0.27800766
53	0x3ea8f99b	0.33002934
54	0x3e7ccdce	0.24687883
55	0x3e970788	0.29497933
56	0xbe120d96	-0.14262995
57	0xbeabd4a7	-0.33560678
58	0xbe882ef1	-0.26598313
59	0xbe248bb8	-0.16068923
60	0xbed8926c	-0.4229921
61	0xbea386b1	-0.319387
62	0x3e5742d6	0.2102159
63	0xbe5d2457	-0.21595894
64	0xbe9ea9c8	-0.30988908
65	0x3e7e87d8	0.24856508
66	0x3d17a750	0.037024796
67	0xbec566a0	-0.3855486
68	0xbde031b4	-0.1094698
69	0x3dc65e20	0.09685922
70	0xbe63c375	-0.2224253
71	0x3baed412	0.0053353393
72	0x3ec11701	0.37712863
73	0xbebada30	-0.3649459
74	0xbd513086	-0.051071666

encoder2.0.weight f4 [15, 1, 5, 1]
0	0x3eafd6ca	0.3434356
1	0x3d9f688c	0.077836126
2	0x3d9e92ad	0.0774282
3	0x3e87652b	0.26444373
4	0xbecc6fad	-0.39928952
5	0x3e46863d	0.19387145
6	0xbeb6c5fb	-0.35697922
7	0xbe327f7a	-0.17431441
8	0xbe6ee928	-0.2333113
9	0xbeb38c30	-0.35067892
10	0xbd5c4603	-0.053777706
11	0x3e85caef	0.2613139
12	0xbebac5ff	-0.36479184
13	0xbee7b9cc	-0.4525894
14	0xbee87b92	-0.45406777
15	0xbe8b1636	-0.27165383
16	0xbe41a90d	-0.18912144
17	0xbdca09a9	-0.09865124
18	0x3df2b12f	0.11850201
19	0xbd92745e	-0.071511015
20	0xbee19eca	-0.4406646
21	0xbdc71fe9	-0.09722883
22	0x3edb80ab	0.42871603
23	0x3e567a8c	0.20945185
24	0xbde528b5	-0.11189405
25	0x3e411c4c	0.1885845
26	0xbe87c9a7	-0.26521036
27	0x3ec138df	0.37738702
28	0xbeb69a52	-0.35664612
29	0xbe2f2ecc	-0.17107695
30	0xbea42516	-0.32059544
31	0xbe9ccd71	-0.3062549
32	0x3e16599d	0.14682622
33	0x3ec11ad7	0.3771579
34	0x3e5452e8	0.20734751
35	0x3ef600ae	0.48047394
36	0xbddb27c2	-0.107009426
37	0xbec117c0	-0.37713432
38	0xbe965a86	-0.2936594
39	0xbecd5e4f	-0.40111014
40	0x3ea4e1c4	0.32203496
41	0xbe5c29a0	-0.21500254
42	0x3e56a6f3	0.20962124
43	0xbd9613c3	-0.07327988
44	0xbe2d8e07	-0.1694871
45	0xbe65199b	-0.22373049
46	0xbeb96f24	-0.36217606
47	0xbd82067a	-0.063488916
48	0x3e84c5d7	0.2593219
49	0xbe498b3b	-0.19682018
50	0xbeef3fc6	-0.46728343
51	0x3e173467	0.14766084
52	0x3e1db428	0.15400755
53	0xbeb8700d	-0.36022988
54	0x3dca3f5a	0.098753646
55	0x3e07a205	0.132454
56	0x3d888439	0.066658445
57	0xbe3b60bb	-0.18298618
58	0x3df41b5c	0.11919281
59	0x3e026fb0	0.12737918
60	0x3e6fe8f4	0.23428708
61	0x3eee4337	0.46535656
62	0xbd750889	-0.059822593
63	0x3eda80e1	0.42676452
64	0xbea49fc4	-0.32153141
65	0xbb954d2a	-0.004556318
66	0x3e24168a	0.16024223
67	0x3ea540b7	0.32275936
68	0x3df11220	0.11771035
69	0xbe9391b7	-0.2882211
70	0x3eb64f65	0.35607448
71	0xbef03f3b	-0.4692324
72	0xbd8e8bc3	-0.06960251
73	0x3e09a5eb	0.13442199
74	0xbeb5208b	-0.3537639

encoder2.0.bias f4 [15]
0	0xbeb51ae6	-0.35372084
1	0x3e6a0301	0.22852708
2	0x3ede592a	0.43427402
3	0xbcdbf63a	-0.026850808
4	0xbdfcaf4b	-0.12338122
5	0x3e0e3113	0.13885908
6	0x3ecf189b	0.4044846
7	0x3cca3b7b	0.024686566
8	0xbea363cf	-0.31912085
9	0x3eeb289e	0.45929426
10	0x3efabf0d	0.48973885
11	0xbe836dbf	-0.25669667
12	0x3ec88a39	0.39167956
13	0x3daafb0c	0.08348665
14	0x3dfe2758	0.12409848

decoder2.0.weight f4 [15, 1, 5, 1]
0	0x3d8e0d2a	0.069361046
1	0xbe856a20	-0.2605753
2	0x3ec120e5	0.3772041
3	0xbea0a292	-0.3137403
4	0xbd5c3c14	-0.053768232
5	0x3db38137	0.0876488
6	0x3e3871df	0.18012188
7	0xbe29a60e	-0.16567251
8	0xbe0586fe	-0.13039777
9	0xbeed9206	-0.4640047
10	0xbde53526	-0.11191778
11	0xbe6906a7	-0.22756444
12	0xbdeb0010	-0.11474621
13	0xbe3df86b	-0.18551795
14	0xbe119570	-0.14217162
15	0x3ea4a12d	0.32154217
16	0x3eb7f93c	0.35932338
17	0x3ed1660d	0.4089817
18	0xbe471a7c	-0.19443697
19	0x3c54ecad	0.012995881
20	0x3e87eca3	0.26547727
21	0xbea08a59	-0.3135555
22	0x3ef62c92	0.4808088
23	0xbe9480aa	-0.29004413
24	0xbe505950	-0.2034657
25	0xbe83766d	-0.2567629
26	0x3ebdac4f	0.37045524
27	0xbe685604	-0.22689062
28	0xbd8b177c	-0.06791589
29	0xbe7ec0f2	-0.2487829
30	0xbea6b778	-0.3256185
31	0x3e1b2679	0.15151395
32	0x3de947d8	0.11390656
33	0x3ec08299	0.37599638
34	0xbe3561f1	-0.17713143
35	0x3e9a7e6e	0.30174583
36	0x3eadafa3	0.33923063
37	0x3da82ffc	0.08212277
38	0x3d1da6bb	0.038489085
39	0x3dc0c072	0.09411706
40	0x3e60e7c0	0.21963406
41	0x3e6795c2	0.22615722
42	0x3d373e44	0.044737116
43	0x3bbea763	0.005818294
44	0x3deba9cf	0.11506998
45	0xbde8f562	-0.11374928
46	0xbd9eae50	-0.07748091
47	0xbda27dc2	-0.07934143
48	0xbe8c0619	-0.27348402
49	0x3ebb24ca	0.36551505
50	0xbd794598	-0.060857385
51	0xbee9f5db	-0.45695385
52	0xbc895a42	-0.016766671
53	0x3ea1626a	0.31520396
54	0x3eba92a6	0.3644001
55	0xbeca0740	-0.39458656
56	0x3e89bf7d	0.26903906
57	0xbe471cdd	-0.19444604
58	0xbd492eac	-0.049116775
59	0x3ebd34a7	0.36954233
60	0xbe55a4a2	-0.20863584
61	0xbd0c224b	-0.03421239
62	0x3e4559de	0.19272563
63	0x3e5c8001	0.21533205
64	0xbe3da5c7	-0.1852027
65	0x3e6bcf48	0.2302829
66	0xbecf1243	-0.4044362
67	0x3eb2ffb3	0.34960708
68	0x3ec79097	0.389775
69	0xbd8dcdf0	-0.06924045
70	0xbdb39357	-0.08768337
71	0xbd73ce62	-0.059522994
72	0xbe213fa3	-0.15746932
73	0xbd11930c	-0.035540625
74	0x3d44224c	0.04788427

encoder3.0.weight f4 [15, 1, 5, 1]
0	0x3e358b1f	0.17728852
1	0x3ea95aa0	0.33076954
2	0xbed7d76e	-0.42156547
3	0xbe031159	-0.12799586
4	0x3e8a9ad8	0.2707126
5	0x3d8a6c23	0.06758907
6	0xbe4da8d3	-0.20083933
7	0xbeb3e439	-0.35135058
8	0x3e0cd09c	0.13751453
9	0xbe2de028	-0.1698004
10	0xbd7c8f1d	-0.06165992
11	0xbd8c203b	-0.06842085
12	0xbd9a3e75	-0.07531444
13	0x3e98b132	0.2982269
14	0x3e13c191	0.14429308
15	0xbd9ab74e	-0.07554494
16	0xbe514012	-0.20434597
17	0x3db9395f	0.09044146
18	0x3e194f6c	0.14971703
19	0x3eb2d2e5	0.34926525
20	0x3de6553b	0.11246725
21	0xbe27a458	-0.16371286
22	0xbe29df1a	-0.16589013
23	0xbeb10b6c	-0.34579027
24	0x3ef061d3	0.46949634
25	0x3e920f46	0.28527278
26	0x3e2e8fec	0.1704709
27	0xbe33729d	-0.1752419
28	0x3b7cc557	0.0038569772
29	0xbeaccc99	-0.33749846
30	0x3e9f1c15	0.31076112
31	0x3dfa2cd6	0.12215583
32	0x3c50f94e	0.012754751
33	0xbe845476	-0.2584569
34	0x3e8ac748	0.27105165
35	0x3e735046	0.2376109
36	0x3eced970	0.40400267
37	0xbe94d82a	-0.2907117
38	0xbe864608	-0.26225305
39	0x3d449404	0.04799272
40	0x3e505813	0.20346098
41	0xbec6d61f	-0.38835236
42	0xbdbfa454	-0.09357515
43	0xbea1f183	-0.3162957
44	0x3e8c4414	0.2739569
45	0x3ea69729	0.325372
46	0x3eadbd67	0.33933565
47	0xbe1e3e2f	-0.15453409
48	0x3e5c78cd	0.21530457
49	0xbeaf479e	-0.34234327
50	0xbe48a5c5	-0.19594486
51	0xbe23f97c	-0.1601314
52	0x3ea9f825	0.33197132
53	0x3d036c71	0.03208584
54	0x3ef0df9a	0.47045594
55	0xbdac33eb	-0.0840834
56	0x3ea50a7d	0.32234564
57	0x3eac280b	0.336243
58	0xbdc516c4	-0.09623483
59	0x3e852baa	0.26009876
60	0xbd90c5a8	-0.0706895
61	0xbda3b511	-0.0799352
62	0x3eb237cf	0.34808204
63	0xbe9a7bab	-0.30172476
64	0x3d84ca79	0.06483931
65	0x3e42998c	0.19003886
66	0xbedb4ebe	-0.42833513
67	0x3d7234d3	0.05913241
68	0x3eaa9bfb	0.3332213
69	0xbc2eaf62	-0.010661932
70	0xbeaf34ce	-0.34219974
71	0x3db41847	0.08793693
72	0xbdeb0423	-0.114753984
73	0xbdc3f07d	-0.09567354
74	0xbd2a7b5e	-0.04162156

decoder3.0.weight f4 [15, 1, 5, 1]
0	0x3db336d0	0.08750689
1	0xbe19942d	-0.14997931
2	0xbed09746	-0.40740412
3	0xbd8f7e7f	-0.07006549
4	0x3e2bb795	0.1676925
5	0xbd91f441	-0.07126666
6	0x3e1291e7	0.1431347
7	0xbe853927	-0.26020166
8	0xbdf4b653	-0.11948838
9	0xbe135ae9	-0.14390148
10	0xbe1e924b	-0.15485494
11	0xbe037d90	-0.12840867
12	0x3e0ff689	0.1405889
13	0x3e9dfe8e	0.30858272
14	0x3e9b60db	0.30347332
15	0x3decc9c3	0.115619205
16	0x3ecb4080	0.39697647
17	0xbcb7e7a6	-0.022449326
18	0x3c114a4a	0.00886781
19	0xbe76d359	-0.2410406
20	0xbe99f5bc	-0.30070293
21	0x3d0f3934	0.034966663
22	0x3e164c37	0.14677511
23	0xbe9c4ae5	-0.3052589
24	0x3ed532f0	0.41640425
25	0xbea6201f	-0.3244638
26	0xbe5ee701	-0.21767808
27	0x3eb0de33	0.34544525
28	0xbe710888	-0.2353841
29	0xbdb79507	-0.089639716
30	0xbe4c6a1f	-0.19962357
31	0x3d3acd7c	0.04560612
32	0x3ea90c46	0.33017176
33	0x3eb50625	0.3535625
34	0xbe438071	-0.19091965
35	0xbe023e0c	-0.12718982
36	0x3efdfd3e	0.4960727
37	0x3eb9b9f5	0.36274686
38	0x3e437d00	0.19090652
39	0xbebc030b	-0.36721072
40	0x3e676289	0.22596182
41	0xbea270ca	-0.31726676
42	0xbe262d67	-0.16228257
43	0xbe6c7221	-0.23090412
44	0xbd361a94	-0.04445894
45	0xbef882c2	-0.4853726
46	0x3e65ed20	0.22453737
47	0x3d471411	0.04860312
48	0xbe905212	-0.28187615
49	0xbe947660	-0.28996563
50	0x3e7d1a3d	0.2471704
51	0xbe7abe66	-0.24486694
52	0x3e726c0b	0.23674028
53	0x3de758eb	0.11296257
54	0x3ee89ca8	0.4543202
55	0xbe60096a	-0.21878591
56	0x3e744be2	0.23857072
57	0x3ee98e2c	0.4561628
58	0x3ea82511	0.3284078
59	0xbe2f6ec8	-0.17132103
60	0x3ea9ceab	0.33165488
61	0x3dba9c9d	0.09111903
62	0xbe29e624	-0.16591698
63	0xbeafcb91	-0.34334996
64	0xbe5ba387	-0.214491
65	0xbe8d6d09	-0.2762225
66	0xbe2f0948	-0.17093384
67	0x3d95eca3	0.073205255
68	0x3ea7089b	0.32623753
69	0xbeb4501f	-0.35217378
70	0x3e74fc87	0.23924457
71	0x3e30bd32	0.17259672
72	0x3e14f8cc	0.14548033
73	0xbee35a94	-0.44405043
74	0xbe64a9f3	-0.22330455
