pre_train_models/LUSC.pth (torch, 470027 bytes, 9 tensors)

weight f4 [341, 341]
00000000: 17b7 d138 17b7 d138 17b7 d138 17b7 d138
00000010: 17b7 d138 17b7 d138 17b7 d138 17b7 d138
00000020: 17b7 d138 17b7 d138 17b7 d138 17b7 d138
00000030: 17b7 d138 17b7 d138 17b7 d138 17b7 d138
00000040: 17b7 d138 17b7 d138 17b7 d138 17b7 d138
00000050: 17b7 d138 17b7 d138 17b7 d138 17b7 d138
00000060: 17b7 d138 17b7 d138 17b7 d138 17b7 d138
00000070: 17b7 d138 17b7 d138 17b7 d138 17b7 d138
00000080: 17b7 d138 17b7 d138 17b7 d138 17b7 d138
00000090: 17b7 d138 17b7 d138 17b7 d138 17b7 d138
000000a0: 17b7 d138 17b7 d138 17b7 d138 17b7 d138
000000b0: 17b7 d138 17b7 d138 17b7 d138 17b7 d138
000000c0: 17b7 d138 17b7 d138 17b7 d138 17b7 d138
000000d0: 17b7 d138 17b7 d138 17b7 d138 17b7 d138
000000e0: 17b7 d138 17b7 d138 17b7 d138 17b7 d138
000000f0: 17b7 d138 17b7 d138 17b7 d138 17b7 d138
00000100: 17b7 d138 17b7 d138 17b7 d138 17b7 d138
00000110: 17b7 d138 17b7 d138 17b7 d138 17b7 d138
00000120: 17b7 d138 17b7 d138 17b7 d138 17b7 d138
00000130: 17b7 d138 17b7 d138 17b7 d138 17b7 d138
00000140: 17b7 d138 17b7 d138 17b7 d138 17b7 d138
00000150: 17b7 d138 17b7 d138 17b7 d138 17b7 d138
00000160: 17b7 d138 17b7 d138 17b7 d138 17b7 d138
00000170: 17b7 d138 17b7 d138 17b7 d138 17b7 d138
00000180: 17b7 d138 17b7 d138 17b7 d138 17b7 d138
00000190: 17b7 d138 17b7 d138 17b7 d138 17b7 d138
000001a0: 17b7 d138 17b7 d138 17b7 d138 17b7 d138
000001b0: 17b7 d138 17b7 d138 17b7 d138 17b7 d138
000001c0: 17b7 d138 17b7 d138 17b7 d138 17b7 d138
000001d0: 17b7 d138 17b7 d138 17b7 d138 17b7 d138
000001e0: 17b7 d138 17b7 d138 17b7 d138 17b7 d138
000001f0: 17b7 d138 17b7 d138 17b7 d138 17b7 d138
00000200: 17b7 d138 17b7 d138 17b7 d138 17b7 d138
00000210: 17b7 d138 17b7 d138 17b7 d138 17b7 d138
00000220: 17b7 d138 17b7 d138 17b7 d138 17b7 d138
00000230: 17b7 d138 17b7 d138 17b7 d138 17b7 d138
00000240: 17b7 d138 17b7 d138 17b7 d138 17b7 d138
00000250: 17b7 d138 17b7 d138 17b7 d138 17b7 d138
00000260: 17b7 d138 17b7 d138 17b7 d138 17b7 d138
00000270: 17b7 d138 17b7 d138 17b7 d138 17b7 d138
00000280: 17b7 d138 17b7 d138 17b7 d138 17b7 d138
00000290: 17b7 d138 17b7 d138 17b7 d138 17b7 d138
000002a0: 17b7 d138 17b7 d138 17b7 d138 17b7 d138
000002b0: 17b7 d138 17b7 d138 17b7 d138 17b7 d138
000002c0: 17b7 d138 17b7 d138 17b7 d138 17b7 d138
000002d0: 17b7 d138 17b7 d138 17b7 d138 17b7 d138
000002e0: 17b7 d138 17b7 d138 17b7 d138 17b7 d138
000002f0: 17b7 d138 17b7 d138 17b7 d138 17b7 d138
00000300: 17b7 d138 17b7 d138 17b7 d138 17b7 d138
00000310: 17b7 d138 17b7 d138 17b7 d138 17b7 d138
00000320: 17b7 d138 17b7 d138 17b7 d138 17b7 d138
00000330: 17b7 d138 17b7 d138 17b7 d138 17b7 d138
00000340: 17b7 d138 17b7 d138 17b7 d138 17b7 d138
00000350: 17b7 d138 17b7 d138 17b7 d138 17b7 d138
00000360: 17b7 d138 17b7 d138 17b7 d138 17b7 d138
00000370: 17b7 d138 17b7 d138 17b7 d138 17b7 d138
00000380: 17b7 d138 17b7 d138 17b7 d138 17b7 d138
00000390: 17b7 d138 17b7 d138 17b7 d138 17b7 d138
000003a0: 17b7 d138 17b7 d138 17b7 d138 17b7 d138
000003b0: 17b7 d138 17b7 d138 17b7 d138 17b7 d138
000003c0: 17b7 d138 17b7 d138 17b7 d138 17b7 d138
000003d0: 17b7 d138 17b7 d138 17b7 d138 17b7 d138
000003e0: 17b7 d138 17b7 d138 17b7 d138 17b7 d138
000003f0: 17b7 d138 17b7 d138 17b7 d138 17b7 d138
1e-04 1e-04 1e-04 1e-04 1e-04 1e-04 1e-04 1e-04
1e-04 1e-04 1e-04 1e-04 1e-04 1e-04 1e-04 1e-04
1e-04 1e-04 1e-04 1e-04 1e-04 1e-04 1e-04 1e-04
1e-04 1e-04 1e-04 1e-04 1e-04 1e-04 1e-04 1e-04
1e-04 1e-04 1e-04 1e-04 1e-04 1e-04 1e-04 1e-04
1e-04 1e-04 1e-04 1e-04 1e-04 1e-04 1e-04 1e-04
1e-04 1e-04 1e-04 1e-04 1e-04 1e-04 1e-04 1e-04
1e-04 1e-04 1e-04 1e-04 1e-04 1e-04 1e-04 1e-04
1e-04 1e-04 1e-04 1e-04 1e-04 1e-04 1e-04 1e-04
1e-04 1e-04 1e-04 1e-04 1e-04 1e-04 1e-04 1e-04
1e-04 1e-04 1e-04 1e-04 1e-04 1e-04 1e-04 1e-04
1e-04 1e-04 1e-04 1e-04 1e-04 1e-04 1e-04 1e-04
1e-04 1e-04 1e-04 1e-04 1e-04 1e-04 1e-04 1e-04
1e-04 1e-04 1e-04 1e-04 1e-04 1e-04 1e-04 1e-04
1e-04 1e-04 1e-04 1e-04 1e-04 1e-04 1e-04 1e-04
1e-04 1e-04 1e-04 1e-04 1e-04 1e-04 1e-04 1e-04
1e-04 1e-04 1e-04 1e-04 1e-04 1e-04 1e-04 1e-04
1e-04 1e-04 1e-04 1e-04 1e-04 1e-04 1e-04 1e-04
1e-04 1e-04 1e-04 1e-04 1e-04 1e-04 1e-04 1e-04
1e-04 1e-04 1e-04 1e-04 1e-04 1e-04 1e-04 1e-04
1e-04 1e-04 1e-04 1e-04 1e-04 1e-04 1e-04 1e-04
1e-04 1e-04 1e-04 1e-04 1e-04 1e-04 1e-04 1e-04
1e-04 1e-04 1e-04 1e-04 1e-04 1e-04 1e-04 1e-04
1e-04 1e-04 1e-04 1e-04 1e-04 1e-04 1e-04 1e-04
1e-04 1e-04 1e-04 1e-04 1e-04 1e-04 1e-04 1e-04
1e-04 1e-04 1e-04 1e-04 1e-04 1e-04 1e-04 1e-04
1e-04 1e-04 1e-04 1e-04 1e-04 1e-04 1e-04 1e-04
1e-04 1e-04 1e-04 1e-04 1e-04 1e-04 1e-04 1e-04
1e-04 1e-04 1e-04 1e-04 1e-04 1e-04 1e-04 1e-04
1e-04 1e-04 1e-04 1e-04 1e-04 1e-04 1e-04 1e-04
1e-04 1e-04 1e-04 1e-04 1e-04 1e-04 1e-04 1e-04
1e-04 1e-04 1e-04 1e-04 1e-04 1e-04 1e-04 1e-04

encoder1.0.weight f4 [15, 1, 5, 1]
00000000: 0ed8 8abd 0ae9 7dbe 640a babe a0cd 353e
00000010: e7e5 013d d946 44bd 24d7 373e fdc9 9f3e
00000020: 0afa 46bd de8e 9fbe 3edb acbe 974b c33e
00000030: c558 a2be 9829 fa3c 7342 3dbe bda3 90be
00000040: 2cf2 c1be 2c45 8bbe 297d 253b 4120 dbbc
00000050: 2d32 843d 2735 da3d 1149 65bd a307 ebbd
00000060: ebcc 963e 10c7 973e e03f 923e 525a df3e
00000070: 9078 693e 6f9c 4c3e f232 813e 8918 593e
00000080: cfc6 d6be 694e 493e 0d6d 6f3e e2b9 043e
00000090: 71a2 a1bd 2f07 0bbe 91bd 88be 0cee acbe
000000a0: 9249 7a3e e266 523e 644d a33e fe91 813e
000000b0: 5510 adbe 153f b63e 7b60 a13d 7d12 ca3e
000000c0: 4601 b43e 2b6e b23d f668 a63e 8eba 99be
000000d0: 2c04 a03d 579d 413e a44b 503e 3af7 d3be
000000e0: ade8 90be fb69 3f3e 5858 273e 4464 8abd
000000f0: 0aad 533e e076 e63d 1425 ca3e 0f00 5d3e
00000100: 87c3 d9bd c939 82bd 224c 913e f0e1 983e
00000110: e45a 7cbe b4ce 8dbe 3f89 aebe bf4c 9a3c
00000120: 09c6 433e 7301 0d3e 5b28 bc3c
-0.067794904 -0.24795929 -0.36336052 0.17754221 0.031713393 -0.047919128 0.17953163 0.31208792
-0.0485783 -0.31163687 -0.3376102 0.38143608 -0.3170835 0.030537412 -0.1848238 -0.28249922
-0.37880075 -0.2720121 0.0025251603 -0.026748778 0.06454883 0.10654669 -0.055977885 -0.11476066
0.29453215 0.2964406 0.28564358 0.43623596 0.22799897 0.1998155 0.2523418 0.21200766
-0.41948554 0.19658817 0.23381443 0.12961534 -0.07892311 -0.13576959 -0.26707128 -0.33775365
0.24442127 0.20547059 0.31894982 0.25306696 -0.33801523 0.35595003 0.0787973 0.3946723
0.35157222 0.08712419 0.32501954 -0.30025142 0.07813296 0.18907677 0.20341355 -0.41399556
-0.28302518 0.18692772 0.16342294 -0.067574054 0.20671478 0.11253142 0.39481413 0.21582054
-0.10632997 -0.06358678 0.28378397 0.29859877 -0.24644047 -0.27696764 -0.34089085 0.018835424
0.19118513 0.13770084 0.022968462

encoder1.0.bias f4 [15]
00000000: 653f f73e 4cd6 313e f07e 3f3e e9b6 aebd
00000010: ae73 6e3e 6fe5 313e 7ee8 863e 5d78 86be
00000020: 8ee5 aebd 60ba f6be e921 a13e 10bc 9b3e
00000030: 3b69 9fbe f8df 853a 66ef 9dbe
0.48290554 0.17366904 0.18700767 -0.08530981 0.23286316 0.17372678 0.26349252 -0.26263705
-0.08539878 -0.48189068 0.31471184 0.30416918 -0.31134972 0.0010213843 -0.3084671

decoder1.0.weight f4 [15, 1, 5, 1]
00000000: 9e07 623e 44ed eabe ab4f 813d 0aed 88be
00000010: e1c2 cebc 6869 b4be 9214 db3d b6d5 773e
00000020: 81c7 563e f20d d93d 7f87 473d 5a04 103e
00000030: 9001 26be 10a5 9f3e 4b2e d93d e733 a5be
00000040: c0a8 923c 06c0 1cbd cddb 2ebd 724a 83bd
00000050: f970 bcbd daaf ec3d cc21 cc3d 5b31 903e
00000060: eb38 e03e 8dbc 16bd 96fd a9be 985a d03e
00000070: 8546 eabd 8551 fd3e 1da7 12be ab8a eb3e
00000080: 1d0b 37be 22ea 81be 3068 d6bd d137 ed3e
00000090: a300 c33e d369 9fbe 671a 633e f603 e7bd
000000a0: c1b1 13be 1664 12be 9203 e33e aeb6 bcbe
000000b0: 3b17 f9be b61c e4bd 4c37 05bd e4dc b7be
000000c0: 9ad6 84be 0f4a d23e c856 e93e c0d7 3abe
000000d0: 1329 35be b2e0 9ebb f8f1 f5bd 62f5 89be
000000e0: 814e 053e 3da3 803e 929e dabe 76b4 4dbe
000000f0: 8d19 d83e fd30 5fbe dd52 7ebe 0d5d bdbe
00000100: aeeb 7ebe 0a86 bebe 32e9 a73e 7eb3 c63e
00000110: c411 82be 2223 9abe e914 cb3e 83e2 5cbe
00000120: b24f 07be 515d 1a3d 5cfa da3e
0.22073218 -0.45884144 0.063140236 -0.26743346 -0.02523941 -0.3523667 0.10697283 0.24202618
0.20974542 0.10598363 0.048713204 0.1406416 -0.16211534 0.3118062 0.10604533 -0.3226616
0.017902732 -0.038269065 -0.042690087 -0.06410684 -0.09201235 0.115569785 0.09967384 0.28162655
0.43793425 -0.03680091 -0.33201283 0.40694118 -0.11439232 0.49476257 -0.14321561 0.46004233
-0.17875333 -0.25373942 -0.10469091 0.46331647 0.38086423 -0.31135425 0.2217804 -0.11280052
-0.14423276 -0.14295992 0.4433866 -0.36858124 -0.48650536 -0.11138289 -0.03252344 -0.35910714
-0.25944978 0.41072127 0.4557402 -0.18246365 -0.1769145 -0.004848563 -0.120090425 -0.26945025
0.13018228 0.2512454 -0.42699105 -0.20088372 0.42206994 -0.21796031 -0.24836297 -0.36985055
-0.24894592 -0.3721164 0.327951 0.38808817 -0.2540418 -0.3010493 0.3966439 -0.21570782
-0.13213995 0.03768665 0.42769134

encoder2.0.weight f4 [15, 1, 5, 1]
00000000: 0a9e c93c 181c 45be 6d43 d1bd aee5 5bbe
00000010: 39ed 653e e600 2bbe 6e17 663e 31b8 b9bb
00000020: 6c34 563e 2cd9 f23e f960 9c3e 2300 173e
00000030: 27a7 203e de6e afbe 124e 86be ecc6 c9be
00000040: ce92 89bd f4e7 95bd a17e 58be 53d5 95bd
00000050: 540a 803d 8064 653e 0662 4dbd 56d1 7dbe
00000060: ebc0 f33e 30c1 92bd 0528 cd3d 11d3 c63e
00000070: 1adb c03e b754 82be 686b a9be 9b84 2a3e
00000080: ece2 80be 60c2 0cbb 3330 e63d bd44 c63e
00000090: a20d a9be 69fd 983e b3b4 133e 0b64 643e
000000a0: 569d e1bb 87d1 5fbe 6d48 12be d56b c53e
000000b0: 12cc 5fbe be6c 7abe c113 31be ee14 6e3d
000000c0: 6140 e2bc c1ed a73e d2aa e2bd 816a 91be
000000d0: 9b2b f3bc ab25 323e db17 8cbe dafa 04be
000000e0: fe1f 9abe 4aa5 c83e 569d 933e 0772 6abe
000000f0: b5c9 1f3e 4685 573d b690 d83e 7a42 853e
00000100: 3578 20be d701 bdbc f65d 0b3e 125c 88bb
00000110: 8f0c b4be 57b2 fb3d 3da6 fabd 4a6d a33e
00000120: b0cb 81bd 3746 e03e 9580 c6be
0.024611492 -0.19248998 -0.102179386 -0.21474335 0.22453775 -0.16699561 0.22469875 -0.0056677093
0.20918435 0.47431314 0.30542734 0.14746146 0.15688764 -0.34264272 -0.26231438 -0.39409578
-0.06717454 -0.07319632 -0.21142055 -0.07316079 0.0625197 0.22401619 -0.05014231 -0.24786887
0.47608122 -0.07165754 0.10017399 0.38832906 0.3766716 -0.25455257 -0.33089757 0.16652147
-0.25173128 -0.0021478161 0.11239662 0.38724318 -0.33018214 0.29880837 0.144244 0.22303788
-0.006885211 -0.21857272 -0.1428544 0.38558832 -0.2185519 -0.24455544 -0.17292692 0.05812543
-0.027618589 0.3279858 -0.11067738 -0.2840157 -0.029683879 0.17397182 -0.2736195 -0.12986317
-0.30102533 0.39188606 0.28830975 -0.2289506 0.15604289 0.052617334 0.42297906 0.2602728
-0.15670855 -0.023072166 0.13610062 -0.0041613663 -0.3516583 0.12289875 -0.12238739 0.31919318
-0.063376784 0.4380357 -0.38769975

encoder2.0.bias f4 [15]
00000000: 3562 a73e 96ab a2bd eb09 0e3e bbe4 8cbe
00000010: 69a2 79bc 59d1 0ebc 3057 993e 0eb4 023c
00000020: 2471 ddbe 36cd 283e 2d88 9fbe ba9a 0abd
00000030: daf7 a6be 0c17 45be 83ff 8a3d
0.32692114 -0.07942884 0.13870971 -0.27518257 -0.0152364755 -0.008716905 0.2994933 0.007977499
-0.43250382 0.16484532 -0.3115858 -0.033838965 -0.3261097 -0.19247073 0.06787016

decoder2.0.weight f4 [15, 1, 5, 1]
00000000: 1425 0cbd 701b ab3d 73c2 55be a447 e1bd
00000010: 4c5b b63e ee24 b03e a34f 4cbe 62da 063e
00000020: 214c ef3d c809 dd3e ab5a 233e e825 2c3e
00000030: 2b88 843e 0946 c83e 761c b63e 5bc2 dabe
00000040: ee6c 153e dcee bebe 15e3 8f3e 1a3c 0cbe
00000050: 858a 7fbe d565 b73e e84a ba3e 6290 64bd
00000060: 88b8 c03e b36f bbbe 6934 f63e 17c7 b43e
00000070: a45e 863e f1bc 9ebd c319 c2be 4b52 5a3d
00000080: 3798 46bd aa3c c53e 3a68 bcbe ff46 d1bd
00000090: 6f81 66bc 4224 b43e 1fca 3a3e 121f cbbd
000000a0: 9ecf f83e 7ab1 c03e 9a5d 653e d4dd 21be
000000b0: 83f3 a0bd 3953 83bd c2c8 493d 5dde b23e
000000c0: 0eb0 29be 70b3 863e 8a7b f7ba 0cc7 9fbe
000000d0: 442a 183e 2805 ca3e 2e8b 9b3e 7b47 16bd
000000e0: f937 dabe f84f 343e 9d72 913e b802 a73e
000000f0: d990 74bd e0c0 0bbe b16d e13e 91f4 f2bd
00000100: 302b 753e 641e 24be 76b8 adbe 2bd6 9fbe
00000110: d15c a33d 558f 03be 18b3 213d 0cba d53e
00000120: 0bb0 c7be c4ea 2e3e de44 6fbd
-0.034215048 0.08354843 -0.20874958 -0.109999925 0.3561653 0.34403175 -0.19952254 0.13169244
0.11684442 0.43171525 0.15952556 0.16811335 0.25885138 0.39115933 0.3556859 -0.42726406
0.14592335 -0.3729161 0.28102937 -0.13694802 -0.24955185 0.3581988 0.36385274 -0.055801757
0.37640786 -0.36608657 0.4808686 0.35308143 0.2624408 -0.077508815 -0.3791028 0.053301137
-0.048485007 0.38522846 -0.3679827 -0.102186196 -0.014068945 0.35183913 0.18241166 -0.099180356
0.485959 0.37635404 0.22398987 -0.15807277 -0.07858946 -0.06412358 0.049263723 0.34935275
-0.16571066 0.26308775 -0.0018881422 -0.31206548 0.14859873 0.3945706 0.30379623 -0.036689263
-0.4262083 0.1760863 0.28407755 0.32619262 -0.05970845 -0.13647795 0.44029 -0.118630536
0.23942256 -0.16027218 -0.33929795 -0.31218085 0.07976688 -0.12847646 0.039477438 0.41743505
-0.39001498 0.17081743 -0.058415286

encoder3.0.weight f4 [15, 1, 5, 1]
00000000: f78f 763e 14b0 6abe f8cc 9fbe f585 32be
00000010: 9e30 303d 42f1 acbe 7229 96be 2364 a8be
00000020: 5db5 553d 4fcc 773d 019d 6c3e 351a 41be
00000030: ce98 6c3d 53ee ac3e 5a07 a1be b3d6 9a3d
00000040: c142 bebe ed1e b53e 5348 b03e 8aeb 04be
00000050: ab95 bc3e 3687 3dbe 03a9 86be 5cb1 993e
00000060: a02c 0dbe aef0 253e 6c74 0e3e 0028 8a3e
00000070: 8bd2 8dbe 3c26 a8be d5b7 863e 5bee 963e
00000080: bd84 b63e 3d9d 663e f0e2 babe 9f21 0f3d
00000090: 9f48 01be d895 aa3d fa61 c4be 810a 1a3e
000000a0: f81b 1d3e 7062 4abe 765d 523e 4735 c8be
000000b0: 73ef 4ebe c8fc 4e3d 8a8f aa3c 0b3c 253e
000000c0: f6e3 523e 868c d83e de50 b43e 7a48 b0bd
000000d0: e688 b3be aa3c 843e 648b 033e 6eb6 a9be
000000e0: 0991 753e 9bd3 e93d 1cb1 edbe 78c1 d5bd
000000f0: c975 38be 6a43 d23d 73a9 90be e221 1d3c
00000100: 8276 86be 3e1e 97be ff43 3ebe e03e 7e3d
00000110: e804 90be 1a38 173e e1a6 bd3e b168 a1be
00000120: 1d04 2f3d ac88 89be e3ad aebe
0.24078356 -0.22918731 -0.31211066 -0.17433913 0.043015115 -0.33777815 -0.29328495 -0.32888898
0.052174915 0.06049758 0.23106767 -0.18857653 0.057762913 0.33775577 -0.3145092 0.07560482
-0.37160304 0.35375157 0.3443018 -0.12980476 0.36832938 -0.1850861 -0.2630082 0.30018127
-0.13786554 0.16205093 0.13911599 0.26983643 -0.27699694 -0.3284167 0.26312128 0.29478726
0.35648146 0.22520919 -0.36501265 0.034944173 -0.12625359 0.08329362 -0.38356 0.1504307
0.153427 -0.19764113 0.20543465 -0.39103147 -0.2020853 0.05053404 0.020820398 0.16136186
0.20594773 0.4229471 0.35217947 -0.08607574 -0.35065383 0.25827533 0.12846142 -0.33146995
0.23981108 0.11417314 -0.46424186 -0.10437292 -0.18013681 0.102667645 -0.2825428 0.009590598
-0.2626229 -0.2951526 -0.18580626 0.06207168 -0.28128743 0.14767495 0.3704138 -0.31525186
0.042728532 -0.26862085 -0.3411704

decoder3.0.weight f4 [15, 1, 5, 1]
00000000: 5b40 de3e 9390 d5be dcec 23be 65cf 88be
00000010: f1a8 053e c3d1 d2be b31e a73e b3e4 993e
00000020: 61e3 7cbd 475c 743e 6394 57be 5352 d2bc
00000030: 8349 173e c8f6 c73e 308e 4abe a1cc 88be
00000040: 72e2 8fbe 3736 3a3e eba0 c13e 644d 393e
00000050: fcac 4aba 8c10 393e 2cd9 173e c6de 9a3d
00000060: bbe0 b53e a2f9 4b3a 60c6 c33e ac8f 4a3d
00000070: 1fd9 a3be 2579 c2be 5593 d23e 4168 163c
00000080: 21a7 dcbe d42d 2d3e ec4f a53e 37fd 073e
00000090: 2ddf 9a3e d31b 59be b22b c4be 0d2e 39be
000000a0: 3238 f43e ad79 bbbd f7d1 9ebe 91e1 b3be
000000b0: 914b 333e 4d8b 83be 3b8d 8fbc def8 983d
000000c0: 54c1 dc3e fcc2 9d3e 2924 84be 84b2 9d3c
000000d0: 1c41 d7be 6311 66be 2459 4e3e d962 fabe
000000e0: 90b6 6b3e 5c28 82be a3fb 50be 77be cbbe
000000f0: 4b43 a1be 6d43 18be 1437 aa3e 96bc d33c
00000100: 0cfb 043e 4ed7 ce3c 4d3c 62be 297d 37be
00000110: cc27 683e cbf4 af3e 26b6 9a3e 3f36 903d
00000120: 63ea eabe eeec 21be a511 afbe
0.43408474 -0.41711864 -0.16008323 -0.2672073 0.13052727 -0.4117566 0.3264061 0.30057296
-0.061740283 0.23863326 -0.21052699 -0.02567402 0.14774136 0.39055467 -0.19780803 -0.2671862
-0.28102452 0.18184744 0.37818083 0.18095928 -0.0007731465 0.18072718 0.14828938 0.07562022
0.35523018 0.00077810336 0.38237286 0.049453422 -0.32001588 -0.3798305 0.4112803 0.0091801295
-0.4309626 0.16912013 0.32287538 0.13280188 0.30248395 -0.2120202 -0.38314587 -0.18083973
0.47699124 -0.09154067 -0.31019565 -0.3513303 0.17509295 -0.25692216 -0.017523399 0.07469343
0.43116248 0.30812824 -0.25808838 0.019250162 -0.42041862 -0.2246757 0.20151192 -0.4890354
0.23018861 -0.25421417 -0.20408492 -0.3979375 -0.31496653 -0.14869471 0.33245146 0.02584676
0.12986392 0.02524915 -0.22093315 -0.17918839 0.22671431 0.3436645 0.30217093 0.070415966
-0.45881948 -0.15813038 -0.3419315
