pre_train_models/OV.pth (torch, 334411 bytes, 9 tensors)

weight f4 [287, 287]
00000000: 17b7 d138 17b7 d138 17b7 d138 17b7 d138
00000010: 17b7 d138 17b7 d138 17b7 d138 17b7 d138
00000020: 17b7 d138 17b7 d138 17b7 d138 17b7 d138
00000030: 17b7 d138 17b7 d138 17b7 d138 17b7 d138
00000040: 17b7 d138 17b7 d138 17b7 d138 17b7 d138
00000050: 17b7 d138 17b7 d138 17b7 d138 17b7 d138
00000060: 17b7 d138 17b7 d138 17b7 d138 17b7 d138
00000070: 17b7 d138 17b7 d138 17b7 d138 17b7 d138
00000080: 17b7 d138 17b7 d138 17b7 d138 17b7 d138
00000090: 17b7 d138 17b7 d138 17b7 d138 17b7 d138
000000a0: 17b7 d138 17b7 d138 17b7 d138 17b7 d138
000000b0: 17b7 d138 17b7 d138 17b7 d138 17b7 d138
000000c0: 17b7 d138 17b7 d138 17b7 d138 17b7 d138
000000d0: 17b7 d138 17b7 d138 17b7 d138 17b7 d138
000000e0: 17b7 d138 17b7 d138 17b7 d138 17b7 d138
000000f0: 17b7 d138 17b7 d138 17b7 d138 17b7 d138
00000100: 17b7 d138 17b7 d138 17b7 d138 17b7 d138
00000110: 17b7 d138 17b7 d138 17b7 d138 17b7 d138
00000120: 17b7 d138 17b7 d138 17b7 d138 17b7 d138
00000130: 17b7 d138 17b7 d138 17b7 d138 17b7 d138
00000140: 17b7 d138 17b7 d138 17b7 d138 17b7 d138
00000150: 17b7 d138 17b7 d138 17b7 d138 17b7 d138
00000160: 17b7 d138 17b7 d138 17b7 d138 17b7 d138
00000170: 17b7 d138 17b7 d138 17b7 d138 17b7 d138
00000180: 17b7 d138 17b7 d138 17b7 d138 17b7 d138
00000190: 17b7 d138 17b7 d138 17b7 d138 17b7 d138
000001a0: 17b7 d138 17b7 d138 17b7 d138 17b7 d138
000001b0: 17b7 d138 17b7 d138 17b7 d138 17b7 d138
000001c0: 17b7 d138 17b7 d138 17b7 d138 17b7 d138
000001d0: 17b7 d138 17b7 d138 17b7 d138 17b7 d138
000001e0: 17b7 d138 17b7 d138 17b7 d138 17b7 d138
000001f0: 17b7 d138 17b7 d138 17b7 d138 17b7 d138
00000200: 17b7 d138 17b7 d138 17b7 d138 17b7 d138
00000210: 17b7 d138 17b7 d138 17b7 d138 17b7 d138
00000220: 17b7 d138 17b7 d138 17b7 d138 17b7 d138
00000230: 17b7 d138 17b7 d138 17b7 d138 17b7 d138
00000240: 17b7 d138 17b7 d138 17b7 d138 17b7 d138
00000250: 17b7 d138 17b7 d138 17b7 d138 17b7 d138
00000260: 17b7 d138 17b7 d138 17b7 d138 17b7 d138
00000270: 17b7 d138 17b7 d138 17b7 d138 17b7 d138
00000280: 17b7 d138 17b7 d138 17b7 d138 17b7 d138
00000290: 17b7 d138 17b7 d138 17b7 d138 17b7 d138
000002a0: 17b7 d138 17b7 d138 17b7 d138 17b7 d138
000002b0: 17b7 d138 17b7 d138 17b7 d138 17b7 d138
000002c0: 17b7 d138 17b7 d138 17b7 d138 17b7 d138
000002d0: 17b7 d138 17b7 d138 17b7 d138 17b7 d138
000002e0: 17b7 d138 17b7 d138 17b7 d138 17b7 d138
000002f0: 17b7 d138 17b7 d138 17b7 d138 17b7 d138
00000300: 17b7 d138 17b7 d138 17b7 d138 17b7 d138
00000310: 17b7 d138 17b7 d138 17b7 d138 17b7 d138
00000320: 17b7 d138 17b7 d138 17b7 d138 17b7 d138
00000330: 17b7 d138 17b7 d138 17b7 d138 17b7 d138
00000340: 17b7 d138 17b7 d138 17b7 d138 17b7 d138
00000350: 17b7 d138 17b7 d138 17b7 d138 17b7 d138
00000360: 17b7 d138 17b7 d138 17b7 d138 17b7 d138
00000370: 17b7 d138 17b7 d138 17b7 d138 17b7 d138
00000380: 17b7 d138 17b7 d138 17b7 d138 17b7 d138
00000390: 17b7 d138 17b7 d138 17b7 d138 17b7 d138
000003a0: 17b7 d138 17b7 d138 17b7 d138 17b7 d138
000003b0: 17b7 d138 17b7 d138 17b7 d138 17b7 d138
000003c0: 17b7 d138 17b7 d138 17b7 d138 17b7 d138
000003d0: 17b7 d138 17b7 d138 17b7 d138 17b7 d138
000003e0: 17b7 d138 17b7 d138 17b7 d138 17b7 d138
000003f0: 17b7 d138 17b7 d138 17b7 d138 17b7 d138
1e-04 1e-04 1e-04 1e-04 1e-04 1e-04 1e-04 1e-04
1e-04 1e-04 1e-04 1e-04 1e-04 1e-04 1e-04 1e-04
1e-04 1e-04 1e-04 1e-04 1e-04 1e-04 1e-04 1e-04
1e-04 1e-04 1e-04 1e-04 1e-04 1e-04 1e-04 1e-04
1e-04 1e-04 1e-04 1e-04 1e-04 1e-04 1e-04 1e-04
1e-04 1e-04 1e-04 1e-04 1e-04 1e-04 1e-04 1e-04
1e-04 1e-04 1e-04 1e-04 1e-04 1e-04 1e-04 1e-04
1e-04 1e-04 1e-04 1e-04 1e-04 1e-04 1e-04 1e-04
1e-04 1e-04 1e-04 1e-04 1e-04 1e-04 1e-04 1e-04
1e-04 1e-04 1e-04 1e-04 1e-04 1e-04 1e-04 1e-04
1e-04 1e-04 1e-04 1e-04 1e-04 1e-04 1e-04 1e-04
1e-04 1e-04 1e-04 1e-04 1e-04 1e-04 1e-04 1e-04
1e-04 1e-04 1e-04 1e-04 1e-04 1e-04 1e-04 1e-04
1e-04 1e-04 1e-04 1e-04 1e-04 1e-04 1e-04 1e-04
1e-04 1e-04 1e-04 1e-04 1e-04 1e-04 1e-04 1e-04
1e-04 1e-04 1e-04 1e-04 1e-04 1e-04 1e-04 1e-04
1e-04 1e-04 1e-04 1e-04 1e-04 1e-04 1e-04 1e-04
1e-04 1e-04 1e-04 1e-04 1e-04 1e-04 1e-04 1e-04
1e-04 1e-04 1e-04 1e-04 1e-04 1e-04 1e-04 1e-04
1e-04 1e-04 1e-04 1e-04 1e-04 1e-04 1e-04 1e-04
1e-04 1e-04 1e-04 1e-04 1e-04 1e-04 1e-04 1e-04
1e-04 1e-04 1e-04 1e-04 1e-04 1e-04 1e-04 1e-04
1e-04 1e-04 1e-04 1e-04 1e-04 1e-04 1e-04 1e-04
1e-04 1e-04 1e-04 1e-04 1e-04 1e-04 1e-04 1e-04
1e-04 1e-04 1e-04 1e-04 1e-04 1e-04 1e-04 1e-04
1e-04 1e-04 1e-04 1e-04 1e-04 1e-04 1e-04 1e-04
1e-04 1e-04 1e-04 1e-04 1e-04 1e-04 1e-04 1e-04
1e-04 1e-04 1e-04 1e-04 1e-04 1e-04 1e-04 1e-04
1e-04 1e-04 1e-04 1e-04 1e-04 1e-04 1e-04 1e-04
1e-04 1e-04 1e-04 1e-04 1e-04 1e-04 1e-04 1e-04
1e-04 1e-04 1e-04 1e-04 1e-04 1e-04 1e-04 1e-04
1e-04 1e-04 1e-04 1e-04 1e-04 1e-04 1e-04 1e-04

encoder1.0.weight f4 [15, 1, 5, 1]
00000000: 12f5 7c3e a0b0 9e3e efa7 53be d0d5 b7be
00000010: a372 88be 18e8 703d a792 263e c16f b33e
00000020: a1ce a53e ef19 15be eb6d 823e 4f27 c0bc
00000030: db77 453e 6ca8 803e 4448 e93b 58d0 36bd
00000040: b86a ab3d 1446 0abd a883 35be 0c50 92be
00000050: a184 97bd 7532 70be 473b b53e 6d58 b33e
00000060: 1b2e 8dbd 650e f93e 5b59 73bc 9b5b 503e
00000070: c68c b2bd e2f5 c53d a6b8 903d 1fcd 5dbd
00000080: cf94 30be ec3a 8bbd f0b8 623e 1e7f 0fbd
00000090: 2cd1 5c3e 0681 533e 5f2f 663e 818b 823e
000000a0: 0b0d cf3e f529 e8be 3af5 3abe f95b 98be
000000b0: 2137 c53e af20 d83e ad2e bcbd 8739 cb3e
000000c0: 5c44 21be 6e1e 383d 7f1c 78be de32 bcbd
000000d0: d76a 003f 90e1 883e 0822 99be 6baa 4ebe
000000e0: 6395 2dbe 582b 923e 9970 16bd bcbc a93d
000000f0: 502e a4bd 27c9 b6be 34bf 673e 10ed f43e
00000100: e86d bb3d 6a96 73bc a77f 16be acb7 593e
00000110: 5e64 c9be 1430 1e3e 5bd2 27bc 350a be3e
00000120: 4fca 62be 8d5a 283e 6ab5 d93d
0.24702862 0.3099413 -0.2066953 -0.35905313 -0.2664996 0.05881509 0.16266881 0.350462
0.32384208 -0.14560674 0.25474486 -0.023456244 0.19284002 0.25128496 0.0071192104 -0.044632286
0.08369964 -0.033758238 -0.17726004 -0.28576696 -0.07398344 -0.23456748 0.35396788 0.350284
-0.068935595 0.48643795 -0.014852847 0.20347445 -0.08718257 0.09666039 0.07066469 -0.054150697
-0.17244266 -0.06798348 0.2214086 -0.035033338 0.21564168 0.20654687 0.22479008 0.25497058
0.40439638 -0.4534451 -0.18257609 -0.2975767 0.38518623 0.42212436 -0.0918859 0.39692327
-0.15748733 0.044950895 -0.2422962 -0.0918939 0.50163025 0.2673459 -0.29908776 -0.20182197
-0.16951518 0.28548694 -0.036728475 0.08287951 -0.08016646 -0.35700342 0.22631532 0.47837114
0.09151822 -0.0148674045 -0.14697133 0.21261472 -0.39334387 0.15448028 -0.010243024 0.37117162
-0.22147487 0.16440792 0.10630305

encoder1.0.bias f4 [15]
00000000: 9514 363e c1e4 25bd c412 e2bd 112b 1cbd
00000010: ed2f af3e 685d 693e 65f1 d2be dc5c 803d
00000020: eb50 9bbe 8796 7fbe 240e a5be 78aa b33e
00000030: acbc 9f3e 7a00 afbe 4a5d bbbc
0.17781289 -0.04050136 -0.110387355 -0.03812701 0.34216252 0.22789538 -0.41199794 0.062677115
-0.30335173 -0.24959765 -0.3223735 0.35090995 0.31198633 -0.3418005 -0.022871632

decoder1.0.weight f4 [15, 1, 5, 1]
00000000: 3576 26bd 6990 85be 7111 13be 47c9 bc3e
00000010: 41b6 833e db2c 813e d727 043e 0371 963e
00000020: 3ebb a23e fc53 b33e 9ddc 6f3d 716c 73be
00000030: bb14 ad3e 9309 fd3d 6775 cb3c 4b7b 37be
00000040: f611 a1bb 76d5 a63e fd19 343e 456a cabe
00000050: 691f 8b3e fb23 b5bd 0e44 243e 13e6 b2be
00000060: 9e3f 873e 74b4 573e 6591 2d3e 3a92 533e
00000070: d71d a0be 38be bbbe e4e3 3c3e 5273 a4bc
00000080: b1cc a13c c63d d9be 3668 14be 11e8 c33e
00000090: 0df4 dbbe f5a5 b33e 7b95 8dbe ba0f e4be
000000a0: 55f3 103c ed15 50bd 2a7f 6f3d 7765 c4bd
000000b0: 9885 ddbe 7d7e f23e 1465 8f3e c8b8 bc3d
000000c0: 392e b83e 46d4 a73e f64c c6be 5391 a23e
000000d0: f198 8abe b6b3 c9bd a8c3 afbe cba8 813e
000000e0: 65ab 9b3d 92a0 e53e 3b1d e4be cb21 023e
000000f0: 9408 a0bd ee98 90bd e230 a7be 9140 adbe
00000100: 0462 efbd eb55 b4be 8e46 8e3e 9d72 c83d
00000110: fb49 39be 6efe 723e c22f f2be dd8d 7bbe
00000120: 7757 41be c527 63be 7ed4 ccbe
-0.040640075 -0.2608674 -0.14362122 0.36872312 0.25724986 0.25229535 0.12905823 0.29383096
0.3178348 0.35025012 0.058560003 -0.23771836 0.3380488 0.12355342 0.024836255 -0.17918126
-0.004915471 0.32584733 0.17588039 -0.39534202 0.27172402 -0.08844753 0.16041586 -0.34941158
0.26415724 0.21064931 0.16949995 0.2066125 -0.31272766 -0.36668563 0.18446308 -0.02007452
0.019750925 -0.42429942 -0.14492878 0.3826299 -0.42959633 0.35087553 -0.27653107 -0.44543248
0.008847077 -0.05080216 0.058470882 -0.095896654 -0.43265986 0.47362128 0.28006804 0.09214932
0.35972765 0.3277914 -0.38730592 0.317515 -0.2706981 -0.0984873 -0.3432896 0.2532409
0.0760105 0.44849068 -0.4455355 0.12708203 -0.07814136 -0.07060419 -0.32654482 -0.33838323
-0.11688617 -0.352218 0.27788204 0.09787486 -0.18094628 0.2372987 -0.4730206 -0.24565835
-0.18881021 -0.2218314 -0.4000587

encoder2.0.weight f4 [15, 1, 5, 1]
00000000: f3a7 a9be 503d babe 6f39 923d 801a d7be
00000010: a461 853e d79d a43e 3ba1 42be 6bce fe3d
00000020: 552a 0a3e ff6d 5dbd 66aa 293d bb4d ee3e
00000030: bc78 9dbe 1c11 8c3e 098b e43e 7a1e b63d
00000040: 7cbd ef3e af55 bfbe 6ab7 d5bd cce4 f9bd
00000050: 4a24 1ebb 3009 ddbc 2833 a9bc ffae 4fbe
00000060: f694 183e 7d55 083e c577 90be 6b78 c93e
00000070: daff c03e 5516 62bd 5af2 e53d 4fde b4be
00000080: 756f cb3e 05d6 2d3e 3134 13be a703 663e
00000090: e782 f93e 52ca be3e 2764 763e 103c 773e
000000a0: b026 bc3e 3af1 ee3e 6297 ac3e 8100 c73e
000000b0: 53d4 9fbe f178 213e 3adb 7f3e d3b9 0e3e
000000c0: 2405 05be d4f6 09be 9fc3 1f3e 2107 d5bd
000000d0: 6232 8b3d d4b2 dc3e 413e cebe c9f9 0fbe
000000e0: b0b4 60be 6dc2 d43e 5de0 663e 5a19 533e
000000f0: b750 7bbe 05c5 fabd d48c c63e 519e fdbd
00000100: 9e18 ca3e 0e6b d2bd 239c b73e c0cf 36be
00000110: 7afc 02bd b057 953c 847c 32be f4ab 6d3c
00000120: 1198 35be 41a7 9ebe cfe1 44bd
-0.33135948 -0.36374903 0.07139861 -0.42012405 0.26051056 0.32151672 -0.19006817 0.12441715
0.13492711 -0.05405998 0.04142227 0.4654368 -0.30756176 0.27356803 0.44637325 0.08892532
0.46824253 -0.3737006 -0.10435374 -0.12201843 -0.0024130517 -0.02698192 -0.020654276 -0.202816
0.14900574 0.13313861 -0.28216377 0.39349684 0.376952 -0.05519708 0.112278655 -0.35325858
0.39733472 0.16976173 -0.14375378 0.22462331 0.48732683 0.37263733 0.24061643 0.24144006
0.36748266 0.46668416 0.33709246 0.38867572 -0.31216678 0.15768792 0.24985972 0.13938074
-0.12990242 -0.13473064 0.15601967 -0.1040175 0.06796719 0.43105185 -0.4028187 -0.14060129
-0.21943927 0.41554585 0.22546525 0.2061514 -0.24542509 -0.1224461 0.38779318 -0.12383712
0.39471906 -0.10274325 0.3586131 -0.17852688 -0.03197906 0.01823029 -0.17430311 0.014506329
-0.1773379 -0.3098698 -0.04806691

encoder2.0.bias f4 [15]
00000000: f6bf 8a3e 1fe6 d7bd f355 88bd 4a9f e43e
00000010: 4b28 183d 2a5d 84be 36fc 3c3c 8cdb 45be
00000020: b88b b5bd 1d84 d33b f4bf be3e cf24 fe3d
00000030: ba00 893a c6d7 6a3e 0bf9 803e
0.2709958 -0.10541939 -0.066570185 0.44652778 0.0371478 -0.2585233 0.011534741 -0.19322032
-0.0886454 0.006454958 0.37255824 0.124093644 0.0010452487 0.22933874 0.25190005

decoder2.0.weight f4 [15, 1, 5, 1]
00000000: 70f4 4dbe 2ef9 503e ff23 b4be bb67 87be
00000010: 09b6 153d 35b8 f53e f0d7 eebd 2ceb 293e
00000020: 720b 78be a21f c4bd 25eb 00be 07fa e13e
00000030: e9c1 eabb 1509 8c3e 5409 733e 340d 053e
00000040: f97f b33e 7476 9fbe 9e29 eebe 8b0c 82be
00000050: c33c b0be 61af bbbe c868 d5be a36b 00be
00000060: 8778 d93d ffcd 56be 8db2 be3e ac64 533e
00000070: 8df3 e83d 15f0 f9bd 3be9 12be 2f53 723e
00000080: 0551 6dbe f66f 843e f41c a13e bc17 bfbd
00000090: 425f b53e fa46 eb3c 8617 bb3e 9596 97be
000000a0: da8f e73e c4f4 da3d 2015 bf3c 83fc 633e
000000b0: b302 e93d 42bb 52bd 3882 ed3c fc82 75be
000000c0: 3fd8 ecbe 34dc f8bd 4502 b6be 549c 9dbd
000000d0: 08dd 2dbe ca19 ea3e 534f a1be 8ba3 03be
000000e0: 5a40 4ebe b4fa 9abe fdc1 8ebe c11a cc3e
000000f0: 2fc1 81bd d3e9 c6be 0456 3b3e e3c3 803e
00000100: d36e 203e 15bb 10be 7c29 cfbd 587b 923d
00000110: 208d bc3e 8a36 353c dd5e 5c3e 60ce b3be
00000120: 914d b93e 5d9a af3e 0d6d 2a3e
-0.20112777 0.20407555 -0.35183713 -0.26446328 0.036550555 0.479921 -0.116622806 0.16593617
-0.24223116 -0.09576346 -0.125897 0.44136068 -0.007164229 0.2735068 0.23734027 0.12993318
0.35058573 -0.3114506 -0.46516126 -0.25400195 -0.34421358 -0.3665724 -0.41681504 -0.1254106
0.10618692 -0.20977019 0.37245598 0.20643872 0.113745786 -0.12203995 -0.14346783 0.23664545
-0.23175438 0.2586667 0.31467402 -0.09330699 0.35424238 0.028720368 0.36541384 -0.29607072
0.45226938 0.106912166 0.023325503 0.22264294 0.11377468 -0.051448114 0.028992757 -0.23975748
-0.46258733 -0.121513754 -0.35548607 -0.07695833 -0.16978848 0.457228 -0.31505832 -0.12855355
-0.20141736 -0.30269396 -0.27882376 0.39864162 -0.06335675 -0.3885027 0.18294531 0.2514945
0.15667276 -0.14133866 -0.101153344 0.07152432 0.3682642 0.011060366 0.21520562 -0.3511839
0.3619199 0.34297457 0.16643162

encoder3.0.weight f4 [15, 1, 5, 1]
00000000: 2c23 1abd 72a2 333e 80e3 cfbe 6582 47be
00000010: ebbd a1be 1b50 743e 2b8b 6abd ac5d 9cbe
00000020: c3c4 473e 1ae3 1cbe 0fed f5be 3482 5a3e
00000030: 567f 69bd 218e 8fbd 898f a03e b25c b83d
00000040: 91dc a23e 5513 e0be b006 65bc db69 683e
00000050: e79b a43d 8831 ec3e 0351 893c 88bc bd3e
00000060: 272f b93d b340 5d3e 21d7 853e 32f0 823d
00000070: d5ff d0be a8fa 9f3e 4383 013e 4612 903b
00000080: 629e 49bb 31e5 1b3e d8e1 9f3b 1507 80be
00000090: f94c b3bd 347d cabe 1f1d 37be 6c93 253e
000000a0: 5207 e53e 5d13 1a3d 7d1b 6f3e 314d 53be
000000b0: deeb d73d 4c40 c73d bdcd f33e afda 4e3e
000000c0: e538 2dbe ca95 1cbe 4558 983d 633d d5bc
000000d0: bb9e c2be bda1 eebd 560e e03d c3c1 69be
000000e0: 8edb 6f3b dc62 cebe 3480 30be 038e 59bd
000000f0: 990f 9abe d428 283e d098 a53e ba12 cabe
00000100: efa5 9c3e 753d 443e 634c 08be ffde 863c
00000110: a775 d9be eb63 00be 5b30 7b3e 1de3 bebd
00000120: 1fac bf3e 7e33 ac3e 5bf0 c63c
-0.0376312 0.17542437 -0.40603256 -0.19483335 -0.31590208 0.23858683 -0.057261627 -0.30540216
0.19508652 -0.15321007 -0.48032424 0.21338731 -0.057006203 -0.07009531 0.3135951 0.09002055
0.31808904 -0.4376475 -0.013978645 0.2269663 0.080375485 0.4613154 0.016762262 0.370579
0.09042197 0.21606712 0.26140693 0.0639347 -0.40820184 0.31245923 0.12647729 0.0043967096
-0.003076457 0.15224148 0.0048792176 -0.25005403 -0.08754916 -0.39548647 -0.17882203 0.16169518
0.44732147 0.037616123 0.2335033 -0.20634915 0.10543035 0.097290605 0.47617903 0.20200609
-0.16916235 -0.15291515 0.07438711 -0.026030248 -0.38011727 -0.11651943 0.10940234 -0.2282782
0.003659937 -0.403098 -0.17236406 -0.05311395 -0.30090025 0.16421825 0.3234315 -0.39467412
0.30595347 0.19164069 -0.13310389 0.016463755 -0.42472574 -0.12538116 0.24530165 -0.09320662
0.37436005 0.33633035 0.024284532

decoder3.0.weight f4 [15, 1, 5, 1]
00000000: 7459 9dbe 05ac 37be 0ffa 08be 2b84 8bbe
00000010: b62d ecbe 3552 be3e 6228 0f3e 347d 193e
00000020: d488 ce3e 625d aebd 648a e1be ad84 adbe
00000030: adf6 0b3d 6f43 acbe 488e 82be fa4f a7be
00000040: 131d 8bbe 0522 253e dd0d b43e 2b2e bc3e
00000050: 80ef bf3e 546f 4e3e 3ff3 acbe 3514 b53e
00000060: 902f c3be 337a c4be 4766 b23e 4558 ea3c
00000070: b391 49bd 49e0 b6bd 7e4d 273d f17c bcbe
00000080: 8f33 d7be abcc b8be 1054 bfbe 2319 c8bd
00000090: 7187 f4be ed4f b7be 2b98 2cbe a884 eb3e
000000a0: 6796 d23e 64e3 b43e 4108 7b3e 9d20 3dbe
000000b0: 2c18 9dbe 4e59 6bbd 8636 c43e 6532 4bbe
000000c0: 5567 69be 747b 8abe e2a2 9abe fc8a 263e
000000d0: 4f68 e9be 4f77 26bc d2ea b23e ae31 163e
000000e0: ba68 13bd cb0f fbbd e7ae 5a3e 7bca 9ebe
000000f0: b9c9 f73d 1661 6c3d 535a b03e 0bb4 ab3e
00000100: 5156 f43e 09d6 bf3e 47de 0dbe a468 9b3e
00000110: 4832 eabe 8245 9ebd 4a5a 4c3e 5069 db3d
00000120: f5b6 9bbe 784b 623e af8b 6a3d
-0.3073231 -0.17936714 -0.1337664 -0.27249274 -0.46128625 0.37172094 0.13980249 0.14989167
0.40338767 -0.08513905 -0.44050896 -0.33890286 0.034170795 -0.33645198 -0.25499177 -0.32678205
-0.2717062 0.16126259 0.35166827 0.36753973 0.37487411 0.20159656 -0.33779332 0.3536698
-0.38122225 -0.3837448 0.34843656 0.028606543 -0.049211215 -0.08929498 0.040845387 -0.36814073
-0.42031524 -0.3609365 -0.37368822 -0.097704194 -0.47759584 -0.35803166 -0.16854922 0.45999646
0.41130373 0.35329735 0.24514867 -0.18469472 -0.30682504 -0.057458214 0.38322848 -0.19843443
-0.22793324 -0.27047312 -0.30202395 0.16263956 -0.45587394 -0.010160281 0.3494478 0.14667389
-0.035988547 -0.12258872 0.21355782 -0.31013855 0.120990224 0.057709776 0.34443912 0.335358
0.47722104 0.37467983 -0.13854323 0.30353272 -0.45741487 -0.07728101 0.19956318 0.10713446
-0.30413023 0.22099102 0.05726212
