pre_train_models/SARC.pth (torch, 269131 bytes, 9 tensors)

weight f4 [257, 257]
00000000: 17b7 d138 17b7 d138 17b7 d138 17b7 d138
00000010: 17b7 d138 17b7 d138 17b7 d138 17b7 d138
00000020: 17b7 d138 17b7 d138 17b7 d138 17b7 d138
00000030: 17b7 d138 17b7 d138 17b7 d138 17b7 d138
00000040: 17b7 d138 17b7 d138 17b7 d138 17b7 d138
00000050: 17b7 d138 17b7 d138 17b7 d138 17b7 d138
00000060: 17b7 d138 17b7 d138 17b7 d138 17b7 d138
00000070: 17b7 d138 17b7 d138 17b7 d138 17b7 d138
00000080: 17b7 d138 17b7 d138 17b7 d138 17b7 d138
00000090: 17b7 d138 17b7 d138 17b7 d138 17b7 d138
000000a0: 17b7 d138 17b7 d138 17b7 d138 17b7 d138
000000b0: 17b7 d138 17b7 d138 17b7 d138 17b7 d138
000000c0: 17b7 d138 17b7 d138 17b7 d138 17b7 d138
000000d0: 17b7 d138 17b7 d138 17b7 d138 17b7 d138
000000e0: 17b7 d138 17b7 d138 17b7 d138 17b7 d138
000000f0: 17b7 d138 17b7 d138 17b7 d138 17b7 d138
00000100: 17b7 d138 17b7 d138 17b7 d138 17b7 d138
00000110: 17b7 d138 17b7 d138 17b7 d138 17b7 d138
00000120: 17b7 d138 17b7 d138 17b7 d138 17b7 d138
00000130: 17b7 d138 17b7 d138 17b7 d138 17b7 d138
00000140: 17b7 d138 17b7 d138 17b7 d138 17b7 d138
00000150: 17b7 d138 17b7 d138 17b7 d138 17b7 d138
00000160: 17b7 d138 17b7 d138 17b7 d138 17b7 d138
00000170: 17b7 d138 17b7 d138 17b7 d138 17b7 d138
00000180: 17b7 d138 17b7 d138 17b7 d138 17b7 d138
00000190: 17b7 d138 17b7 d138 17b7 d138 17b7 d138
000001a0: 17b7 d138 17b7 d138 17b7 d138 17b7 d138
000001b0: 17b7 d138 17b7 d138 17b7 d138 17b7 d138
000001c0: 17b7 d138 17b7 d138 17b7 d138 17b7 d138
000001d0: 17b7 d138 17b7 d138 17b7 d138 17b7 d138
000001e0: 17b7 d138 17b7 d138 17b7 d138 17b7 d138
000001f0: 17b7 d138 17b7 d138 17b7 d138 17b7 d138
00000200: 17b7 d138 17b7 d138 17b7 d138 17b7 d138
00000210: 17b7 d138 17b7 d138 17b7 d138 17b7 d138
00000220: 17b7 d138 17b7 d138 17b7 d138 17b7 d138
00000230: 17b7 d138 17b7 d138 17b7 d138 17b7 d138
00000240: 17b7 d138 17b7 d138 17b7 d138 17b7 d138
00000250: 17b7 d138 17b7 d138 17b7 d138 17b7 d138
00000260: 17b7 d138 17b7 d138 17b7 d138 17b7 d138
00000270: 17b7 d138 17b7 d138 17b7 d138 17b7 d138
00000280: 17b7 d138 17b7 d138 17b7 d138 17b7 d138
00000290: 17b7 d138 17b7 d138 17b7 d138 17b7 d138
000002a0: 17b7 d138 17b7 d138 17b7 d138 17b7 d138
000002b0: 17b7 d138 17b7 d138 17b7 d138 17b7 d138
000002c0: 17b7 d138 17b7 d138 17b7 d138 17b7 d138
000002d0: 17b7 d138 17b7 d138 17b7 d138 17b7 d138
000002e0: 17b7 d138 17b7 d138 17b7 d138 17b7 d138
000002f0: 17b7 d138 17b7 d138 17b7 d138 17b7 d138
00000300: 17b7 d138 17b7 d138 17b7 d138 17b7 d138
00000310: 17b7 d138 17b7 d138 17b7 d138 17b7 d138
00000320: 17b7 d138 17b7 d138 17b7 d138 17b7 d138
00000330: 17b7 d138 17b7 d138 17b7 d138 17b7 d138
00000340: 17b7 d138 17b7 d138 17b7 d138 17b7 d138
00000350: 17b7 d138 17b7 d138 17b7 d138 17b7 d138
00000360: 17b7 d138 17b7 d138 17b7 d138 17b7 d138
00000370: 17b7 d138 17b7 d138 17b7 d138 17b7 d138
00000380: 17b7 d138 17b7 d138 17b7 d138 17b7 d138
00000390: 17b7 d138 17b7 d138 17b7 d138 17b7 d138
000003a0: 17b7 d138 17b7 d138 17b7 d138 17b7 d138
000003b0: 17b7 d138 17b7 d138 17b7 d138 17b7 d138
000003c0: 17b7 d138 17b7 d138 17b7 d138 17b7 d138
000003d0: 17b7 d138 17b7 d138 17b7 d138 17b7 d138
000003e0: 17b7 d138 17b7 d138 17b7 d138 17b7 d138
000003f0: 17b7 d138 17b7 d138 17b7 d138 17b7 d138
1e-04 1e-04 1e-04 1e-04 1e-04 1e-04 1e-04 1e-04
1e-04 1e-04 1e-04 1e-04 1e-04 1e-04 1e-04 1e-04
1e-04 1e-04 1e-04 1e-04 1e-04 1e-04 1e-04 1e-04
1e-04 1e-04 1e-04 1e-04 1e-04 1e-04 1e-04 1e-04
1e-04 1e-04 1e-04 1e-04 1e-04 1e-04 1e-04 1e-04
1e-04 1e-04 1e-04 1e-04 1e-04 1e-04 1e-04 1e-04
1e-04 1e-04 1e-04 1e-04 1e-04 1e-04 1e-04 1e-04
1e-04 1e-04 1e-04 1e-04 1e-04 1e-04 1e-04 1e-04
1e-04 1e-04 1e-04 1e-04 1e-04 1e-04 1e-04 1e-04
1e-04 1e-04 1e-04 1e-04 1e-04 1e-04 1e-04 1e-04
1e-04 1e-04 1e-04 1e-04 1e-04 1e-04 1e-04 1e-04
1e-04 1e-04 1e-04 1e-04 1e-04 1e-04 1e-04 1e-04
1e-04 1e-04 1e-04 1e-04 1e-04 1e-04 1e-04 1e-04
1e-04 1e-04 1e-04 1e-04 1e-04 1e-04 1e-04 1e-04
1e-04 1e-04 1e-04 1e-04 1e-04 1e-04 1e-04 1e-04
1e-04 1e-04 1e-04 1e-04 1e-04 1e-04 1e-04 1e-04
1e-04 1e-04 1e-04 1e-04 1e-04 1e-04 1e-04 1e-04
1e-04 1e-04 1e-04 1e-04 1e-04 1e-04 1e-04 1e-04
1e-04 1e-04 1e-04 1e-04 1e-04 1e-04 1e-04 1e-04
1e-04 1e-04 1e-04 1e-04 1e-04 1e-04 1e-04 1e-04
1e-04 1e-04 1e-04 1e-04 1e-04 1e-04 1e-04 1e-04
1e-04 1e-04 1e-04 1e-04 1e-04 1e-04 1e-04 1e-04
1e-04 1e-04 1e-04 1e-04 1e-04 1e-04 1e-04 1e-04
1e-04 1e-04 1e-04 1e-04 1e-04 1e-04 1e-04 1e-04
1e-04 1e-04 1e-04 1e-04 1e-04 1e-04 1e-04 1e-04
1e-04 1e-04 1e-04 1e-04 1e-04 1e-04 1e-04 1e-04
1e-04 1e-04 1e-04 1e-04 1e-04 1e-04 1e-04 1e-04
1e-04 1e-04 1e-04 1e-04 1e-04 1e-04 1e-04 1e-04
1e-04 1e-04 1e-04 1e-04 1e-04 1e-04 1e-04 1e-04
1e-04 1e-04 1e-04 1e-04 1e-04 1e-04 1e-04 1e-04
1e-04 1e-04 1e-04 1e-04 1e-04 1e-04 1e-04 1e-04
1e-04 1e-04 1e-04 1e-04 1e-04 1e-04 1e-04 1e-04

encoder1.0.weight f4 [15, 1, 5, 1]
00000000: dd2c e33e ae48 38be 4417 e43e c8ea ab3e
00000010: f711 4cbe 1f52 073e 85b3 8cbe af99 e53e
00000020: 3efe 8cbc f1f3 813e 99a3 153e 576a afbe
00000030: 22c1 9a3c 1d9b 6cbe c4b3 683e e11e 803d
00000040: 27d4 023e 5a75 52be 8c24 cfbe 8652 c0be
00000050: e324 b93e ed6b 74bd b1d3 b9bd 760e 7b3c
00000060: 3ef1 ce3e 0d7a a23e 00ba 15be df4b 89bd
00000070: 0a0d 36be ac4f d83e 36cb 2f3d f8b6 093e
00000080: 4818 1cbd a5eb 9f3c 193f 91bb 9d02 9f3e
00000090: 8ad5 c0be e3fc 473e 8083 9abe 7fc6 99be
000000a0: e76f 64bd 0355 9f3e 5e9b e23c be8b e53e
000000b0: 19f4 83bd 6591 b9bc 54ae 71bd e99b a63e
000000c0: 7d35 503e 1fbd 0cbe e3ca 68be b986 cebe
000000d0: ce95 a43e ed96 9f3e f729 193e 2fe9 c3be
000000e0: 49b4 073c a782 9d3e ea70 023e bd40 743e
000000f0: 00fa e93d 6bec 933d 9d4d 1abe 5519 993e
00000100: e103 c1be a084 3cbd 1dd7 8ebe 8c7d 88be
00000110: 1a0f 943e dbfe 4cbe 5031 c93e 5b00 973e
00000120: 81fc 9ebd 61a0 ecbe 2cd5 773e
0.44370165 -0.17996475 0.44549 0.3357756 -0.19928728 0.1321492 -0.27480713 0.44843814
-0.017211076 0.25381425 0.14613189 -0.34260818 0.018890921 -0.23106046 0.22724825 0.0625589
0.12776242 -0.20552579 -0.4045757 -0.3756296 0.36160955 -0.05967324 -0.0907358 0.015323272
0.40418428 0.31733742 -0.14621735 -0.067039244 -0.17778412 0.42248285 0.042918406 0.13448703
-0.038109094 0.019521544 -0.0044325707 0.3105668 -0.37662917 0.19530062 -0.30178452 -0.30034253
-0.05577078 0.31119546 0.027661975 0.44833177 -0.06443042 -0.022652337 -0.059004143 0.32540825
0.20332904 -0.13744019 -0.22733645 -0.4033716 0.32145542 0.31169835 0.14957415 -0.38263842
0.008282729 0.30763742 0.12738386 0.2385282 0.11424637 0.072228275 -0.1506867 0.2990214
-0.37698272 -0.04602492 -0.27898493 -0.26658285 0.28917772 -0.20019095 0.39295435 0.2949246
-0.07763005 -0.4621611 0.24202412

encoder1.0.bias f4 [15]
00000000: 6c98 aebc 2bcb 9c3e 647b 8dbd 17c4 c7be
00000010: 66c5 86bc 08ce b13e b5f7 d6be dc92 73bc
00000020: 1edb fa3e 369b 5abe 3bfe 82be 8904 663e
00000030: 0137 c4be e9e4 733d c9c7 b63e
-0.021312915 0.30623755 -0.069083005 -0.39016792 -0.016451549 0.34727502 -0.4198586 -0.014866557
0.48995298 -0.21348271 -0.25584587 0.22462668 -0.38323215 0.059544478 0.356993

decoder1.0.weight f4 [15, 1, 5, 1]
00000000: 46ca 563e bfa3 c53d 6447 043e c318 be3d
00000010: 8cab 6fbe 6734 583e b1a8 95bd 312c 603d
00000020: 9435 d43c 3644 64be 5a94 be3d 2793 c2be
00000030: af16 0a3a b69b 7d3e 0687 3c3e 0c5c eebe
00000040: b270 c83d 7b5a 80be 0cd0 453e 90b2 753e
00000050: e980 99be 7df9 83be 1470 0ebb c1dd c23e
00000060: 97ef adbe fd07 71be 01ce 96bd beb2 5b3e
00000070: 6f83 d53d 6b96 1c3e 8081 b03e e150 53be
00000080: cbdb 673e 60c7 8dbd 1923 08be f58c 683e
00000090: bec2 6b3d a88f fdbd 1c69 d3be f0a6 973e
000000a0: b405 94be a165 87be 4b92 223c 0327 603e
000000b0: 8b52 033e d5ef e5bd 90f8 d2be 3944 ec3e
000000c0: 02a9 813e b846 96be 3c72 c2be 1a85 28be
000000d0: ba32 80be 4381 b53c 252b dfbe 7d67 ccbd
000000e0: 4185 bbbe 0b7d 6fbd a2ce 243e 3504 863d
000000f0: f333 e53e 8a2a a73e 21d1 8dbe 9ee7 8b3e
00000100: d531 bdbe f67b 4a3e ce94 86be edf2 483e
00000110: cedd 2ebe d033 e0be 5441 a9be bdfa b03d
00000120: f020 7e3e 1601 dcbe 83c1 abbe
0.20975599 0.09650373 0.12917858 0.09282067 -0.23405284 0.2111374 -0.07307566 0.054729644
0.025904454 -0.22291645 0.093056396 -0.38002893 0.00052676623 0.2476643 0.18410882 -0.465546
0.0978712 -0.2506903 0.19317645 0.23993897 -0.29981163 -0.25776282 -0.0021734284 0.3805981
-0.33971855 -0.23538204 -0.07363511 0.21454903 0.104254596 0.15291755 0.344738 -0.20636322
0.22642438 -0.069227934 -0.13294639 0.22710021 0.057558767 -0.12380916 -0.4129113 0.2961955
-0.289106 -0.26444724 0.009922574 0.21889882 0.12824456 -0.11227385 -0.41205263 0.461458
0.25324255 -0.2935083 -0.3797778 -0.16457024 -0.250387 0.022156363 -0.43587604 -0.09980676
-0.36625102 -0.05846886 0.16094449 0.06543771 0.44766197 0.32649642 -0.27698615 0.27325147
-0.3695208 0.1977385 -0.26285404 0.19623919 -0.170768 -0.4378953 -0.33057654 0.086415745
0.24817252 -0.42969579 -0.33546075

encoder2.0.weight f4 [15, 1, 5, 1]
00000000: 7782 c7bd 6b94 63be f492 70bd 3fc1 18be
00000010: 6ba5 26bd 0f6d 88be dd9a 973e cabe 873e
00000020: 8c1d 84bc f377 17be 4afd ae3e b04c 07be
00000030: cba0 263c 9e02 3a3d 41cc 86be 5d98 a6bd
00000040: d391 0cbe 90f1 59bd 533d 3a3e fd9d ce3e
00000050: 1f58 bd3e 2fdb bfbe 2894 9d3e da1c ce3d
00000060: 08c6 93be 1983 8a3d 7ad8 afbe 5d7c 5ebd
00000070: 11d9 a33c ed37 a4be 8c48 b0be 7ae2 6d3d
00000080: 8b0c c43e 0db8 d33c 4f8b 02be 4858 c33d
00000090: ccd4 a33b 0107 f13e 37cc 883e ed07 a9be
000000a0: 1d47 9abe e7a2 4e3e f474 99bc acca 8d3e
000000b0: 7933 bc3e a121 60bd c5d3 e63e b6e3 5cbd
000000c0: c179 bfbe f47d 6e3e 4bc9 8ebd 42cf aa3e
000000d0: 4e43 a6be b027 8bbd 3005 9d3e 7a1a 76be
000000e0: dfba 233e d52e 133e 180c 87be c135 2c3e
000000f0: 3bba 09bc 6256 a9be 33eb d73e 9b76 a43e
00000100: 823e 3f3e 8083 3fbe 7e66 35be 3f64 de3e
00000110: a34a ddbd 9ab2 6fbe 0786 d03d 236b debe
00000120: 07e5 da3e 977f 2b3e afd9 3fbe
-0.09741681 -0.22224586 -0.058733895 -0.14917468 -0.0406851 -0.26645705 0.2961034 0.26512748
-0.01612737 -0.14791851 0.3417762 -0.13212848 0.010170172 0.045412652 -0.26327708 -0.0813453
-0.13727503 -0.053208888 0.18187456 0.4035491 0.36981294 -0.3747191 0.30777097 0.10064097
-0.28862023 0.06763286 -0.34344846 -0.05431782 0.020000966 -0.32073918 -0.3443035 0.058077313
0.3829082 0.025844598 -0.12748455 0.09538323 0.0049997326 0.47075656 0.26718304 -0.3301386
-0.3013238 0.2017933 -0.018732525 0.2769369 0.3675802 -0.05471957 0.45083442 -0.0539281
-0.37397578 0.23290235 -0.06971987 0.3336125 -0.32473224 -0.06794679 0.3066802 -0.24033538
0.15989254 0.14373334 -0.26376414 0.1681738 -0.008406217 -0.33073717 0.4217163 0.3212174
0.18676189 -0.18702507 -0.17714879 0.43435857 -0.108052514 -0.23407975 0.10181814 -0.43441114
0.4275286 0.1674789 -0.18735383

encoder2.0.bias f4 [15]
00000000: b293 a4be d27c a13e 0f63 78be 2599 a03e
00000010: 157e ac3e cc77 54bd e042 aebe 3040 98be
00000020: 95ea c03e 7b08 62be ff98 e93d fdd7 173e
00000030: dfd1 e8be f901 733d 4062 9f3e
-0.32143933 0.31540543 -0.24256538 0.3136684 0.33689943 -0.05187206 -0.34035397 -0.2973647
0.37678972 -0.22073548 0.11406135 0.14828487 -0.4547262 0.059328053 0.31129646

decoder2.0.weight f4 [15, 1, 5, 1]
00000000: 1fc4 afbe a2ab 813e e582 83be b980 8abe
00000010: 7301 333e 0040 cabe 5947 323e be14 793c
00000020: c0ac be3e 275c c3be e708 9a3e bf9f 353d
00000030: 3e61 91be 2acd c33e a3c7 38be a49c d03e
00000040: 7748 053d bb9e 93be 90f5 643e c453 d93e
00000050: 7bd7 d63e 6b19 c6be ad57 bdbe b5be 9fbe
00000060: e614 9bbd 1668 ec3d fe94 cabd 354f 63be
00000070: 2595 4bbe ee28 97be bbf3 75be f194 303e
00000080: 8447 a33e a80d c53e 29e8 7f3e 7fd7 30be
00000090: 5556 99bd bed3 c13d e051 50be ca6e c63e
000000a0: a3c9 b2be 23ed b13e 0bcb 1e3e 52f1 63be
000000b0: 5fef e33e 51cb 563d 7db8 b13d 327c a13e
000000c0: e903 77be 8baa 03be ff94 b03d 49bb 6c3e
000000d0: f267 96be bc88 c13d 050c a0be a9f8 c23e
000000e0: 57d8 993e 9c58 4c3d 7c59 edbd e997 cf3e
000000f0: 56dd 983e d27d 0f3e c822 3e3e 95f1 a0be
00000100: 36ff 92be f8a1 c0be 3f3d f5be 7b25 de3e
00000110: a058 7ebd ee6a e1be dd1c 2dbe 4ff9 0dbd
00000120: ab3e eb3e 5fef eabe ae74 5a3e
-0.34329316 0.25326258 -0.25685802 -0.27051333 0.17481022 -0.39501953 0.1741003 0.015202699
0.37241173 -0.38156244 0.30084917 0.0443418 -0.28394502 0.38242465 -0.18044905 0.40744507
0.03253981 -0.2883204 0.223593 0.4244672 0.41961274 -0.38691267 -0.36980954 -0.31200185
-0.075723454 0.1154329 -0.09891699 -0.22198184 -0.19881113 -0.29523414 -0.24018757 0.17244317
0.318905 0.3848698 0.24990906 -0.17269705 -0.0748717 0.09464215 -0.20343733 0.387564
-0.34919462 0.34751233 0.15507142 -0.22260025 0.44518563 0.05243999 0.086777665 0.31540066
-0.24122585 -0.12858026 0.08622169 0.23118319 -0.2937618 0.09449908 -0.3125917 0.38080338
0.30047867 0.049889192 -0.115893334 0.40545586 0.29856366 0.1401284 0.18567955 -0.31434312
-0.28710335 -0.37623572 -0.4789829 0.4338797 -0.062096238 -0.44026893 -0.16905542 -0.034661587
0.4594625 -0.4588575 0.21333572

encoder3.0.weight f4 [15, 1, 5, 1]
00000000: e6c9 073e 5cf4 bbbd 9fb2 363d 228c 01be
00000010: f43a e03e 2bb0 eb3d d3cd 833e 6cb7 a73e
00000020: 23a9 643e 248a c73e ff77 8d3e 9258 3bbd
00000030: b9c0 f73d bf73 d0be 0e0a cdbe d12e 9a3d
00000040: d784 bd3e 336c 04be 830c 16be 4b01 a23e
00000050: b246 bdbe fbe2 5f3e a333 29be 2f7f 59be
00000060: c029 7bbd c867 263e 597b 37be 72a5 633d
00000070: 9066 783e 1143 42be 8f8f 6bbe a5ee af3c
00000080: 2e05 cb3d 4981 413d bb7f 973d dea8 223c
00000090: d7c5 343e b6fc aebd f01f 9d3e 8d8d 52bd
000000a0: d1f2 c2be 9ca7 22be b89f 993e 3d28 8d3e
000000b0: 2c06 6d3e 2ccf 72be 6e03 b6be f175 873e
000000c0: 788b 4ebc 1e1c 1ebe 8ae9 723e e761 c43e
000000d0: 7f7b 81be de6e a9bd 4c35 c7be a3f1 983d
000000e0: afd4 c43d bfbb c93e d06b 3cbe 2236 a5be
000000f0: 6806 bbbe 4406 2f3e 0c5d eebe 6c0a 983e
00000100: 89fd 86be f822 9a3e d6d6 37be af37 b43e
00000110: ced3 4b3d 4e3e b33e bf8b 9dbe c65a a5be
00000120: 0b30 563e 2d87 d23c 682f 16bb
0.13260612 -0.09177467 0.04460394 -0.12651113 0.43794978 0.11508211 0.2574297 0.32757127
0.22330146 0.3897258 0.27630612 -0.045738764 0.12097306 -0.40713307 -0.40046734 0.07528461
0.3701541 -0.129319 -0.1465321 0.3164161 -0.36968 0.2186393 -0.16523604 -0.21239923
-0.061319113 0.16250527 -0.17918147 0.055577703 0.24257874 -0.18970896 -0.23003982 0.0214761
0.09913097 0.047242437 0.073974095 0.009927956 0.17653595 -0.085442945 0.3068843 -0.051404525
-0.3807588 -0.1588425 0.30004668 0.27569762 0.23146886 -0.23711842 -0.35549492 0.2645717
-0.012606494 -0.15440413 0.237219 0.38355944 -0.25289533 -0.08273099 -0.3890785 0.074679635
0.09610879 0.3940105 -0.18400502 -0.32267863 -0.36528325 0.17092234 -0.46555364 0.2969545
-0.26365307 0.30104804 -0.17953047 0.35198733 0.04976254 0.35008472 -0.3077068 -0.32295817
0.20916764 0.025699222 -0.002291644

decoder3.0.weight f4 [15, 1, 5, 1]
00000000: 48a9 553d a515 9a3e 1652 923c 09be a83e
00000010: 0707 be3e d17a e2be cecd 373e bc9b e2be
00000020: 71a8 763e 5441 5dbe f80c e6be fab7 99bd
00000030: 80ea a8be e21a a03d be66 bbbd e250 493e
00000040: 41d0 583e bc75 74be a035 963e a45f 213e
00000050: 4e33 8b3e 4ab5 f03e a39e 50be e458 4ebe
00000060: 8001 863e 3038 743e f98c 4abe 3c47 70be
00000070: 2ff0 663e 93f9 b9be 7749 b3be 8e4c 99be
00000080: 0cf4 5e3e f310 40be 16e5 c93c 0fd4 343e
00000090: 0573 553e 40f3 ff3c 136a d13e e68a 0dbe
000000a0: 6ae6 9c3e 7872 5b3e 8561 b0be 8692 d53e
000000b0: 9285 8a3d 2c3b 33bd bd59 6cbd 8d7c 83bd
000000c0: 34d0 673e c4c0 a83e 8291 70be 002d c03e
000000d0: da03 24be 2db9 a43e 6004 8f3e d549 b43e
000000e0: 3f71 8c3d d08a 993d 1168 943e e34c 2d3e
000000f0: bb91 adbe 9020 bbbe 3741 b2be 170e c4bd
00000100: 9ee1 873c 8d17 a13e eecc aa3e 8de0 63be
00000110: f64f eebe dd39 ba3e 325c 373e fd02 c6be
00000120: 3395 ea3d a1d8 933e d0d7 6ebe
0.052163392 0.30094638 0.017861407 0.32957485 0.37114736 -0.44234326 0.17949602 -0.4425944
0.24087693 -0.21606952 -0.4493177 -0.07505794 -0.3299141 0.078176275 -0.09150456 0.1965976
0.21173193 -0.23873037 0.29337788 0.1575914 0.2718758 0.47013313 -0.20373015 -0.20151097
0.2617302 0.23849559 -0.1978034 -0.23464674 0.2255256 -0.36323223 -0.35016987 -0.2994122
0.21772784 -0.18756466 0.02464537 0.17659019 0.20844658 0.03124392 0.4090124 -0.13822517
0.30644542 0.21430385 -0.34449401 0.4171335 0.06763758 -0.043757603 -0.05770277 -0.064202406
0.22638017 0.32959569 -0.23493007 0.37534332 -0.16017094 0.32172528 0.27933025 0.3521258
0.068575375 0.074971795 0.28985646 0.16923861 -0.33900246 -0.3654828 -0.3481538 -0.09573
0.016587075 0.3146328 0.33359474 -0.22253628 -0.4654538 0.3637227 0.17906263 -0.38674155
0.11454239 0.28876212 -0.23324513
