pre_train_models/SKCM.pth (torch, 814923 bytes, 9 tensors)

weight f4 [450, 450]
00000000: 17b7 d138 17b7 d138 17b7 d138 17b7 d138
00000010: 17b7 d138 17b7 d138 17b7 d138 17b7 d138
00000020: 17b7 d138 17b7 d138 17b7 d138 17b7 d138
00000030: 17b7 d138 17b7 d138 17b7 d138 17b7 d138
00000040: 17b7 d138 17b7 d138 17b7 d138 17b7 d138
00000050: 17b7 d138 17b7 d138 17b7 d138 17b7 d138
00000060: 17b7 d138 17b7 d138 17b7 d138 17b7 d138
00000070: 17b7 d138 17b7 d138 17b7 d138 17b7 d138
00000080: 17b7 d138 17b7 d138 17b7 d138 17b7 d138
00000090: 17b7 d138 17b7 d138 17b7 d138 17b7 d138
000000a0: 17b7 d138 17b7 d138 17b7 d138 17b7 d138
000000b0: 17b7 d138 17b7 d138 17b7 d138 17b7 d138
000000c0: 17b7 d138 17b7 d138 17b7 d138 17b7 d138
000000d0: 17b7 d138 17b7 d138 17b7 d138 17b7 d138
000000e0: 17b7 d138 17b7 d138 17b7 d138 17b7 d138
000000f0: 17b7 d138 17b7 d138 17b7 d138 17b7 d138
00000100: 17b7 d138 17b7 d138 17b7 d138 17b7 d138
00000110: 17b7 d138 17b7 d138 17b7 d138 17b7 d138
00000120: 17b7 d138 17b7 d138 17b7 d138 17b7 d138
00000130: 17b7 d138 17b7 d138 17b7 d138 17b7 d138
00000140: 17b7 d138 17b7 d138 17b7 d138 17b7 d138
00000150: 17b7 d138 17b7 d138 17b7 d138 17b7 d138
00000160: 17b7 d138 17b7 d138 17b7 d138 17b7 d138
00000170: 17b7 d138 17b7 d138 17b7 d138 17b7 d138
00000180: 17b7 d138 17b7 d138 17b7 d138 17b7 d138
00000190: 17b7 d138 17b7 d138 17b7 d138 17b7 d138
000001a0: 17b7 d138 17b7 d138 17b7 d138 17b7 d138
000001b0: 17b7 d138 17b7 d138 17b7 d138 17b7 d138
000001c0: 17b7 d138 17b7 d138 17b7 d138 17b7 d138
000001d0: 17b7 d138 17b7 d138 17b7 d138 17b7 d138
000001e0: 17b7 d138 17b7 d138 17b7 d138 17b7 d138
000001f0: 17b7 d138 17b7 d138 17b7 d138 17b7 d138
00000200: 17b7 d138 17b7 d138 17b7 d138 17b7 d138
00000210: 17b7 d138 17b7 d138 17b7 d138 17b7 d138
00000220: 17b7 d138 17b7 d138 17b7 d138 17b7 d138
00000230: 17b7 d138 17b7 d138 17b7 d138 17b7 d138
00000240: 17b7 d138 17b7 d138 17b7 d138 17b7 d138
00000250: 17b7 d138 17b7 d138 17b7 d138 17b7 d138
00000260: 17b7 d138 17b7 d138 17b7 d138 17b7 d138
00000270: 17b7 d138 17b7 d138 17b7 d138 17b7 d138
00000280: 17b7 d138 17b7 d138 17b7 d138 17b7 d138
00000290: 17b7 d138 17b7 d138 17b7 d138 17b7 d138
000002a0: 17b7 d138 17b7 d138 17b7 d138 17b7 d138
000002b0: 17b7 d138 17b7 d138 17b7 d138 17b7 d138
000002c0: 17b7 d138 17b7 d138 17b7 d138 17b7 d138
000002d0: 17b7 d138 17b7 d138 17b7 d138 17b7 d138
000002e0: 17b7 d138 17b7 d138 17b7 d138 17b7 d138
000002f0: 17b7 d138 17b7 d138 17b7 d138 17b7 d138
00000300: 17b7 d138 17b7 d138 17b7 d138 17b7 d138
00000310: 17b7 d138 17b7 d138 17b7 d138 17b7 d138
00000320: 17b7 d138 17b7 d138 17b7 d138 17b7 d138
00000330: 17b7 d138 17b7 d138 17b7 d138 17b7 d138
00000340: 17b7 d138 17b7 d138 17b7 d138 17b7 d138
00000350: 17b7 d138 17b7 d138 17b7 d138 17b7 d138
00000360: 17b7 d138 17b7 d138 17b7 d138 17b7 d138
00000370: 17b7 d138 17b7 d138 17b7 d138 17b7 d138
00000380: 17b7 d138 17b7 d138 17b7 d138 17b7 d138
00000390: 17b7 d138 17b7 d138 17b7 d138 17b7 d138
000003a0: 17b7 d138 17b7 d138 17b7 d138 17b7 d138
000003b0: 17b7 d138 17b7 d138 17b7 d138 17b7 d138
000003c0: 17b7 d138 17b7 d138 17b7 d138 17b7 d138
000003d0: 17b7 d138 17b7 d138 17b7 d138 17b7 d138
000003e0: 17b7 d138 17b7 d138 17b7 d138 17b7 d138
000003f0: 17b7 d138 17b7 d138 17b7 d138 17b7 d138
1e-04 1e-04 1e-04 1e-04 1e-04 1e-04 1e-04 1e-04
1e-04 1e-04 1e-04 1e-04 1e-04 1e-04 1e-04 1e-04
1e-04 1e-04 1e-04 1e-04 1e-04 1e-04 1e-04 1e-04
1e-04 1e-04 1e-04 1e-04 1e-04 1e-04 1e-04 1e-04
1e-04 1e-04 1e-04 1e-04 1e-04 1e-04 1e-04 1e-04
1e-04 1e-04 1e-04 1e-04 1e-04 1e-04 1e-04 1e-04
1e-04 1e-04 1e-04 1e-04 1e-04 1e-04 1e-04 1e-04
1e-04 1e-04 1e-04 1e-04 1e-04 1e-04 1e-04 1e-04
1e-04 1e-04 1e-04 1e-04 1e-04 1e-04 1e-04 1e-04
1e-04 1e-04 1e-04 1e-04 1e-04 1e-04 1e-04 1e-04
1e-04 1e-04 1e-04 1e-04 1e-04 1e-04 1e-04 1e-04
1e-04 1e-04 1e-04 1e-04 1e-04 1e-04 1e-04 1e-04
1e-04 1e-04 1e-04 1e-04 1e-04 1e-04 1e-04 1e-04
1e-04 1e-04 1e-04 1e-04 1e-04 1e-04 1e-04 1e-04
1e-04 1e-04 1e-04 1e-04 1e-04 1e-04 1e-04 1e-04
1e-04 1e-04 1e-04 1e-04 1e-04 1e-04 1e-04 1e-04
1e-04 1e-04 1e-04 1e-04 1e-04 1e-04 1e-04 1e-04
1e-04 1e-04 1e-04 1e-04 1e-04 1e-04 1e-04 1e-04
1e-04 1e-04 1e-04 1e-04 1e-04 1e-04 1e-04 1e-04
1e-04 1e-04 1e-04 1e-04 1e-04 1e-04 1e-04 1e-04
1e-04 1e-04 1e-04 1e-04 1e-04 1e-04 1e-04 1e-04
1e-04 1e-04 1e-04 1e-04 1e-04 1e-04 1e-04 1e-04
1e-04 1e-04 1e-04 1e-04 1e-04 1e-04 1e-04 1e-04
1e-04 1e-04 1e-04 1e-04 1e-04 1e-04 1e-04 1e-04
1e-04 1e-04 1e-04 1e-04 1e-04 1e-04 1e-04 1e-04
1e-04 1e-04 1e-04 1e-04 1e-04 1e-04 1e-04 1e-04
1e-04 1e-04 1e-04 1e-04 1e-04 1e-04 1e-04 1e-04
1e-04 1e-04 1e-04 1e-04 1e-04 1e-04 1e-04 1e-04
1e-04 1e-04 1e-04 1e-04 1e-04 1e-04 1e-04 1e-04
1e-04 1e-04 1e-04 1e-04 1e-04 1e-04 1e-04 1e-04
1e-04 1e-04 1e-04 1e-04 1e-04 1e-04 1e-04 1e-04
1e-04 1e-04 1e-04 1e-04 1e-04 1e-04 1e-04 1e-04

encoder1.0.weight f4 [15, 1, 5, 1]
00000000: 2a88 b5be ec90 ac3d 5797 adbe 1bc5 babd
00000010: a1fa e6be e3d2 7e3e 81a9 003e 8bcc 7fbe
00000020: 7586 213e bb05 13bd f556 b33e 3de7 9a3e
00000030: 80ff 31be 4ab3 a63d 2acb 9bbe 2d4d b43a
00000040: 8ba9 443e 9bca ea3e 4a8c 3abe 9053 fc3e
00000050: 9f4d 6f3e 41dd 313e be06 b03e 6e6f 123e
00000060: a264 5dbe 9539 403e 3f88 80be 3e41 92be
00000070: 5620 44be 9c2b 983e 7d09 d73e 4954 e4bd
00000080: b3ad 4f3e 378f aabe 7c62 92bd 0ccb d6bc
00000090: 8713 70be b685 84be f99c a63e 7588 803e
000000a0: c914 c03e 8b42 a2bd d456 c5be 6621 8a3d
000000b0: ac0e fc3e c4e7 943e 2739 98be 5e30 b8be
000000c0: 1eac 8abe 6696 aabe 391a 573e c45f 163e
000000d0: 4bc3 1f3d e65d 503e 1ea8 72be 35f7 d33d
000000e0: 51b3 23be e197 83be 0371 4e3d ab81 a1bd
000000f0: 4e19 93be e175 44be d60a 38be a5ae 50bd
00000100: 40b1 11be 247c debe d0b5 ffbd 6408 8fbe
00000110: 0d32 cbbe f9c1 a53e 2db9 59be dbc9 f53c
00000120: 8269 8abe a826 ca3e f31c 2f3d
-0.35455447 0.08426079 -0.33904526 -0.09119626 -0.4511309 0.24885134 0.1256466 -0.2498037
0.15773948 -0.035894137 0.3502728 0.30254546 -0.17382622 0.081396654 -0.3042844 0.001375591
0.192053 0.458577 -0.18217579 0.49282503 0.23369454 0.17369558 0.34380144 0.1430032
-0.2162042 0.18771966 -0.25103948 -0.285654 -0.1915296 0.2972077 0.41999426 -0.111488886
0.20281105 -0.3331239 -0.07147691 -0.026219867 -0.23444949 -0.25883263 0.32541636 0.25104108
0.37515858 -0.07922848 -0.38542807 0.067446515 0.49229944 0.29083073 -0.29731104 -0.359744
-0.2708444 -0.3331787 0.21006097 0.14684969 0.039004605 0.2034832 -0.23696944 0.103498854
-0.15986373 -0.25701812 0.050400745 -0.0788606 -0.28730243 -0.19185592 -0.17972884 -0.050947804
-0.14227772 -0.43454087 -0.1248585 -0.2793609 -0.39686623 0.32374552 -0.21262045 0.030003479
-0.2703362 0.39482617 0.042752218

encoder1.0.bias f4 [15]
00000000: fc23 2b3d 1554 b43e 75e0 4ebe 4d34 2e3c
00000010: baac 69be f565 87be 9ce3 94be 1fcf 35be
00000020: d442 013e 2492 f1be 14b4 e63c f762 9cbe
00000030: dd75 febd 54e5 29be 185f 4c3e
0.041782364 0.352204 -0.20202811 0.010632587 -0.22819796 -0.26444975 -0.29079902 -0.17754792
0.12623149 -0.4718181 0.02816204 -0.30544254 -0.124248244 -0.16591388 0.1995815

decoder1.0.weight f4 [15, 1, 5, 1]
00000000: 0294 a1be 4944 423e c4e2 c4be d4b0 6cbd
00000010: dfa3 88be cdb4 b3be c922 643d 2feb 54be
00000020: d441 8d3e 2a83 83bc fed2 c2be ed77 bd3e
00000030: 0bb1 4ebd b786 4c3d 43e0 603e 3a47 abbe
00000040: 1db7 9c3e 73b7 1f3e bbf5 95be 1091 cf3e
00000050: a3c0 da3e 1a87 8fbd 521c a9be f702 adbe
00000060: 2dc1 bfbe 4210 dfbe 254a d5be 8a15 ef3d
00000070: 667b 74be dc7c 42be 1762 cd3d 17d8 643c
00000080: 4b21 de3e 4ee7 08be 8828 893e ebc1 de3d
00000090: 4ab7 40be 099e 123e fd6c fb3e ba77 8e3e
000000a0: 6561 b6be 7c88 173e 02b1 98be 1c00 ccbd
000000b0: 1b7d 533d 44c6 c2bd a43e 8dbe c8fb a9be
000000c0: 7de4 17be d7f5 873e ae37 ee3e 27d8 563e
000000d0: 36c7 b8be ed4f ae3e 9645 cabe ed0e c63e
000000e0: b0f5 a6bd a6d3 10be fbae 8fbe 6689 47bd
000000f0: 3ef9 ff3d 20fb 713e fd99 1ebc e6e5 cfbd
00000100: 898b b9be 3998 a23c 3922 dabe 5ad2 5a3e
00000110: 4101 94be 6a46 203e 4701 923e 7640 8abe
00000120: fb7f 58be 70ad 833e 6180 d63e
-0.31558233 0.18971361 -0.38454258 -0.057785824 -0.26687524 -0.35098878 0.055697236 -0.2079284
0.27589285 -0.016053755 -0.380516 0.3700556 -0.05046181 0.04993316 0.21960549 -0.3345278
0.30608454 0.15597324 -0.2928904 0.4054036 0.42725095 -0.070081905 -0.3302942 -0.33791324
-0.3745207 -0.4356709 -0.4165813 0.1167403 -0.23875198 -0.18992943 0.10028475 0.013967535
0.43384776 -0.13369486 0.26788735 0.10876831 -0.18819919 0.14318098 0.4910659 0.2782572
-0.3562118 0.14798158 -0.29822546 -0.09960958 0.05163298 -0.095104724 -0.27586854 -0.33199906
-0.14833255 0.26554748 0.46526855 0.20980893 -0.36089486 0.34045354 -0.39506215 0.38683262
-0.0815233 -0.14143237 -0.28063187 -0.048715018 0.12498711 0.23630953 -0.009680268 -0.101512715
-0.3623927 0.019847976 -0.42604235 0.21369305 -0.28907207 0.15651861 0.285166 -0.27002305
-0.2114257 0.2571826 0.4189482

encoder2.0.weight f4 [15, 1, 5, 1]
00000000: b117 85be a580 8fbe 3964 bf3d ffaf 88be
00000010: ee3d 4b3e 5a60 c83e ade7 fabe 426f c7be
00000020: 9de9 443e 0845 ce3e 5417 fd3d 35e5 933e
00000030: 67dc e43d 2d69 813e 2b9e 52be 7a29 983e
00000040: 7181 c63e 9aa4 a03d 768a e53e e73d 2fbe
00000050: b503 e23b 9c89 b8be 6365 27be 80e6 51be
00000060: eb28 9ebe 5951 22bd 8c5b f23d 9a23 00bb
00000070: 130f ae3e 2335 383e feb3 123e bfd3 a63e
00000080: 7f27 62bd a498 b03e d35a a5be 92dd 95be
00000090: c0d6 efbe 19ad c5be 3ba8 55be ed5d 20bd
000000a0: cffb 39be 760b cdbe 6691 b2be a016 3f3e
000000b0: 94d9 a73e 0784 0b3e 6296 823e 6f61 8fbe
000000c0: 33d1 623e 5a0a aa3b 1981 3ebe 2de9 e13e
000000d0: ba80 ff3d 6a50 bf3e a93b 70be d430 d63e
000000e0: 5e70 123e 9932 38be d9a9 493d 0abd d3bc
000000f0: b820 2dbe 5314 bd3e 5e44 51be a3b6 b4be
00000100: 6c8e 7a3d 4304 933e adb0 a0be 00cf 94be
00000110: ccbb 07bd e827 7e3e 16fd cdbe 65ec 553d
00000120: d1e0 58be 1f6c 82be 11dc 183d
-0.25994638 -0.28027835 0.09345288 -0.26696774 0.19847843 0.3913601 -0.4900488 -0.3895207
0.19229741 0.40287042 0.12357965 0.2888581 0.11174851 0.25275555 -0.20568149 0.29719144
0.3877063 0.07843895 0.448322 -0.17113458 0.0068974146 -0.36042488 -0.1634727 -0.20498085
-0.30890593 -0.03962836 0.118338674 -0.001955247 0.33995876 0.1798902 0.14326474 0.32583424
-0.055213448 0.34491456 -0.32295856 -0.29270607 -0.4684353 -0.38608626 -0.20864956 -0.039152075
-0.18162464 -0.40047807 -0.34876555 0.18660975 0.32783186 0.13624583 0.25505358 -0.28004023
0.22150116 0.0051892223 -0.18603934 0.44123212 0.124757245 0.3736604 -0.23460259 0.41834128
0.14300677 -0.17988051 0.049234245 -0.025846977 -0.16907012 0.3692957 -0.20436236 -0.3529559
0.06117098 0.2871419 -0.31384793 -0.29064178 -0.03313808 0.2481991 -0.40232152 0.052227397
-0.2117951 -0.25473115 0.037319247

encoder2.0.bias f4 [15]
00000000: 9843 8a3e 9507 753e 2666 723e 1993 e2bd
00000010: 07cb 41be 1acf da3c 3232 3d3e eac9 d5be
00000020: 6e78 ea3e c8a1 573e 62c5 8cbc c7d2 70be
00000030: 6e00 71bd 7579 b03e 29bf b7be
0.27004695 0.23928674 0.23671779 -0.11063213 -0.18925105 0.026710082 0.18476179 -0.4175561
0.45795006 0.21057808 -0.017183963 -0.23517905 -0.0588383 0.34467664 -0.3588803

decoder2.0.weight f4 [15, 1, 5, 1]
00000000: 33cd ecbe ab95 83be b7b0 ad3e 5d6b c03e
00000010: e1d7 c23e 5b20 67be c0f4 8fbe 359d c13e
00000020: 0947 8c3e 3a0a 59bd 8d74 d13e 9c08 bb3e
00000030: 6e51 463e 4b8d cd3e 999d 353e 608e 87be
00000040: 0e36 07be a34b bdbd 5877 d83e 1637 e5be
00000050: 0bcc ccbd 1a80 87bb 51ef 8c3e 6832 703e
00000060: 6102 63bd a8a2 0cbe 8d3e e23e 1852 53be
00000070: c391 a1bd 46c7 f3be cb56 6b3d 2be8 09be
00000080: 4e9c 423d dc24 983d d5b5 943e 5d10 cb3e
00000090: 1328 e1be 4dfc a5be 19c0 88be 8911 4abe
000000a0: 7912 98bd 6045 b4bb 4b64 debe 8f5c 96be
000000b0: 8a45 d2be 42f8 6ebe c320 99bd ecf8 eabe
000000c0: ecb1 493e 99bd 123d d644 353e b298 983e
000000d0: a115 84bd d6c7 1b3e c2a5 b53c 73e7 ce3e
000000e0: ae35 cb3a 3a54 273e c2c9 79be 20cf 91be
000000f0: 3fe0 983e 77ff a03e ff9a a3bd 9add fabe
00000100: 645a 82bd 421c cb3e 11cf cd3e abbd 26be
00000110: 2237 22bd 9b90 8d3d df29 d33d 3ed2 473e
00000120: 5316 bcbe 6e25 273e ff27 e0bc
-0.46250305 -0.25700125 0.33923885 0.37581912 0.38055328 -0.22570936 -0.28116417 0.37815252
0.27397946 -0.05298827 0.40909234 0.36530006 0.19367 0.4014686 0.177359 -0.2647581
-0.13204214 -0.09242942 0.42278552 -0.4476859 -0.099998556 -0.004135144 0.27526334 0.23456728
-0.05542219 -0.13733923 0.44188347 -0.20636785 -0.0788913 -0.4761297 0.05745582 -0.13467471
0.047512345 0.07428905 0.29044977 0.39660922 -0.43975887 -0.32419053 -0.2670906 -0.19733252
-0.074253984 -0.005501434 -0.43435892 -0.29367492 -0.4106868 -0.2333689 -0.07476952 -0.45893037
0.19696778 0.035825346 0.1770204 0.29803997 -0.06449438 0.1521295 0.022173766 0.40410957
0.0015503669 0.16340724 -0.24393371 -0.28478336 0.29858586 0.31444904 -0.079885475 -0.48997194
-0.06364897 0.39669997 0.40197042 -0.1628329 -0.03960336 0.06912347 0.10310721 0.19513795
-0.36735782 0.16322872 -0.027362822

encoder3.0.weight f4 [15, 1, 5, 1]
00000000: b236 f3bd 547a 233e a67e ffbd 4217 d83e
00000010: 6ca6 64bd 8722 cbbe fe97 f93c 38e8 29be
00000020: 52e8 143e 94c6 0cbe 9aa5 16be cd16 603d
00000030: a444 12be 9de3 b4be de47 623e 8982 4d3c
00000040: 2c8e 973e 9b89 813e dbb3 abbe 29dc d23d
00000050: bc1d c13a 09f7 9bbe 868f 313d 5208 5abe
00000060: 1b2b 46be 28f1 053d 4dc8 d2be e50f 753e
00000070: 42b6 b93e 8d48 b33e 6763 edbd 7b96 d03e
00000080: d728 b7be 870f 883e 6a80 a03e bdf0 e43e
00000090: dc80 1ebd 711e 3bbe 882f ac3e afa8 7c3e
000000a0: e8a3 d33e c5f7 953c dcaa 9dbe 7667 983e
000000b0: 0c44 e33c 6fc3 323e a1ce 98be 63a2 8bbe
000000c0: f8b1 9ebe 672c d83e 15c8 42be 262d 16be
000000d0: 58c7 5bbe d52b 29be 4da8 debe f214 91bb
000000e0: cef8 8d3d 7c32 89be 59f5 78be 72e4 a33d
000000f0: 6cf5 e53e e21d 84be 7529 023e 3e59 b23e
00000100: 4226 1d3e c60e d83e a290 ebbe 413c 653e
00000110: a28d 343e 3486 4abe 7206 863d 1e76 f73c
00000120: 4a8c 9e3e 2ce2 b13d ca04 68bd
-0.11875667 0.15964633 -0.12475328 0.42205244 -0.055822775 -0.3967478 0.030467983 -0.1659249
0.14541748 -0.13747627 -0.1471161 0.054709245 -0.14283997 -0.35329905 0.22097728 0.012543329
0.29600656 0.25300297 -0.33535656 0.102958985 0.0014733593 -0.3046191 0.043349765 -0.21292236
-0.19352381 0.032700688 -0.41168442 0.23931845 0.36271864 0.3501629 -0.11591225 0.40739807
-0.35773346 0.26574346 0.31347972 0.4471492 -0.03869711 -0.18273331 0.33630013 0.24673723
0.41335988 0.018306622 -0.30794418 0.29766434 0.027742408 0.17457364 -0.29845145 -0.2727233
-0.30995154 0.42221376 -0.19021638 -0.1466566 -0.21462762 -0.16520627 -0.43487778 -0.0044275457
0.06932221 -0.2679633 -0.24312343 0.08002557 0.44913805 -0.2580405 0.12711127 0.3483371
0.15346625 0.4219877 -0.46008784 0.22386266 0.17632154 -0.19777757 0.06544198 0.03020769
0.30966407 0.08685717 -0.056645192

decoder3.0.weight f4 [15, 1, 5, 1]
00000000: 4d0b 9c3e 1fbd 983e 945f 1cbe 4f29 953e
00000010: 5245 61bd 86f3 313d 1c0e 89be c40c 98be
00000020: 7c1c b6be f950 2abe 40ff bbbe 698c 41be
00000030: 1df3 443d ab65 f5be 30d3 04bd 850a a93e
00000040: 0f16 ab3d 3a87 abbe df49 473e 30e3 9f3e
00000050: 08f5 323e 76d1 96be 0fe4 a73e 2649 42be
00000060: ed17 743e b537 9dbe 1f07 033d fd72 cdbc
00000070: dcfb cbbd 900a 573e c973 9fbd f986 f53e
00000080: ed02 c9be 4adc ee3e 2d0b 8d3e 6e48 4c3d
00000090: 6f75 043e 4a77 ba3d c429 aabe a04f 6e3e
000000a0: 773a 8b3e 93f9 bfbe 00a1 e2bd ef28 ea3d
000000b0: 6aa7 f5bc 7ba8 263e 7a10 93bc 5e6a 8dbd
000000c0: c3f3 913e 43f3 483e 4cf9 c7be ff30 3b3e
000000d0: 848c af3d 733e 153e bd7a 50be 4d54 b3bd
000000e0: 2168 a63e a4da bdbe 07f4 d1bc 1b3b b93e
000000f0: 99d3 443e 7e87 8a3e 392a a1ba 1795 e03e
00000100: 4e3b 80be 1e7b a43e ee07 6cbe 1926 723e
00000110: aea1 cbbe e4a1 18be e4b9 8b3e 843b 6bbe
00000120: d083 a43e 9b5d 44be 65ea b33d
0.30477372 0.29831788 -0.15270835 0.29133078 -0.05499775 0.043445133 -0.26768577 -0.2969724
-0.35568607 -0.16632451 -0.36718178 -0.18901218 0.048083413 -0.4792913 -0.032427967 0.33015838
0.08353817 -0.33501607 0.19461773 0.31228018 0.17476285 -0.2945668 0.32791182 -0.18973216
0.23837252 -0.30706564 0.031989213 -0.025079245 -0.09960148 0.21000123 -0.07785756 0.47954538
-0.39260045 0.46652442 0.2754759 0.04987376 0.12935422 0.09104784 -0.3323499 0.23272562
0.27193043 -0.37495098 -0.110658646 0.11433589 -0.029987056 0.16275208 -0.017952193 -0.069050536
0.28506288 0.19624047 -0.39057386 0.1828041 0.08571723 0.14574604 -0.20359321 -0.087563135
0.3250132 -0.37080872 -0.025629057 0.36177906 0.19221343 0.27056497 -0.0012295909 0.43863747
-0.25045246 0.3212518 -0.230499 0.23647346 -0.3977179 -0.14905506 0.2729026 -0.22971922
0.32131815 -0.19176333 0.087849416
