train_models/AML/param2_10_param3_20_epoch_50.pth (torch, 120523 bytes, 9 tensors)

weight f4 [170, 170]
00000000: 17b7 d138 757a 84bc 5042 433b 3379 11bc
00000010: 66b8 4b3c 78cb be3c 8a31 a1ba 2310 22bc
00000020: 6416 033c da85 743b 277f e63b 8b3b 073c
00000030: cc10 19bc 3421 863c b62a 263c 8ca6 11bc
00000040: 30c7 aeba b4a6 88bb a96c 433d 41bf 0abc
00000050: 1c91 3cba 56af 3c3c 0a94 a33c 8c89 abbb
00000060: d6df 20bc ae05 27bc ee1f 233c a546 173b
00000070: 7f64 7ebc 5b15 0a3c 1ff3 623b ec9d e8bb
00000080: abd0 433d d45c 5b3d 1258 a23b 9687 9bbc
00000090: ace8 04bc 9f94 6a3c 78b1 8a3c 6d59 a5bc
000000a0: 7113 8f3c b84c 96ba e6e4 3b3c 3b6f 0f3c
000000b0: 74b6 c1bb e2e0 6dbc d6bd a7bc 7f19 803b
000000c0: 2c78 b23c 0f42 133b 32c8 8ebb 1279 3f3d
000000d0: 57bd 6b3c 8bbd bebc 1709 523c 61b7 b83b
000000e0: 9570 763b 7ec8 0bbc 7e02 abbb e61e 553d
000000f0: 1bb6 693c 9aac 473c 7983 26bb 5d71 0e3c
00000100: 4f2b 803c 179e 97bc 8f6c 013c 091d b03c
00000110: c807 9b3b 9b8e 4dbb b78a 823b 351d b1ba
00000120: 65b7 183c ed83 263c c423 03bc d0aa 8dbc
00000130: 4f94 923b 6bee ab3c 4657 603d db91 913c
00000140: 6b57 9abb a0f1 df3a 0f42 cdbb 85f8 883c
00000150: 3684 01bc 4003 a03a 1aea 4c3b 14d4 153c
00000160: 7312 493b d46d 78bc 7751 44bc e7b1 d8bb
00000170: 4014 06bc 9535 b839 700a 8d3b d5a6 41bc
00000180: 7e61 9c3c ce8f 2fbc 3ed7 75bc 28b4 39bc
00000190: 1158 183b e931 c8bb 2ca3 223b e8f7 a9bb
000001a0: d563 7a3a 7c48 cfbb 672d 2dbc 6032 93bc
000001b0: bc7d b1bc af04 11bb 5af7 f7bb 95ef 8c3b
000001c0: 4214 a63b 66ce 2e3a 114a c5bb 4a73 853c
000001d0: 5147 423c afe0 d0ba 42f4 a8bc 9b87 e3bb
000001e0: 6c24 94bb 610d 0b3c 0a6a 203b f865 70bc
000001f0: 76d1 13b8 3c9d a73b 9f53 debb 1c9f abbb
00000200: 1897 723a 05e4 873c 575b df3b be65 9bbc
00000210: 7bdf e3b9 cdcc ae3a f63b ccbb 1d21 c53c
00000220: 1f21 a03a 0c00 ed3b eb47 093b 36cc 44bb
00000230: 3785 863c 069f a43c a382 e13c 2bf2 3e3d
00000240: 4e4c 003d 564b 563d 7e8d 99bc ddcf 073c
00000250: 12e2 0c3c c52f 0f3b dbee aa3c 0e58 de3b
00000260: 7486 c239 7763 4e3d 2f23 c83c 735d d13c
00000270: 69bb 03ba 4ae4 3c3a 4b56 423d c43c 5b3d
00000280: f4c4 2cbb 7e02 4d3d 7c83 55bc eb60 373c
00000290: dc40 c4bb 9d14 2c3d d9ea 1e3b 8357 13bb
000002a0: b269 8e3c d20c 533d c966 18bc 17b7 d138
000002b0: a793 74bc 4abf a13c 311c 14b9 6de5 e13c
000002c0: 422b f7bb 1cb8 b3bc 3aa5 913c 8046 1f3c
000002d0: c128 8b3c 3865 d73c a2e4 d73c 90bf 94bc
000002e0: 3d78 a9bc b98c c13c e945 993c 774c 0f3d
000002f0: 30af a4bb 8bad d6bc ec63 053c 4f21 003d
00000300: c31f c43c 0ae6 d6bb dad0 b43c a843 1c3d
00000310: b3da 913c 2216 0d3c 6054 253b f49b 583b
00000320: 8705 3d3c b207 c7bc 3c2f 05bc 270d 56bb
00000330: 7d31 b53b afe5 df3c 3d29 fdbb 82cd 943c
00000340: 2f01 c7bb bcb1 d03b fb30 523c bb44 b03b
00000350: 30bc 893a c683 71bc d536 cb3c f5e2 c83c
00000360: f8de c03b 2ec5 98bc 161b 65bc d27b 893c
00000370: 335a b5bb 0d6a 8abc a0cf 083d 1cfb 263d
00000380: ba21 093d 061e 243c 3e18 dcbc 14e0 c13c
00000390: bfd1 88bb 5162 5dbc bafb 8dba 9cd4 023d
000003a0: 6c11 0e3c fb6d 813c 74ee 60bc b1b9 c03c
000003b0: 16f8 073c 4d16 84bc 5a1d 6b3c b63e 883c
000003c0: 4487 16bc a133 a33c b84d cf3c e07d ed3b
000003d0: 989c 103d 2d3b ee3c 144d 09bd 128e 91bc
000003e0: 62ac 76bc 84ee 32bc d3cc dd3c 42f5 033d
000003f0: 203d 0e3d 8d24 12ba f466 86bb 1e20 aebb
1e-04 -0.016171673 0.0029794164 -0.008878994 0.012434101 0.02329038 -0.0012298089 -0.009891543
0.008000944 0.0037311227 0.0070342007 0.008253942 -0.009342384 0.016373254 0.010142019 -0.0088898055
-0.0013334509 -0.004170263 0.04771105 -0.00846845 -0.0007193254 0.011516413 0.019968051 -0.0052349027
-0.009818992 -0.010194225 0.009956343 0.002308288 -0.01552689 0.008427943 0.0034629775 -0.007098904
0.047806423 0.053555325 0.0049543465 -0.01898555 -0.008112114 0.014317661 0.016930327 -0.020184243
0.017465325 -0.0011466956 0.011468148 0.008754547 -0.0059116427 -0.014518948 -0.020476263 0.0039092894
0.021785818 0.0022469794 -0.0043573612 0.04674632 0.014388404 -0.02328374 0.01281955 0.005637095
0.0037603725 -0.008531688 -0.005218803 0.05203142 0.014264609 0.0121871475 -0.0025407954 0.00869402
0.015645651 -0.018508 0.007899418 0.02149822 0.004731152 -0.0031365517 0.0039838213 -0.0013512733
0.009321068 0.0101632895 -0.008004133 -0.017293364 0.004473246 0.02098771 0.05477073 0.017769745
-0.004710128 0.001708556 -0.0062639783 0.016720066 -0.007905057 0.0012208 0.0031267465 0.009144802
0.0030681163 -0.015162904 -0.011982313 -0.0066130045 -0.008183539 0.00035135137 0.0043042228 -0.011819561
0.019089457 -0.010715438 -0.015004931 -0.0113344565 0.002324585 -0.0061094654 0.0024816496 -0.0051870234
0.00095516193 -0.0063257795 -0.010569907 -0.017968357 -0.0216664 -0.0022128036 -0.0075673284 0.0043010213
0.005068333 0.0006668329 -0.0060207923 0.016290326 0.0118578235 -0.0015936102 -0.020624284 -0.0069436557
-0.0045209434 0.0084870765 0.0024477267 -0.014672749 -3.5242607e-05 0.0051151793 -0.0067848708 -0.005237473
0.0009254082 0.01658822 0.0068163085 -0.018969413 -0.0004346332 0.0013336182 -0.006232734 0.024063641
0.0012216902 0.0072326716 0.0020947407 -0.0030028946 0.016420944 0.02009536 0.027528113 0.046617668
0.03132277 0.05231794 -0.018744227 0.008289305 0.008598821 0.0021848541 0.020865848 0.0067853993
0.0003710274 0.050387826 0.02443084 0.025557255 -0.00050251797 0.00072056486 0.047445577 0.053524747
-0.002636251 0.050051205 -0.013031837 0.011192541 -0.005989177 0.042011846 0.0024248867 -0.002248258
0.017384384 0.0515259 -0.00930185 1e-04 -0.014927781 0.019744534 -0.00014124882 0.027575219
-0.0075429985 -0.021938376 0.017778981 0.009721398 0.016987206 0.026293382 0.026354138 -0.01815775
-0.020687217 0.023626672 0.018710094 0.034985032 -0.005025767 -0.026205799 0.008141499 0.031281766
0.023940926 -0.0065581845 0.022072244 0.03815046 0.01780448 0.008611234 0.0025227293 0.003305194
0.011536962 -0.024295662 -0.008128937 -0.0032661648 0.005529581 0.027331201 -0.0077258633 0.0181644
-0.006073139 0.006368844 0.012829061 0.005379287 0.0010508355 -0.01474089 0.02480642 0.024522284
0.005885955 -0.01864871 -0.013983509 0.016782675 -0.005534434 -0.016896272 0.03340113 0.04076682
0.03347943 0.010016924 -0.026867028 0.02366642 -0.0041753943 -0.01351221 -0.0010832467 0.03194104
0.008671146 0.015799513 -0.013728727 0.023526045 0.008298894 -0.016123915 0.01435026 0.016631465
-0.009187523 0.01992208 0.025305614 0.0072476715 0.03530559 0.029080952 -0.033520773 -0.01776794
-0.015055748 -0.010921124 0.027075207 0.032216318 0.034726262 -0.00055749045 -0.0041016284 -0.0053138873

encoder1.0.weight f4 [15, 1, 5, 1]
00000000: 9cf8 2d3e a9ae fabd 1b12 083e cb6e d0bc
00000010: 19ed b5bd 8860 143e 1583 0bbe b5bf adbe
00000020: eba5 9e3e 147c 93bd 71ec 7dbd 1d8b 493e
00000030: e70e be3e a1d0 0abe e893 bbbd ba8d 13be
00000040: 9ff7 ddb9 2703 23be 690a 89be 1f53 90be
00000050: 5e45 c43d 5328 79be ceda c53e 2af4 593e
00000060: 57a8 123e c0d7 c83d b4a0 1f3e 9969 c9be
00000070: ac40 cd3e 37cd 82bd ba4c a33e 08e5 66be
00000080: 1e82 aebe 9fd1 44be 983a 483e 2931 923d
00000090: 5684 933e f2bf 7dbe bf31 243e d326 ce3e
000000a0: a7c9 b4be 7584 89be 88c1 a33e f012 b53e
000000b0: 289c e43c be63 f5bd 78a9 a73d 8e81 d13e
000000c0: 9a93 c93d 5ba9 c73e 149e d33d 8814 3cbe
000000d0: c6f8 783e 8902 903e c588 6dbd fbeb f13d
000000e0: 3720 d1bd 48ae 183e 4a3a d7bd b989 ffbc
000000f0: e0ee 0e3e e711 2abe c053 65bd 6317 ae3e
00000100: 760d f8bd ffd0 233e bac4 263e 53c6 8f3c
00000110: dd90 4dbe 5236 89be 57e7 ad3e c637 993d
00000120: ba0e 40bd b338 99be 0fb1 31be
0.16989368 -0.12240345 0.13288157 -0.025443455 -0.088831134 0.14489949 -0.13624223 -0.33935323
0.3098596 -0.072014004 -0.061993066 0.19681974 0.37120745 -0.13556148 -0.0915907 -0.14409533
-0.00042336897 -0.15919171 -0.26765755 -0.28188416 0.09583543 -0.24331789 0.38643497 0.21284547
0.14322029 0.09806776 0.15588647 -0.39338377 0.40088403 -0.06386798 0.31894475 -0.22548306
-0.34083647 -0.19220589 0.19553602 0.07138283 0.28811902 -0.24780253 0.16034602 0.40263996
-0.353101 -0.2685887 0.3198359 0.3536601 0.027906492 -0.11981915 0.081866205 0.40919155
0.09842606 0.38996395 0.103328854 -0.18367207 0.2431365 0.28126934 -0.05799176 0.11812588
-0.102112226 0.14910233 -0.10509165 -0.031193601 0.13958311 -0.16608392 -0.055988073 0.34002218
-0.121119425 0.15997694 0.16285983 0.017550623 -0.20074792 -0.26799256 0.3396556 0.07481341
-0.046889044 -0.2992607 -0.17352699

encoder1.0.bias f4 [15]
00000000: a790 103e 3a83 5a3e c45d c1bd dbf9 9ebe
00000010: 269e 883e f5fd d5be e516 a43e 774e edbd
00000020: a84c cd3d aa6e 96be 0733 843e 7d73 473e
00000030: 6843 0bbf e5d6 363d e037 243d
0.1411768 0.21339121 -0.094417125 -0.3105 0.26683158 -0.41795316 0.32048717 -0.115872316
0.10024387 -0.29381305 0.2582018 0.19477649 -0.5439973 0.044638533 0.04009235

decoder1.0.weight f4 [15, 1, 5, 1]
00000000: e3ed 5dbe 06eb bcbe a829 c13d cd55 cfbe
00000010: 0dbb 96be 35b7 9e3e 7364 7e3e 51d8 9bbe
00000020: 840c afbd c625 803e c007 813e b1c0 023f
00000030: 7612 043f eb30 843e 30b6 4cbe dbb8 05bf
00000040: f077 43be 4b48 a2be 0e5b cebe 706b 88bd
00000050: cc6d 343e 0554 b53e 298c 633e 1988 df3d
00000060: 470b babe a779 293e 538b d2be 1cc2 0fbe
00000070: cf3b 623e ddd4 e9be ca6e 06bd 48c0 9bbe
00000080: 8840 c13c f74c babe 0d5a af3e 9a0c b53e
00000090: a0dd 243e 6867 59be 3c82 d53e bf2c a53e
000000a0: 52d9 dbbe e26c 85be bed3 85be 3629 01be
000000b0: 26ab ddbe fe17 a7be 8f65 0cbe 1633 013f
000000c0: 4b84 543e 7750 d7bd f90d a83d b4df 8b3e
000000d0: 9f63 54be f431 1fbe 2746 abbe bee0 f43e
000000e0: d802 bebe d82a 78be 7f4f 9ebe 5783 23bd
000000f0: 296d c03d 0667 7d3e c674 0cbc 4382 7bbe
00000100: dcfc 9b3e f63e 20bc 57db a0bc 21c0 e93d
00000110: c6db c43e b372 e3be 19a7 b13d ee3c 323e
00000120: c937 b2be f19f d4bd 3144 a83d
-0.21672778 -0.3689806 0.094317734 -0.40495148 -0.29439583 0.3099915 0.24843006 -0.30438474
-0.08547309 0.2502882 0.25201225 0.51075274 0.5159067 0.2581857 -0.19991374 -0.5223519
-0.19088721 -0.3169578 -0.40303844 -0.06661117 0.17620009 0.35415664 0.22221436 0.109146304
-0.3633673 0.16550313 -0.4112192 -0.1403889 0.22093128 -0.45670214 -0.0328205 -0.30420136
0.023590341 -0.36386845 0.3424839 0.35361177 0.16100168 -0.21230853 0.41700923 0.322607
-0.4293924 -0.26059633 -0.2613811 -0.12613377 -0.43294638 -0.32635492 -0.13710617 0.50468576
0.20753591 -0.10513394 0.0820579 0.2731911 -0.20741127 -0.155464 -0.3345196 0.47827715
-0.37111545 -0.24235094 -0.30920026 -0.039920177 0.09395821 0.24746332 -0.008572763 -0.2456141
0.30466354 -0.009780636 -0.01963584 0.11413599 0.38448924 -0.44423446 0.086744495 0.17406055
-0.34808186 -0.10382069 0.082161315

encoder2.0.weight f4 [15, 1, 5, 1]
00000000: 4f98 a0bb b834 163d 41e4 883e d051 bfbc
00000010: a61a 373e cd8f 7fbe 3605 8d3e 2936 69be
00000020: 7b8e 8c3e be8f adbe fcc1 9abd ce28 a43d
00000030: 1fe6 45be c5bd b33d 6c11 ac3d 55b3 a0be
00000040: b00c 22be 3ac0 673c 26a0 7c3e ec96 383e
00000050: 2f70 4f3e 251f ebbd af2d 563e 0c69 70bd
00000060: dcd0 3bbe 9292 8cbe a55d b73c 8bfc 9e3e
00000070: 15f8 c23c e497 453e c68b d73e c99e 183e
00000080: 5b2b 34be 615d 283d 88f9 69be 7e60 db3b
00000090: 7cac acbd 965b 163e 4043 02be d4af 9d3e
000000a0: 6e82 b1bc c36a 69be 00ea 7b3d deab b8be
000000b0: e9a1 b7be 81b3 34bd 5f2d 673d e242 65be
000000c0: 42c8 36bd 5d88 433e 724b 87be 5598 95be
000000d0: 0072 2dbd 055d 8fbe 7ecc 213d d75f 763d
000000e0: e4d9 373e d6d1 183e 247f 083e eb0f 2b3e
000000f0: e43c 313e 3c56 e1bd d235 37be c5c7 8bbe
00000100: f765 083e ba8f 99bd b405 943d 3b2f 0abe
00000110: 299d 3fbe 0d7a a43e 9909 d93e 876a 9cbe
00000120: 1ae8 9e3e fe5e 293d 6400 23bd
-0.004900969 0.03667137 0.26736644 -0.02335444 0.1788126 -0.249572 0.27543038 -0.22774567
0.27452454 -0.3389873 -0.07556531 0.080155954 -0.19326065 0.0877643 0.084017605 -0.3138682
-0.15825152 0.0141449515 0.24670467 0.18026322 0.20257638 -0.1148055 0.20915864 -0.05869393
-0.18341392 -0.27455574 0.02238352 0.3105205 0.023799935 0.19296223 0.42098826 0.14904322
-0.17594664 0.041104678 -0.22849095 0.0066948524 -0.08431336 0.14683375 -0.12720966 0.3079821
-0.021668639 -0.22794633 0.061502457 -0.36068624 -0.35865715 -0.0441165 0.056439754 -0.22388795
-0.044624574 0.19094987 -0.26424748 -0.29217783 -0.042345047 -0.28000656 0.03950166 0.060149994
0.17954212 0.14923796 0.1332975 0.16705291 0.17308384 -0.11002776 -0.17891625 -0.2730085
0.13320147 -0.07498117 0.0722765 -0.1349458 -0.18712296 0.32124367 0.42390135 -0.30550024
0.31036454 0.041350357 -0.039795294

encoder2.0.bias f4 [15]
00000000: bec4 9a3e 9990 8b3e 50d8 27be 8b6f a6be
00000010: 2550 94be bdc0 463e 83c5 10be 4729 053e
00000020: b066 423e afbc 9d3e d090 1c3e 4d41 ac3d
00000030: 3d8f 36be a7f7 6ebe 9e0b 053e
0.30228227 0.27258757 -0.1639111 -0.32506976 -0.28967395 0.19409461 -0.14137845 0.13004027
0.18984485 0.30808017 0.15289617 0.08410893 -0.17828079 -0.2333666 0.12992713

decoder2.0.weight f4 [15, 1, 5, 1]
00000000: bd88 a83e ccec f4bd b6ad 2ebb 36fc 8a3e
00000010: 0565 d23e d16c 34be e471 f9bd 0163 9b3e
00000020: 7427 2c3d 4ac7 b6be 8139 7e3e ba45 c93e
00000030: f45f a83e 247e d43e a712 5ebd b5a0 1ebc
00000040: 98e9 5dbe 0319 553e c501 193e cce9 553e
00000050: ce09 3dbe 6de7 963e 1c0e c43e f7f6 df3e
00000060: e3bf d0be be2a a1be be3f 8c3e cd6c a33d
00000070: 18e9 963e 0741 493e 3bc2 a93e 3070 26be
00000080: 9085 3d3e 9e4c eebd 8ed9 1d3e 11c7 1abe
00000090: e013 ce3d a6e6 9b3e 0f0f 9fbe 60f0 d53e
000000a0: b8f0 ddbd 7ab7 5bbe d5a6 b4bd 3664 cabe
000000b0: 6f92 9cbe 9de7 20be 2a93 c3bd a970 b3bd
000000c0: 74ff afbe 9a5f 593e ad27 473e 64f6 b8be
000000d0: aa61 8d3e 1259 853c 53c3 6fbe 0678 823d
000000e0: 1eb4 a8be e8f4 683e c6e9 193b b39b 163e
000000f0: 68ff 013f f8bd d6bd 9ab8 d8be 5f68 d7be
00000100: be1e cd3c 7f3c a63d 0ae4 09be ee1b 683e
00000110: e981 503e 5c66 8abc 62bd e83e 3899 2e3e
00000120: 60d1 f03c 4184 c13a b663 4c3e
0.32916823 -0.11959228 -0.0026653833 0.27145547 0.41092697 -0.17619635 -0.12179926 0.3034897
0.042029813 -0.3569892 0.24826623 0.3931101 0.32885706 0.41502488 -0.054217007 -0.00968187
-0.2167114 0.20810322 0.14942081 0.20889968 -0.18460771 0.2947344 0.38292015 0.43743107
-0.40771398 -0.31477922 0.2739238 0.079797365 0.2947471 0.19653712 0.33156 -0.16253734
0.18507981 -0.11635707 0.15415022 -0.15115 0.100623846 0.30449408 -0.31066176 0.41784954
-0.10836929 -0.2145671 -0.08820883 -0.3952958 -0.3058047 -0.15713353 -0.09549554 -0.087617226
-0.34374583 0.21227875 0.19448729 -0.3612548 0.27613574 0.016277824 -0.23414354 0.06370549
-0.32949919 0.22749674 0.0023485287 0.14707832 0.50780344 -0.104854524 -0.4232834 -0.42071816
0.025039073 0.081170075 -0.13465896 0.22666904 0.20362057 -0.016894512 0.45456988 0.17050636
0.029396713 0.0014764146 0.19959912

encoder3.0.weight f4 [15, 1, 5, 1]
00000000: 2120 f83d 01ac 7cbe b7cf 40be 789e 91be
00000010: a985 b0bd 1b0c cbbe 7118 48bc 7f0c 173e
00000020: c1b5 5c3d 87b1 78be ab44 95be 68cf 673d
00000030: 6f45 633c aac5 333e 769e 9bbd 7524 48be
00000040: cf02 f03d a582 64bc 4f75 86bd 665c 333e
00000050: 547b 663d 29b8 41be c403 9fbe 8952 513b
00000060: 196c c4be 8d70 a23c de94 043e 3c5e 463c
00000070: 60ef 883c 0503 a33e ae77 9c3d d3ee 0b3e
00000080: 61bd d23c 62f3 52be d734 b1be 1b07 213e
00000090: dd06 c43e dafd 94be a57c bebe f2a6 913c
000000a0: 1c98 e3bd 38cb 86be f8af 8dbe 9677 e73d
000000b0: fa3c 8ebe c8f3 583c 67e3 743e 3989 d8bd
000000c0: 6c04 a3be 2308 8abe 0d02 6dbd 87db 96be
000000d0: df9c b93d 5fd4 503e bf52 8abe aa61 c73b
000000e0: 752a 6ebe 8a78 ae3d a7f0 61bd eb17 543e
000000f0: 5bbb 4bbe bf7a 86be a6d3 bc3e 8d3e 8dbe
00000100: 890b 8a3e 8b8e 843e 15e8 a1be a4d3 a2be
00000110: 5a61 9ebe a814 4e3e a063 8fbd afec afbd
00000120: 3ddd 7b3d 5da0 cf3e 6963 00be
0.12115503 -0.2467499 -0.18829237 -0.28441215 -0.08619244 -0.39657673 -0.012212859 0.1475086
0.05388427 -0.24286471 -0.29153952 0.056594282 0.013871535 0.17555872 -0.075985834 -0.19545157
0.11719286 -0.013947164 -0.065653436 0.17515716 0.05626996 -0.18917908 -0.3105756 0.0031940064
-0.38363722 0.019829059 0.12947413 0.012107428 0.016715705 0.3183824 0.076400146 0.13665323
0.025725069 -0.20600656 -0.34610626 0.15725367 0.38286486 -0.29099923 -0.3720447 0.017779801
-0.11112997 -0.2632692 -0.27673316 0.11302106 -0.27780896 0.013241716 0.23914872 -0.10573048
-0.3183931 -0.26959333 -0.057863284 -0.2946436 0.09063124 0.20393513 -0.27016255 0.0060846405
-0.23258384 0.08519085 -0.055161145 0.20712249 -0.19895689 -0.26265523 0.36880225 -0.27586785
0.26961926 0.25890002 -0.31622377 -0.31802094 -0.30933648 0.20125067 -0.07001424 -0.08590066
0.061490286 0.40552035 -0.12537922

decoder3.0.weight f4 [15, 1, 5, 1]
00000000: deec 573e 2245 cbbd 64ce 02bf 28b0 633e
00000010: 166d 78bd fd54 1abe e3a5 de3d 88d1 77be
00000020: fccc 9cbe 6f52 cbbd c7ba d0be 5ed5 8f3e
00000030: e13e 39bd 10d5 433e f136 1bbe d51a 3c3e
00000040: 8713 503e 5043 31bc 9fd6 843e 27f7 b43d
00000050: 193a 96be b4d4 13be f514 853d 661f 01bf
00000060: f7e8 59be f120 66be e680 e73e 3a62 7abe
00000070: 105d aa3e e979 e93e 3dc0 d43c 4001 043e
00000080: 20ae 2b3e 905b db3d accc 063e f6cf c63d
00000090: 3ba8 2d3e ea39 993c 44bb 4dbe 6549 77be
000000a0: e96a c8be 4f30 623c 690c 143e 05b1 9b3e
000000b0: 6548 f43d 37ba 7e3e f64c d33e 99ca 9cbe
000000c0: 3d70 fcbe 0562 acbe 1e28 8c3e cd2d 88be
000000d0: d97e 803b b387 bc3e af34 2c3e 3c09 34bd
000000e0: 01f0 5fbe 0cb4 8a3e ff6a 993e cc97 93be
000000f0: 148a 85bd bb0f 77be 174e dc3e 6e4d ebbe
00000100: 0caf 6f3e 2688 6bbd c8df abbe 3975 393e
00000110: c508 5b3e 7365 b93e cf27 c53d 0f84 873e
00000120: 4851 85be 3f41 f33e 2437 923b
0.21086451 -0.099252954 -0.5109618 0.22235167 -0.060650907 -0.15071483 0.10871484 -0.24201024
-0.3062514 -0.09927832 -0.407675 0.28092474 -0.04522598 0.19124246 -0.15157677 0.1836961
0.20319949 -0.010819271 0.25944993 0.08836203 -0.293412 -0.14436609 0.06498138 -0.50438535
-0.21280275 -0.22473504 0.4521553 -0.24451533 0.33274126 0.45600823 0.025970573 0.12891102
0.16765642 0.107108235 0.13164014 0.09707634 0.16958706 0.018704373 -0.20090967 -0.24149092
-0.39144066 0.013805463 0.14457859 0.30408493 0.11927871 0.24875723 0.41269654 -0.3062332
-0.4930438 -0.33668533 0.27374357 -0.26597443 0.0039213714 0.3682228 0.16816972 -0.04395412
-0.21868898 0.2709049 0.29964444 -0.2882675 -0.06520477 -0.24127094 0.43028328 -0.45957512
0.23406619 -0.05750289 -0.3356917 0.18111123 0.21390064 0.36210212 0.096267335 0.2646794
-0.26038575 0.47510716 0.0044621397
